results/vqe_data/with_params/10q7l/sgd_10q_7l_42/parameters/params_ite782.npy (npy, 2448 bytes, 1 tensors)

array f8 [290]
-0.697837800823472 3.033367345204566 1.9088417199254488 -0.028511912332932095 -2.513582557163172 -2.466857808109861 -2.888625399340246 2.8497188033646625
0.043199156935359494 1.058846667695072 -3.2609479191120134 3.376794780671665 2.839809201474121 -1.5818098617511627 -2.28971606858599 -1.1892185394242192
-0.3128126490263923 0.09746022583255264 -0.5219818840948363 -0.9881336636618377 0.7278616756896671 -2.0552785967119753 -0.8563828056086588 -0.44361154502366595
0.24623861602228603 1.568071929440927 -2.2052384871291033 -0.24012729777637823 0.4184225554943804 -2.430323437104972 0.6270998394242034 -2.1167345257295502
-1.8984917198607956 2.938188033756321 2.489407513952731 1.8085511414339719 -1.6275030603397194 -2.36526081718879 0.9198974563443851 -0.6861646376183527
-2.193432776022854 -0.1534707610566969 -3.0089982315235755 2.3145420410451347 -2.13378245068795 0.5453635402170045 -0.6625243098017113 -0.038817225304173794
0.07028553863354985 -1.4967525963143458 3.6409961490498834 1.7315936782543306 2.8290153148872004 2.9477429421123764 0.6665993326570696 2.859127091168939
-3.201760219988081 -1.0910623337512413 -3.096434327874208 -1.01709238142053 -1.2203599704704777 -0.7613239906056045 2.7271472093621743 -1.0032323025355367
-1.2269035501409926 -0.20686582987343172 -2.0606053783330984 2.065341799628299 -3.026264338112689 3.0775468415507863 1.0461140464378351 -1.2567728718486495
-2.8736156767662657 1.4923932219304679 0.5116293908150442 1.393389160015606 0.6011593964274661 -2.772691109946037 -0.7753454135985361 -2.657851469525188
1.5738733061070291 0.8712240756959669 -0.4508069904444844 -2.900615690435861 -1.6833735169974446 -2.1311236063734604 0.8058211915884238 0.9092530802746139
2.920812951021718 -0.04583278338520995 -1.625309991758015 1.6178719461710782 1.5183363967057328 0.39442781610271904 1.6268177274696718 -0.2542423653790613
0.3058601202023279 -1.091583544122334 -3.052589894898653 -2.8458103498725618 -2.1595057878294943 -0.1080458144803439 -1.1910599066212058 0.09158337300341646
2.3557022472562066 -1.3604043516789384 -1.1942647715602501 1.432173930290711 -1.810498316410473 -3.1227063264345882 -1.4014668285708969 -2.064446092928271
2.259523798281597 1.9407789671148667 1.0307824466791555 2.837186694620669 1.302876699639263 -1.7668458282565156 2.328398445803521 0.5411400970854934
1.5140819760241127 2.9210790785183476 -1.4687725461130872 -2.5473532036215993 -1.5202479742426445 0.11023713987173937 2.562090774077959 2.7923060134337856
-3.322556473895807 -0.36875544218453404 0.1760526481251094 -1.9233244001392933 -1.7359407362454673 -0.8935933679303082 2.581108334355194 -0.9337061956085559
-0.795938495939838 0.7520143993537776 -0.796407809926663 3.763914575474006 3.018201413776989 -2.043983072686368 0.4540853422844241 -0.3571100711709318
-1.5698115250482403 -2.797774471623645 0.09867808282407253 0.5902555943813379 -3.242171553650724 -0.8136108835160667 2.169986123191804 -1.8021804804266928
-1.9030955503139209 -0.5518477318950712 3.951390541825018 -0.997055697988648 0.46604346332519564 1.7613884057176261 -1.909607389892564 0.6235705115072403
-0.1554779095805589 1.3726787513680843 1.2015131048500591 -0.05382935394208371 -2.0385779200088776 2.9060393208117503 -1.250542920763402 -1.9429385232218415
-3.317976215328584 0.3115591111743383 1.3444906148425952 -2.9505773406065354 -1.0936106773925474 -1.8716141651191611 1.1572753714740027 -2.2792978396956527
1.4883608627660625 -0.6298056368250583 1.6876170174488851 -2.9791260154847548 -0.4775464163848279 -2.7409243494228623 2.4580063894623096 3.055252086421227
-1.2868927002404227 1.1088821487578289 1.9274371971809952 0.01524167758103511 -0.4129689108858645 -1.5452861264283935 -2.2843953838844175 2.3155952300733107
3.2566799456961815 0.437782581306328 -1.030303594119217 -1.6569764801562195 1.7994502794604903 2.125290350235145 1.9575778014174376 2.6368945636217656
0.3149794644525802 -3.190990267116002 -1.8877673018715435 3.1045740188425706 0.31581090471254863 -3.389235042940076 -3.1047479404048466 1.5745313092221884
-2.5986306587570587 -2.2170348442840986 0.3766716466636978 1.8425096164032562 0.8063812066413493 -1.9562728969602234 1.0427956252749384 -1.7572301231604561
-1.4458008359902248 1.93657589841163 0.5719785493328499 2.7480934159819896 0.11320823315151825 0.06213714380196369 -2.171562499061549 -0.03163125831045424
-1.3258865683187135 -1.4307160445512561 3.1615538365766396 -0.20282087071263635 3.022532771411355 0.9044699619300639 2.2278456023950577 -0.3090681282686646
0.7645786440106264 -0.7080128800456632 -1.709077632030004 1.5898083959771212 -1.0055877229370336 -2.701296897892265 0.907217132278337 -1.746752018758608
3.1590582301820858 3.2045750274185045 3.306762165031996 -0.028350315297788715 -2.741195237634171 1.6757576162717456 0.017846783489713615 3.1452349092169913
3.132880353097085 2.4874787922186843 -1.4692893499573432 -0.6764072923581992 1.9607831375441749 -1.3413484219387257 -1.9303900496231576 -0.06410075720054827
00000000: 4661 8ef0 af54 e6bf 7d43 4319 5644 0840
00000010: 841f 859d 9d8a fe3f 4fc1 100c 3a32 9dbf
00000020: b87e f62b d11b 04c0 78b6 4df2 1fbc 03c0
00000030: 897d 24a2 e71b 07c0 d7fa 395f 39cc 0640
00000040: 9318 812c 331e a63f a2a9 1334 09f1 f03f
00000050: e15c d4dc 6b16 0ac0 6d4e 62fb ac03 0b40
00000060: 97b0 f9e2 edb7 0640 6862 8bdb 174f f9bf
00000070: c39e 7da8 5651 02c0 87fb e904 0a07 f3bf
00000080: 98fb 5558 1f05 d4bf 0791 9c42 27f3 b83f
00000090: 4c56 295a 13b4 e0bf df22 307d ca9e efbf
000000a0: 032a a391 a44a e73f a85f a8e7 3571 00c0
000000b0: ef44 dee9 7c67 ebbf a04c 80ad 2164 dcbf
000000c0: 90fc 6939 bf84 cf3f 2697 6b97 d216 f93f
000000d0: d5cc 7013 54a4 01c0 69c7 69c5 7dbc cebf
000000e0: 7974 f065 6fc7 da3f 9b8b 086a 4d71 03c0
000000f0: f9eb b4ae 3311 e43f 7594 d282 12ef 00c0
00000100: 6b76 88da 3860 febf 05db 53ba 6881 0740
00000110: c8bf 967c 4eea 0340 59a3 5952 d3ef fc3f
00000120: bec8 24a6 400a fabf 4fb0 02dd 0dec 02c0
00000130: f086 55ca cc6f ed3f b1c2 c78a 0ff5 e5bf
00000140: f3f0 b77b 268c 01c0 35bc d00d eea4 c3bf
00000150: bcec 30aa 6d12 08c0 2c0c 1c9e 2e84 0240
00000160: 2ade 9388 fc11 01c0 c835 353d 9e73 e13f
00000170: 04e8 6c2e 6633 e5bf 36e1 67f2 d9df a3bf
00000180: 5b16 d0a9 3bfe b13f a6f8 b5d9 b2f2 f7bf
00000190: e13f c896 c220 0d40 ce00 a192 9bb4 fb3f
000001a0: df96 0ac8 d2a1 0640 8e19 6b40 fa94 0740
000001b0: 7085 a91f c854 e53f f66c 3d06 7edf 0640
000001c0: 4fdc 5376 349d 09c0 8abe 15c7 fd74 f1bf
000001d0: a473 635c 7fc5 08c0 1564 33a9 0246 f0bf
000001e0: a94a 282d 9886 f3bf 07f6 2921 c45c e8bf
000001f0: a4b4 5c8e 32d1 0540 00e5 9a50 3d0d f0bf
00000200: d13a f39d 65a1 f3bf 5caf fb5a 947a cabf
00000210: 0b38 2fac 1e7c 00c0 feb8 e3eb d185 0040
00000220: eff5 c913 ca35 08c0 24f3 e2e0 d09e 0840
00000230: 3c63 1515 e2bc f03f 6e70 f1de bd1b f4bf
00000240: 45df 4737 2afd 06c0 356a 0fb7 d7e0 f73f
00000250: f622 a799 445f e03f 14e3 8d6e 524b f63f
00000260: a1d9 6aa1 b23c e33f 7e06 39ad 782e 06c0
00000270: 3d4c 502f a1cf e8bf c9e3 99a1 4743 05c0
00000280: f36e 9cc6 952e f93f a343 1350 11e1 eb3f
00000290: 8b1a 3190 05da dcbf eb7d c5ff 7534 07c0
000002a0: ed4d a711 19ef fabf 58dc 8888 8a0c 01c0
000002b0: 1579 0986 49c9 e93f a622 72ea 9918 ed3f
000002c0: e4f8 322e d35d 0740 06c1 7203 6577 a7bf
000002d0: 3c67 c70c 4501 fabf ffba 9eb1 cde2 f93f
000002e0: 78d7 021b 1b4b f83f f0ce b22a 4e3e d93f
000002f0: 8390 8006 7207 fa3f 58e3 23c5 8145 d0bf
00000300: 2cdb 5a53 3693 d33f 15b7 6d4e 2077 f1bf
00000310: b284 3540 b46b 08c0 5991 7a37 38c4 06c0
00000320: ce00 72f8 aa46 01c0 a8aa a9f7 e3a8 bbbf
00000330: 003d 28d5 940e f3bf f833 e807 0272 b73f
00000340: 06a2 786b 7ad8 0240 04c1 7c5a 37c4 f5bf
00000350: e5db 8960 b51b f3bf a984 0c36 2fea f63f
00000360: fd22 2715 cdf7 fcbf 0f64 5874 4dfb 08c0
00000370: e240 327b 686c f6bf efda 2b50 fc83 00c0
00000380: ac39 9136 8113 0240 425e 083f 6e0d ff3f
00000390: 0572 1cbc 157e f03f 3f56 10f0 8eb2 0640
000003a0: 9ebc fa3c 95d8 f43f e7f8 9621 0045 fcbf
000003b0: 4e44 465d 8fa0 0240 ac2a 7109 0551 e13f
000003c0: 32c9 a705 ae39 f83f 0321 3ab5 5e5e 0740
000003d0: 0218 2da4 1780 f7bf 2553 67b7 fa60 04c0
000003e0: 25eb 328a ef52 f8bf 2bbf 8d4e 8038 bc3f
000003f0: a162 a072 297f 0440 5cfa 0089 a456 0640
00000400: edf6 137d 9894 0ac0 d8e4 196d b099 d7bf
00000410: 3e28 09a7 e488 c63f 4027 63ce efc5 febf
00000420: bf7e 1fcb 69c6 fbbf 85dc 651e 5198 ecbf
00000430: a3e8 5b20 1ca6 0440 30c3 c6d0 ebe0 edbf
00000440: 8f0c 3602 5478 e9bf d00e 6b80 8010 e83f
00000450: 813f 3d3b 2c7c e9bf e4c9 b43e 7f1c 0e40
00000460: 184e 67c8 4625 0840 d41f 16cc 135a 00c0
00000470: a217 adf7 bb0f dd3f af16 3033 e4da d6bf
00000480: 0d75 8fb0 f21d f9bf 6ba8 0995 d761 06c0
00000490: 00b6 8f82 f742 b93f b0c3 44b3 5fe3 e23f
000004a0: 679c b7a3 f7ef 09c0 a4e0 0bb1 1909 eabf
000004b0: 9e0f 3faf 215c 0140 63c1 0e33 bbd5 fcbf
000004c0: bf2e dc51 1473 febf 308e 1b93 bca8 e1bf
000004d0: bbe5 f6a4 729c 0f40 b2da e459 e1e7 efbf
000004e0: 3ac3 5ff6 a7d3 dd3f c5c5 e19b a52e fc3f
000004f0: a19d 7c7a c08d febf 0a8e 3525 4af4 e33f
00000500: a610 733c b3e6 c3bf fea3 90fe 7df6 f53f
00000510: 26be 30ce 6539 f33f 58fb 7d65 858f abbf
00000520: 6349 c6f0 014f 00c0 5036 1e8b 913f 0740
00000530: 25c5 2e4b 3902 f4bf 8305 76b4 4616 ffbf
00000540: deef 2d1d 378b 0ac0 64ef 50a0 95f0 d33f
00000550: 3172 4897 0883 f53f 2fca f14a c89a 07c0
00000560: 8051 dfe8 6d7f f1bf 9cac deb1 21f2 fdbf
00000570: 4b27 0f2e 3384 f23f b3b0 7a81 003c 02c0
00000580: 15a0 e37a 53d0 f73f a500 a026 5e27 e4bf
00000590: 3bdb a1b3 7a00 fb3f c65b 3905 40d5 07c0
000005a0: 2b78 2cd8 1e90 debf 71a6 ccbe 69ed 05c0
000005b0: 1acc 0041 ffa9 0340 30b8 8101 2871 0840
000005c0: 63e6 cfcc 1c97 f4bf 8187 4035 fbbd f13f
000005d0: cbc7 ef62 c8d6 fe3f 7b49 f955 0737 8f3f
000005e0: ec3f a127 156e dabf 3e8f fff1 7db9 f8bf
000005f0: e455 4716 7146 02c0 fa81 bfca 5686 0240
00000600: e96e 2237 ae0d 0a40 6306 5e3b a104 dc3f
00000610: bc17 1b9f 1f7c f0bf ca31 08c5 f982 fabf
00000620: 4ff9 5060 8cca fc3f 5b1d 263a 9800 0140
00000630: 676a c719 3d52 ff3f 9f0b 4e2d 5c18 0540
00000640: 3a11 afa0 9f28 d43f b5f0 b8e7 2587 09c0
00000650: 6af1 7f7c 4b34 febf 6285 37e7 2ad6 0840
00000660: f579 ddf0 3e36 d43f 0914 1f43 271d 0bc0
00000670: bbe5 9216 86d6 08c0 a332 fabd 4731 f93f
00000680: bef4 edde fec9 04c0 5c57 b2c3 7cbc 01c0
00000690: 3211 f064 631b d83f a447 105d eb7a fd3f
000006a0: 8f46 d4f5 dfcd e93f e7ec 27cf e44c ffbf
000006b0: d47b 2f77 4aaf f03f c952 6855 9d1d fcbf
000006c0: 38b8 b10e 0022 f7bf 7465 5e02 37fc fe3f
000006d0: 57bd 6cf5 a54d e23f edf6 9f66 18fc 0540
000006e0: 1d12 06fb 36fb bc3f d318 fe90 70d0 af3f
000006f0: dc83 d528 5c5f 01c0 b40f f3e7 f831 a0bf
00000700: 1827 92d5 d436 f5bf ab5c d381 36e4 f6bf
00000710: b61e e5bc dc4a 0940 2519 54c7 08f6 c9bf
00000720: 6d66 62a9 252e 0840 1587 56fd 6af1 ec3f
00000730: f297 16b7 a0d2 0140 1a97 c9af c5c7 d3bf
00000740: 80dc e7a1 6d77 e83f 312c 9ea0 0aa8 e6bf
00000750: c84d 7ec9 6158 fbbf 190c baed da6f f93f
00000760: f260 f426 e316 f0bf 45de 498c 419c 05c0
00000770: 2134 3039 ec07 ed3f a9a4 ac3e b2f2 fbbf
00000780: 6655 4652 c045 0940 ebb9 623b f8a2 0940
00000790: 5cb3 d3b8 3f74 0a40 5523 2474 dd07 9dbf
000007a0: bbb7 ccc4 f7ed 05c0 a08f de37 e7cf fa3f
000007b0: 0a5d b55d 6d46 923f 9798 8aeb 7029 0940
000007c0: cea9 1693 2310 0940 2795 f047 5be6 0340
000007d0: a1d8 a68c 3582 f7bf 408a eee7 20a5 e5bf
000007e0: dace a423 5e5f ff3f e049 4cc3 2976 f5bf
000007f0: 067c 3aad e0e2 febf bd3f d33f e868 b0bf
