results/vqe_data/with_params/10q7l/sgd_10q_7l_42/parameters/params_ite1355.npy (npy, 2448 bytes, 1 tensors)

array f8 [290]
0	0xbfe5abf8e806aca5	-0.6772427112349716
1	0x4008969801ec6b3c	3.073532118823463
2	0x3ffb2c904a080630	1.6983797923898116
3	0xbfc7a6bc72515e25	-0.18477588254857938
4	0xc00276be28276abb	-2.3079798829106415
5	0xc002683cd61e208a	-2.3008972862190307
6	0xc007201f03507c10	-2.8906841525017697
7	0x4006da8c3e2c1a8b	2.856712804528177
8	0x3f954b49d4e39a52	0.020795014971464028
9	0x3fefe8eb607a3c0d	0.9971825489354856
10	0xc00a8fa81927ee01	-3.3201448407469347
11	0x40098ccbf60b9eed	3.1937483999534977
12	0x40056d93370c8ec3	2.6785034466464324
13	0xc003326c8b3edc7f	-2.3996210936125517
14	0xc0019f2fed3e920d	-2.202728131744385
15	0xbff4ce9ecff9ee40	-1.3004444240640538
16	0x3fc869686ca8842a	0.1907167940671866
17	0x3fa6237885f32b04	0.043239370681098094
18	0xbfe4d1352f885f64	-0.6505380562184482
19	0xbff05a0372500e50	-1.02197594312101
20	0x3fe7634a275b90eb	0.7308703201965988
21	0xbffb88ebc61f24e4	-1.720927976525041
22	0xbfe756a6e813a534	-0.7293276341198749
23	0xbfdc85275e667ead	-0.445627062023031
24	0x3fcb3de520e3c4b0	0.21282638650840147
25	0x3ffd10d1d5567845	1.8166063626772637
26	0xc001180cac402d68	-2.1367429215512637
27	0xbfd1532640115c78	-0.27070003754256033
28	0x3fd77048f6109c8a	0.3662283328034809
29	0xc002dc6287415b75	-2.3576098028965427
30	0x3fecd265358815fa	0.9006830258883263
31	0xbffefe8795b33ac2	-1.9371410224591021
32	0xc000b5506a854050	-2.088532287780289
33	0x4008029295b2d9ae	3.0012561507421287
34	0x4003489b4477a72a	2.4104523991599267
35	0x3ffcdf08db450f2b	1.804451805613051
36	0xbff9f31126208b35	-1.6218425263729845
37	0xc00077afdbe3c68b	-2.058440893067034
38	0x3fee0b0b924501e3	0.9388482910945267
39	0xbfe6e8a040a0f320	-0.7158967268256653
40	0xc0001b1e48ffc95f	-2.0132413580951574
41	0xbfdebfab002c47bd	-0.4804484845818669
42	0xc009b79283b53b21	-3.2146349229509643
43	0x3ffc2900d76f00c6	1.7600105681777207
44	0xc001917482d13be2	-2.1960230083563923
45	0x3fd195e84f461558	0.2747746252210468
46	0xbfe5e5cfb4a245be	-0.6843031433110622
47	0xbf50da6ccc0a590d	-0.0010286390753769276
48	0xbf7abe3b9798e1a4	-0.006529076368274298
49	0xbff82bbf130cce23	-1.5106802696362898
50	0x400dc3723054f8ae	3.7204326415950026
51	0x3fff7609184bd14d	1.9663172673291058
52	0x400b4da128e83367	3.412905044161039
53	0x4009c2680c8d2074	3.2199250202721093
54	0xbfb6ebace41174ca	-0.08953362052985195
55	0x4006923312ff3f3e	2.8213864788193908
56	0xc0093766084ab1ea	-3.1520500800891016
57	0xbfe287b68b0fd0dd	-0.5790665355730443
58	0xc00897053ce9b6a9	-3.0737404593299584
59	0xbff1a602da44b87d	-1.103030064211935
60	0xbff8879c3e78f772	-1.5331079902966533
61	0xbfefd54577debfce	-0.9947841016019028
62	0x4007d1546a801658	2.97721179202453
63	0xbffc70bd1978d094	-1.7775240893361444
64	0xbff7dfa70bdd4b40	-1.4921026671842839
65	0xbfe090456e7f3ab8	-0.5176112325805979
66	0xc00110853f0668a6	-2.133066646941262
67	0x3ffa74383f1b6503	1.6533739533536511
68	0xc00808d19c46af24	-3.0043060502120102
69	0x4008e49bad33ebcb	3.111625054499631
70	0x3ff95a793ee8d321	1.5845882851983293
71	0xbff41ce2602d1b14	-1.2570518261797519
72	0xc002a2ee6e07871d	-2.3295563312575625
73	0x3ff50eeeb84bcde9	1.3161456297938179
74	0x3fe3f27d36bb1774	0.6233507222138841
75	0x3ff2b4f5547cacb4	1.1691792774461591
76	0x3fe3a4f129107e1b	0.6138845254935775
77	0xc003e44a699b09ac	-2.486470055621984
78	0xbfead491019bd421	-0.8384480506343871
79	0xc00447cc86a7ec23	-2.535058071136079
80	0x3ff85c8e6c839755	1.522596763499185
81	0x3feb18cba208829f	0.8467767872535495
82	0xbfc5861535adcca9	-0.16815438386001816
83	0xc007559b187934e7	-2.916799727629598
84	0xbfff9b66347a96bb	-1.9754392671542707
85	0xc0022a40b5c44a1f	-2.2706312370803654
86	0x3fe5230664b5e496	0.6605255095484093
87	0x3fed1be94aa802d5	0.9096571405535437
88	0x40069af751fd1d33	2.8256670384759217
89	0x3f8eb81e3881d34e	0.014999614810429353
90	0xbfff8ec4b605d9cb	-1.9723555670039896
91	0x3ffb37b213b078d5	1.7010975617518416
92	0x3ffeba5fc4228763	1.920501485969418
93	0x3feaf56b4bfce6b5	0.8424583896769123
94	0x3ffd6700f39a5ade	1.8376473918667027
95	0xbfb8ffd6fca92d8b	-0.09765380543210804
96	0x3fd374028ca51f12	0.3039556859480267
97	0xbff76894127ca706	-1.4630318376679852
98	0xc007ecfd8a868029	-2.9907179662987073
99	0xc005a2d59eb0d66d	-2.704509010097175
100	0xc0053cb18f66e105	-2.6546355441352056
101	0x3fc0db86475b3525	0.13169935688203185
102	0xbfef2ea77bd4e5ff	-0.9744450968348132
103	0xbfbd6d86f70e061a	-0.11495250255213599
104	0x4003a1d00c0e35d8	2.454010099586167
105	0xbff9373ca77f5022	-1.5759855788101125
106	0xbff6b4f26da6b113	-1.4191765101668963
107	0x3ff09b5a9202021c	1.0379281714850839
108	0xbfff1f6748779def	-1.9451668577911467
109	0xc008e63cfca47c41	-3.1124210107514334
110	0xbff620551801e98d	-1.3828936517516894
111	0xbffe8e3b5ff04570	-1.909724592933653
112	0x3ffb2eac143e0039	1.6988945761404592
113	0x4002fdfa8c7d5395	2.3740130401369677
114	0x3ff52e79d6f3f215	1.3238466641042852
115	0x40081b556199783a	3.013346445556661
116	0x3ff4f351bf00eb68	1.3094041310384572
117	0xbffcdea3d49c14a1	-1.8043554596963889
118	0x4003736ff1684b49	2.4313658580735233
119	0x3fd8ae4297ded8b2	0.3856359942541402
120	0x3ffd73d95cdf33fd	1.8407834651764
121	0x4004e498e8ed4223	2.6116197774320127
122	0xbfff8ae771c11fe5	-1.9714121287852262
123	0xc004df62151f2902	-2.609073796285089
124	0xbff23b899d481325	-1.1395355361757507
125	0x3fc5dd97ef60fefb	0.17082499683782956
126	0x400171ac3437abc7	2.1805042342652743
127	0x4006a4db0d7ef331	2.830495934902864
128	0xc00b456737a2a810	-3.4088882776750395
129	0xbfd9032f52f983ff	-0.3908193884181514
130	0xbfbb6355747d2b2c	-0.10698446363418829
131	0xbff7ec45ca20d699	-1.495183744014332
132	0xbff90ea7dd7ae6df	-1.566078057438453
133	0xbff076e68d0ddad9	-1.0290284643103205
134	0x40069d4fb05a0946	2.8268121507145763
135	0xbfcf8c204a4cb3e2	-0.24646381023322222
136	0xbfe4891026e6b1b7	-0.6417313346660681
137	0x3fd2e3089893abae	0.29510702991563675
138	0xbfef41a9a389e2a2	-0.9767654604066431
139	0x400dfc6b5dabee61	3.748251659211562
140	0x40108609b1831baf	4.13089635241242
141	0xc00073557e11c8ba	-2.0563154076745294
142	0x3fef411cb0a4d5e4	0.9766982507778121
143	0xbfc59454db86c8c5	-0.16858921736781532
144	0xbff84a9bae630501	-1.518214875410479
145	0xc006c630447a1c64	-2.8467717504277505
146	0x3faab90e8f046920	0.05219312187019143
147	0x3fe85d9cad981c19	0.7614272490035346
148	0xc00a8ed4cd7adb47	-3.319741826354775
149	0xbff4af629aff00fe	-1.2928186468635086
150	0x40025cdb0cd19a62	2.295339679857805
151	0xbffbd634e1370aa4	-1.7397965238057305
152	0xbff5bd569b5fe31d	-1.358725172931549
153	0xbfdd323d2b6970d4	-0.45619134177628706
154	0x400e2f9e1a091a0b	3.773250773813975
155	0xbfd101d3767d538d	-0.2657364518284389
156	0x3fda36874025ae13	0.40957814468740245
157	0x3ffb5c859bf1fd62	1.710088357125493
158	0xc000ed177297b306	-2.1157673790497737
159	0x3fe1dd98777f8360	0.5583002408931002
160	0xbfb7bd0942321bf6	-0.09272821298701203
161	0x3ff42ab98492ff2f	1.2604308298759397
162	0x3ff29fe7f7d6d560	1.1640395814150324
163	0xbf92d891ebff4a1b	-0.01840427401459453
164	0xc00369c696726c30	-2.4266483071965226
165	0x4005804f84134478	2.6876516645793878
166	0xbff9276673d60217	-1.5721191906778864
167	0xbffe50c343602610	-1.8947174674852967
168	0xc009e7ffe591cb0d	-3.2382810530774635
169	0x3fd231da5e7958ac	0.2842927858922717
170	0x3feb20554c3bb127	0.8476969231537951
171	0xc00603da4b86bd09	-2.751881208466902
172	0xbff539191b40b035	-1.326439959007087
173	0xbffadc81cdf13cfb	-1.6788347286818055
174	0x3fea1d7e704bbb58	0.8161003297117118
175	0xc00215ebff4ca35f	-2.2607040353072274
176	0x3ff8cf0fb2ee3c95	1.5505520810582187
177	0xbfe5454cf73c282a	-0.6647095516975743
178	0x3ffb6d7bba18588f	1.7142293233241934
179	0xc0084ebd5c5a0553	-3.0384471144649665
180	0xbfd837881a047aec	-0.3783893827511935
181	0xc00845e6ef0a80ab	-3.0341318774299757
182	0x4006118e1917ee48	2.758571811716852
183	0x400952c6e1fb6542	3.1654184012265043
184	0xbff44813ef296158	-1.267597135758555
185	0x3ff6b588bcd41761	1.4193198562729423
186	0x3ffcf5f438785a57	1.810047360025825
187	0xbfb37bd8a940d0d7	-0.07610849506528737
188	0xbfe0d3db876ad435	-0.5258615155095244
189	0xbff85edbc2041f78	-1.5231587961916073
190	0xc0016c5face4c812	-2.1779168612783986
191	0x4000bed7d21f5285	2.09318508298958
192	0x400ad60987dc65e0	3.3545103658805004
193	0x3febc8b330eb601f	0.8682495074708675
194	0xbff270c0d0c8c191	-1.152527633250518
195	0xbffe0ba26e079dfc	-1.8778404520070344
196	0x3fff55eaced39c97	1.9584758834041958
197	0x400009e8f8cbe45b	2.004838889810839
198	0x3ffc9c01de7b52ee	1.7880877199833622
199	0x400869c2e14dbf54	3.0516412355281464
200	0x3fd5a2f492fb19dc	0.33807100633239684
201	0xc00bcc1811e13665	-3.4746552845816034
202	0xbffaed93c5d67f1d	-1.683002255253036
203	0x4008de2ab9a12e3b	3.108479929190961
204	0x3fb2fa4c13a97139	0.07413173179651701
205	0xc00aef7c66be5b95	-3.366936495479829
206	0xc009289eaa478260	-3.1448338797638797
207	0x3ff9f8fd1f942495	1.623288272241813
208	0xc003c61071c7582a	-2.471711052795418
209	0xc00062c58f61eb59	-2.048228378463517
210	0x3fdbc7f41349671c	0.4340791881892174
211	0x3fff90eec1af5cfd	1.9728839460202032
212	0x3fefd0f7c8988a7e	0.9942587774169878
213	0xbff994838ce9928a	-1.598758268775017
214	0x3ff34df832966fdb	1.2065355278091292
215	0xc000dd3b32f36385	-2.1080230694319106
216	0xbff5ef18b6c1cc22	-1.3708731783815513
217	0x3fff16020c758d11	1.9428730475127092
218	0x3fc5bedd52a9c950	0.1698872235898059
219	0x4008bbb758bb8d39	3.0916582996593687
220	0x3fc51744a2f60bb2	0.1647725864132475
221	0x3fb6227eaa859407	0.08646384871606481
222	0xc00424a218b2a038	-2.5178872994911465
223	0xbfa90e17aadbd352	-0.04893564186742218
224	0xbff225593ef8dbaf	-1.1341183147285212
225	0xbff8122648aa4bcd	-1.5044310415730593
226	0x40092ebc28dc122c	3.1478198234711012
227	0xbfd058d240ccf82d	-0.25542122200193057
228	0x400830b311ec2985	3.023779048938368
229	0x3ff606b4f10236e7	1.3766374029541397
230	0x4000a850d1c9afa6	2.0821854009318086
231	0xbfd8d4016598e0d8	-0.38793978616332714
232	0x3ff02649d7698262	1.0093477644478743
233	0xbfe140ab1a3c3f32	-0.5391440880211802
234	0xbff966400d425d0b	-1.5874634283007392
235	0x3ff9fafa9e649a98	1.6237741648889479
236	0xbfe921667008b404	-0.7853271663822174
237	0xc0050d42ffe9a036	-2.631475447957224
238	0x3fe4401cecb8a777	0.6328262923682207
239	0xbff9fb2721593b5a	-1.623816614406414
240	0x400909208064db09	3.129456523015851
241	0x40093eee41d29077	3.1557278768905763
242	0x400c585f894d7210	3.5431509711036213
243	0x3f767aafc10b5fff	0.005488096751570025
244	0xc0063c9ac80fa127	-2.779592097260451
245	0x3ff8b3b89a5cbd2f	1.5438772229934548
246	0x3f8d5006448f2f0e	0.014312790839447167
247	0x40092ce01fd67312	3.14691185830305
248	0x40092b54a9212712	3.1461575711481453
249	0x40031c8d28600284	2.388941111974704
250	0xbff56873a50d14a6	-1.3380009124096346
251	0xbfe030bfcf2de2c8	-0.5059508367986263
252	0x4001ffbb30b670f7	2.2498687558819443
253	0xbff017d5c58c44d3	-1.0058191029277637
254	0xbff9577f7796256a	-1.5838617965076431
255	0xbfd9e906b8eef090	-0.4048477941503359
