results/vqe_data/with_params/10q7l/sgd_10q_7l_42/parameters/params_ite583.npy (npy, 2448 bytes, 1 tensors)

array f8 [290]
00000000: 3342 e7d2 313b e6bf 16cf c79c 8394 0840
00000010: 8077 af44 3229 fe3f b871 c010 e120 893f
00000020: 4654 c31f 49a2 03c0 eb1b 1285 28b8 04c0
00000030: 7014 224e b5fd 07c0 89af b9ea 0cdd 0640
00000040: 1d09 51bc 7106 a93f 6ed0 e821 728d f13f
00000050: be30 910a e908 0ac0 d6a0 b064 9608 0c40
00000060: 9be1 272f d49e 0640 178b 55b4 1b30 f9bf
00000070: c121 5504 42ff 02c0 65a4 c452 43e5 f3bf
00000080: 25b2 a854 16ce dfbf 1637 8e33 f2be b63f
00000090: ed50 08a7 0d36 e0bf a36d 6c4b a518 efbf
000000a0: b9b7 6b5d 41e9 e63f 0d34 3b8d fd27 01c0
000000b0: 9647 b3e3 1b0d eabf 5cdc 2417 e9a3 d5bf
000000c0: 0658 5282 1e62 c83f 1d96 10b0 97f4 f63f
000000d0: fcf8 e9f2 e9ad 01c0 7e75 4a38 ce6b cbbf
000000e0: 1e01 119f 5747 d93f 82ec ab8f 9c4c 03c0
000000f0: 2a93 c2de 5276 dc3f da77 be3c 7d09 02c0
00000100: a47c c85d af06 ffbf 8624 2b52 1324 0640
00000110: 7fb0 7931 292a 0540 6131 2da7 11f3 fb3f
00000120: 4acb 4b77 1286 f9bf 5c40 006e edc8 03c0
00000130: 8f4c 3f5e b9a9 ed3f 07d2 3eef 80ea e5bf
00000140: cd45 7027 1a4b 02c0 a3fd 65cd 0179 b4bf
00000150: affa 3cf4 3301 07c0 74dd 5de0 2150 0240
00000160: d1c4 b7ee e72e 01c0 486d f045 628a e33f
00000170: 9c0c 55d8 2584 e5bf ac04 fbb5 8721 a1bf
00000180: d70a 3f27 f49c b23f 81de c712 e5a0 f7bf
00000190: 026e 6751 201d 0c40 1ae9 02dd 130e fa3f
000001a0: 87d1 7f6e 22f1 0640 227c 2b1f ac58 0740
000001b0: 2408 7a9e 93da e83f 4891 c30a 0ed1 0640
000001c0: 3c22 b8c1 a57c 09c0 5535 6a1b d265 f4bf
000001d0: 7c89 b3a0 79b0 08c0 d4b3 6b3c b1a2 eebf
000001e0: f50d 79ce ff5c f2bf 870e e77c 6a17 e8bf
000001f0: 55f7 252c adb5 0540 6cce aae5 f41c ecbf
00000200: 511d 37b8 6130 f4bf 391d 7959 ee65 aebf
00000210: ccb5 a7f1 1f35 00c0 aa67 40b5 eef8 0040
00000220: 02b3 aaf2 8537 08c0 5ff6 9687 2dc4 0840
00000230: 083b 0cf5 3510 f23f 71e5 ac68 6ea2 f3bf
00000240: 60b3 4dc3 bdbc 07c0 9544 f946 d474 fb3f
00000250: 356a 78ba d33d e23f b662 f227 edd1 f73f
00000260: 9ccc 7272 0be0 e53f ff88 51eb 9739 07c0
00000270: 21ce abaa 9fe0 e8bf 8a31 d03e c6d3 05c0
00000280: 58dd 5179 cc6d fa3f af2a 7252 c921 e93f
00000290: 1da4 efc6 46d6 dcbf f519 f580 ed21 07c0
000002a0: f291 cdda 724b f9bf 73c7 4075 7872 ffbf
000002b0: 8fa7 bc2e 35f3 ec3f 5d58 bd23 6f67 ec3f
000002c0: 9604 e13b 7330 0640 9a09 6291 57ea b1bf
000002d0: dbe6 e16a d543 fbbf d6ac ea17 59d4 f93f
000002e0: d4b3 7987 367b f63f dd24 3575 5749 d73f
000002f0: 5903 e1b9 d46f f83f 9ae3 5fc2 7f69 c9bf
00000300: ca56 6dce e948 dd3f 0a4f 57c3 d1ca f0bf
00000310: da8b 3ddc ed7e 08c0 d8e9 9251 ed2e 07c0
00000320: 69ee 2f03 ba8c 01c0 d920 85eb 350a 9dbf
00000330: ee37 c8e4 eea3 f3bf d561 d566 d6ac bd3f
00000340: 1abe 9acd 27a1 0340 270b 4cf0 dd77 f5bf
00000350: a11f 3f91 1bd3 f0bf 3677 65a2 b79a f63f
00000360: e161 6968 c7ae fabf f288 92d8 a25b 09c0
00000370: a70c 7f12 ddd9 f7bf 8fc2 8137 7000 01c0
00000380: 6dc4 bbbe cb30 0240 f9c6 0ddd 6e94 fe3f
00000390: e447 8050 a9ef ef3f 036d cffc 6483 0540
000003a0: 35dc ad3c 3471 f83f 820a 3cff d356 fcbf
000003b0: 735a 3083 b743 0240 13a7 cf81 ce4e e33f
000003c0: 375e b52e dbce f73f b217 e060 9d46 0740
000003d0: cd0a 6b88 802d f5bf 0262 9561 dc94 04c0
000003e0: 2ea0 a9ea b9c6 f6bf 1a20 b826 1be3 c13f
000003f0: ef55 7aec ee39 0440 e658 68f3 9f76 0640
00000400: 682f 862b 5afd 0ac0 8037 f20f da41 d4bf
00000410: 7b50 adb2 64a1 ca3f d7a9 de09 822c febf
00000420: cc01 208d 136e fcbf bdc8 e944 8975 eebf
00000430: fa75 ec08 57f7 0340 aad7 38b9 bb03 f1bf
00000440: 9d53 1702 acaa e8bf c472 fad4 8bc9 ea3f
00000450: 00ff bac9 024a e8bf 7cc0 53f3 c236 0d40
00000460: 17ca 00e4 bc0e 0740 88dc 4254 44d2 00c0
00000470: acf3 9e41 8def d73f 3dd1 aff7 4d5a d7bf
00000480: 19a4 3af1 c3cf f7bf 8b88 25e4 3611 06c0
00000490: e708 2845 16a3 c23f fc62 a774 de63 e03f
000004a0: 7029 7bc2 faf9 09c0 574e ddbc e3ee e4bf
000004b0: d71a b43b 1e9e 0040 2804 436d 7cec fcbf
000004c0: 6f81 6347 a576 ffbf f83d 8597 3fd0 e2bf
000004d0: 6275 5bd0 6ccc 0f40 91af eb22 a1c6 f2bf
000004e0: ee9b dbf3 cfbf e43f a567 9356 4be8 fc3f
000004f0: d622 079a 7215 febf af99 5da4 c30d e83f
00000500: 2dfb 3c09 0775 ccbf 6e90 151d 0a8c f43f
00000510: 77c7 9f84 fae1 f33f c17f 4de8 e078 a7bf
00000520: acf4 2003 81d9 fdbf 1f4b 8a2a 8fa8 0640
00000530: 667c 548c fca5 f2bf 6953 9621 e150 00c0
00000540: 5655 5acf e890 0ac0 ee48 87c2 4b7a cf3f
00000550: ba88 88e5 966d f53f ea24 fc9e 6801 07c0
00000560: 6398 f8ee 14cd eebf 1094 ab62 181c ffbf
00000570: 2384 556a 9ab7 f33f 1b82 fbb7 ef7b 01c0
00000580: 0bf3 9bfa 297d f73f f256 7c51 e113 e2bf
00000590: c5a2 d9ef c836 fd3f 3484 030c eb6f 06c0
000005a0: ee59 a37e 0ea9 dfbf abbe 59e3 2b82 05c0
000005b0: 85d9 76fa bc0a 0340 3024 60b5 df93 0840
000005c0: c421 61ab c412 f5bf 02a3 9769 129e f13f
000005d0: fe3c 57d4 732d ff3f fa53 0f2b ad9c c33f
000005e0: 6fb6 feec 3703 d1bf da7b 6c04 a495 f9bf
000005f0: 849e a4f2 f11e 03c0 7d47 c660 a57e 0240
00000600: cd75 2ff5 b044 0a40 b1f9 fffb 2158 d73f
00000610: 2dd0 7aed bb92 eebf 5819 17fa bad1 f7bf
00000620: 4574 72dc 7f02 fd3f 6374 e698 65cb 0140
00000630: e5a1 6cce 41ff fe3f be55 acb7 4054 0340
00000640: 00e1 e276 c72d d43f 31d4 1a5e 4f3a 09c0
00000650: 671e b51e 7e51 febf 66b4 d41d 74ea 0840
00000660: d039 481c 2ac3 d23f 4801 cf2f f43e 0bc0
00000670: 57fc dc6b d6e4 08c0 5728 35ba 327f f83f
00000680: 5eb2 1692 5078 05c0 85d8 6c16 390c 02c0
00000690: 9e9c e53e 45bf df3f b3be 06ed 72b5 fd3f
000006a0: 0e8b ae31 1ae1 e83f 74fa ad2f 98e3 febf
000006b0: 9b68 7f4d e4ae ef3f 9895 1aff d990 f8bf
000006c0: 5fc5 9220 95e0 f5bf 9dd4 fcfb 539e fe3f
000006d0: ac26 3073 e216 ea3f 2d74 13d5 2b92 0440
000006e0: 921b e6ab 8a65 bb3f 38b2 bd06 17ff b63f
000006f0: ec34 4d0c 666a 01c0 b0fe 70ae 71bc a4bf
00000700: 35cc 3066 3982 f4bf 0135 2f3d 468a f4bf
00000710: d3d0 e622 ae48 0940 bc32 60b0 c801 cbbf
00000720: 813e d06e ff48 0840 0ade f10e ef75 e93f
00000730: 54b9 1256 b32a 0140 bc2c bef8 2b71 cdbf
00000740: 8144 3f59 ea26 e83f c621 ae95 5b26 e4bf
00000750: 8073 4fd7 4391 fcbf 15c4 df85 574d f93f
00000760: 7466 0e55 1ced f2bf 1513 e466 f6ce 05c0
00000770: 66d0 81e6 932a ee3f 6c5c 2b15 081e 00c0
00000780: ad66 8c89 8c8f 0940 36df 70ff d8dc 0940
00000790: 09ed 92c8 bcc0 0a40 6c29 e286 85d8 9fbf
000007a0: 4c76 da93 7a00 06c0 ed6e 9920 f520 fb3f
000007b0: 560a 93e5 e7b1 a13f dae7 d085 c4c5 0840
000007c0: 4153 3bbd 3d10 0940 6330 e77c c890 0540
000007d0: 65e2 01b6 b8e4 f6bf 4656 e06a 17b1 e7bf
000007e0: ce15 75d2 932d ff3f 2969 e87a de87 f6bf
000007f0: b8d1 fd4f 9dff fcbf f620 9f2f d59e 9d3f
-0.694725906296361 3.0725166557766768 1.8850577052139386 0.01226974327442397 -2.4542410356030215 -2.5899210353995747 -2.9988809684896793 2.857934793273618
0.04887729095254854 1.0970326733195424 -3.254350740962848 3.5041931024935407 2.827553146748142 -1.5742451710036158 -2.374637636039751 -1.2434724076395238
-0.4969535662410485 0.08885110624961742 -0.5065983068803043 -0.9717585061184092 0.7159735512375313 -2.144526580209009 -0.8141002127906514 -0.3381293035521986
0.19049435962068645 1.4347149732142335 -2.2099188783314485 -0.2142274641854946 0.3949793866522827 -2.412407991823387 0.4447219062224571 -2.2546334024072907
-1.939132086124837 2.7676149768272493 2.6455863824140233 1.7468430071195018 -1.5952324543001901 -2.473109111197159 0.9269682732359729 -0.6848759339105194
-2.286670978654661 -0.07997142090424929 -2.8755873757466683 2.289127114166769 -2.147903313620738 0.610642563438355 -0.6723813271750205 -0.033458939518376724
0.07270742376480697 -1.4767809613821614 3.5142217979134793 1.6284369118935218 2.8677414543873883 2.9182970461984192 0.7766817183730876 2.852077564328429
-3.185863030845466 -1.274858576859818 -3.0861694865026816 -0.9573599033443494 -1.1477048936220602 -0.7528583945754271 2.713709206493983 -0.8785347448051204
-1.261811942664128 -0.0593714222164245 -2.0259398345285486 2.121549049404128 -3.0271109541266705 3.095789965910441 1.1289577076128712 -1.2271560753709674
-2.9671588190162055 1.7160227558527243 0.5700472490310121 1.4887515602514845 0.6835992083855618 -2.90312179415298 -0.777419885007877 -2.7284054667745226
1.65180632963696 0.7853743181488734 -0.450578398011716 -2.8915662836836824 -1.580920080851794 -1.9654469089695936 0.904688445361204 0.8876262376823082
2.773657291225912 -0.06998202609432838 -1.7040609526724697 1.6143427786108098 1.40508129997328 0.3638514179807098 1.5273024807831546 -0.1985320757956089
0.45757527502915407 -1.0495164518842466 -3.061977120044941 -2.897913586898749 -2.193714165592429 -0.028359262943269712 -1.227522748642055 0.11591854105552753
2.453689199719304 -1.341764391575177 -1.0515399621672048 1.4127727836234505 -1.6676706389026708 -3.1697441978186527 -1.4906893465529636 -2.1252140366053207
2.2738261128475217 1.9112385401644458 0.9980055401122141 2.6891574621964778 1.5276377077368697 -1.7711982698535 2.2830648659831296 0.6033699546216859
1.4880019974278988 2.9094798630130407 -1.3236089066346495 -2.5726859687531496 -1.4235171476848438 0.13974322691524393 2.528287742122067 2.807922269460607
-3.3737071419072215 -0.31651927525751233 0.20805033421004623 -1.885866201928925 -1.7768741142937072 -0.9518476816140474 2.495771474567616 -1.0634114489780395
-0.7708339730112247 0.8371028098805131 -0.759034532551567 3.6517390260633515 2.88219621779832 -2.1026693900017257 0.3739960804776341 -0.3648867529693865
-1.488223974515 -2.758405477900913 0.14560202004219677 0.5121910360713566 -3.247060317405321 -0.6541613281974133 2.0772061027849804 -1.8077358501470915
-1.9664662159558153 -0.587920947969848 3.9748169210349014 -1.1734935154044914 0.6484145891998858 1.8067124730937192 -1.8802362457956199 0.7516802034631861
-0.22232139540752752 1.2841893325903828 1.2426705532675137 -0.04584410510756199 -1.8656015512672566 2.832304317803746 -1.1655240518228083 -2.0394919036865997
-3.3207565497820424 0.2459196758123378 1.3392552343507718 -2.8756878300379087 -0.9625343959239782 -1.9443591932588369 1.232324996344922 -2.185515820849344
1.4680576123639095 -0.5649267760770427 1.8258752221246806 -2.8046475351880193 -0.49469339720727035 -2.688560272384924 2.380243260147099 3.072204033848287
-1.3170820898541118 1.1010917782497818 1.9485967917024136 0.15321888544590917 -0.26582143920936735 -1.5990333721926988 -2.3901099163520616 2.311838871050837
3.2835406451328937 0.3647541962563095 -0.9554118765140679 -1.4887037057065609 1.8131102191175767 2.2243148751572774 1.9373186171961774 2.416139063784356
0.31529413804993567 -3.1534716941773913 -1.894895667983201 3.1144792871987645 0.2931618953888604 -3.405739186768333 -3.111737101251076 1.5310542367683604
-2.6837474263359544 -2.2559682609526726 0.49604922430303044 1.8567990549890225 0.7774783106181944 -1.9305650579914557 0.9900990975977665 -1.5353641476625395
-1.367329718818233 1.913654312445295 0.8152935266272912 2.5713726660310585 0.1070181531596133 0.08982986368727885 -2.1769524537145255 -0.04050021414195493
-1.2817930213757454 -1.2837583913818096 3.1604883886994712 -0.2109919415674052 3.0356434495259355 0.7956462184801592 2.145849869200143 -0.23001622815750078
0.7547504180057701 -0.6296823428575002 -1.78546508889778 1.58138229651036 -1.1828883478650853 -2.7260559118607355 0.9426974775401618 -2.014663854013227
3.1950922723743447 3.232835765487745 3.344110075935195 -0.031099401815063585 -2.7502337981266347 1.6955462716495575 0.03456043889447773 3.096566243589206
3.1329302581529253 2.6956949003270423 -1.430840216604474 -0.740367611639791 1.948627302264288 -1.4081711579406806 -1.812405884234165 0.028926211387244792
