results/vqe_data/with_params/10q7l/sgd_10q_7l_42/parameters/params_ite61.npy (npy, 2448 bytes, 1 tensors)

array f8 [290]
-0.6706352337718406 2.9518436692285435 1.9213472692543838 0.015112279652092176 -2.2091460304525024 -2.5175792186586308 -2.7991396886959925 2.7763849309810813
0.06185431954319349 1.0386471456334079 -3.027059331033676 3.3496801383007453 2.7174076355666408 -1.6402437505940421 -2.4218486597302498 -1.5861795339437865
-0.7949243630390448 -0.09826298393724577 -0.5157833508781252 -1.0880235898986343 0.7702834054135974 -2.533905568812504 -1.0649171055067248 -0.35435248143300335
-0.05775755366176312 1.453303707711744 -2.125737925578861 -0.26486115496970974 0.27502927585097164 -2.5507330506724246 0.7285091943478454 -2.4331936845433813
-2.1866991414404455 2.3929641703371436 2.7667157419943327 1.6029363538802686 -1.2443478430167532 -2.681781149846592 1.0410106017767484 -0.5869267647297778
-2.44402234179394 0.15972791910849773 -2.80960836889862 2.3573734058554354 -1.8401086193047027 0.691877013514966 -0.7435176913827118 0.05883025234090098
0.33697193898359545 -1.5661027820078606 3.4579904208948182 1.4661978364874744 2.792977584803904 2.761888010168623 0.6383714988164899 2.7660847735155345
-2.9726500764571844 -1.6049830742751858 -2.9887225008904004 -1.020896078755006 -1.0354453964584744 -0.9111986481622986 2.629739189805961 -0.49093680913603777
-1.052155372921775 0.1757988194924407 -2.0561434036509776 2.1254732427068626 -3.072083091736069 2.8894296816283225 1.488687862190523 -1.3883899880471926
-3.1041454690848194 2.2712909663142518 1.1078730362468079 1.4207869029328373 1.2897699678673074 -2.8669993661515423 -0.8115552254679206 -2.5590132434495514
1.8579330892506563 0.7441668443973032 -0.47338084069116176 -3.004530494489843 -1.5111450497424634 -1.74321662578887 1.268146810665078 0.9378107732431441
2.1627545062602196 -0.01013203105182144 -2.126468509730872 1.6128687422536474 1.1125276739732843 0.49574748825560455 1.68600383951376 -0.43306489091113437
0.3931673610169846 -0.8193561457739243 -2.977429338515287 -2.677706533041072 -2.5528969897036036 0.4175429985861414 -1.2796735874445255 0.043533067275525535
2.727312776504087 -1.2739577477618915 -0.8455115895841729 1.5653032474339446 -1.4242602931341615 -3.007113820524944 -1.3550351867269392 -2.160895988572991
2.2112636723387586 2.0928417071086542 1.0071879798082868 2.4122533144062612 2.010915686550447 -1.9014183739494936 2.2604953884956425 0.45671712767650036
1.5204869087616963 2.7545272124584845 -0.826259028693903 -2.8024899254170146 -1.3340593351335308 -0.1463277607037384 2.383779157338955 2.6699629953687376
-3.2334292300089125 -0.08917800196755477 -0.11706271122968764 -1.3942313496095575 -1.8740002984665356 -1.1121399166963533 2.708938479700056 -1.24033314186997
-0.4400949916944633 1.1012960379775218 -0.6652437321743151 3.163786243830203 2.8598817555846616 -2.04077723237338 0.28346137172447256 -0.8632322078901726
-1.4338882544827376 -2.9589460546112916 0.34350806983634347 0.4627408510947714 -2.9533527142056437 -0.8974939849053866 2.345362557572012 -2.0184072167287725
-2.0739411438293556 -0.45844679391099036 3.4234186588740765 -1.4274143602097633 0.84441584766884 1.4644081538475475 -2.0461917339876914 1.2711740400493707
-0.4802235466345033 1.1037543423559586 1.3935339222716046 0.0004215594442062128 -2.351458490565082 2.0089534577716774 -1.0295203079927209 -2.0218360390275363
-3.0202267444078212 0.26911422206452995 0.9657671029553219 -2.6200415016567122 -0.4441043602134036 -2.097044459914389 0.7558882874841503 -1.6684227840050443
1.2759002225275542 -0.5572592634982889 2.345339953039836 -2.439650712834311 -0.9426520877762212 -2.856666633848286 2.5855272291555242 2.7910096145872956
-1.6996338050823518 0.8940860319040053 2.0601209232108784 0.5057884744128187 -0.04113910186349692 -1.703366362818331 -2.3782438798607832 2.4252989276562595
3.0055464496285915 0.5773921796758119 -0.9068320947914567 -1.4278104020229052 1.270570923168244 2.614700772821064 2.0899777322844013 1.6597200383644268
1.15342344484516 -3.1064127465237314 -1.7176778110457465 3.0285518055515954 0.6572426345966246 -3.586561264982808 -2.8825195279402496 1.1285511217304676
-2.9060576660686293 -2.2700808501092786 0.6472169650349556 1.6957415982336623 1.1511856289137745 -1.944182531178882 1.0374755169977516 -1.173042804358738
-0.8869642875533053 1.9190991655150897 1.1180690353400984 1.825056616339102 0.7044675389601577 0.4143912667014289 -2.26846642704538 -0.47190914269260914
-1.1465555987757996 -1.3161060270797798 3.0190543373962715 -0.4181425754817335 3.056684262911167 0.3987815353158928 1.7769768948156395 0.03695512634855021
0.721833684850215 -0.09977150736921521 -1.8858925062451561 1.7849750498527486 -1.6463830968788933 -2.783387127566536 1.1029759640037202 -2.359500957621549
2.860484646557256 3.0711730955056487 3.1562473143980307 -0.4276399630222102 -2.8378648154194592 2.232215739653237 0.04355765420586928 2.994752750329742
3.0333072600637654 2.626838089374906 -1.1719860569558773 -0.9820430278337375 1.9105696820765314 -1.3636970232091832 -2.2927370276771244 0.31936724150516693
00000000: 460d 9305 d875 e5bf 0dee b136 609d 0740
00000010: c34d 5ba2 d6bd fe3f 876c fdd6 2ff3 8e3f
00000020: c20d 07c1 54ac 01c0 0dd3 c992 0024 04c0
00000030: 4b14 5f59 a364 06c0 215e 7d4d 0936 0640
00000040: b9d3 1b8f 5eab af3f 8d44 2978 4c9e f03f
00000050: efba eee1 6a37 08c0 ea7f b019 25cc 0a40
00000060: 7846 e536 40bd 0540 1151 243b 703e fabf
00000070: 0c39 ab30 f25f 03c0 28f8 7dca fd60 f9bf
00000080: 867b c137 0570 e9bf d1f7 6a4e c327 b9bf
00000090: 8df8 fa15 4c81 e0bf 2742 7e6c 8b68 f1bf
000000a0: a4e4 5c62 29a6 e83f a99d 6948 7045 04c0
000000b0: 49a3 d184 e609 f1bf 72b7 c007 b6ad d6bf
000000c0: 7a02 26e8 6592 adbf 9370 7c63 bb40 f73f
000000d0: 21d3 b1e2 8201 01c0 20d8 a433 7cf3 d0bf
000000e0: 353d 4e64 149a d13f 0ab7 cbba e667 04c0
000000f0: d2e5 9183 f24f e73f 9c94 1f40 2e77 03c0
00000100: 876c 951e 5c7e 01c0 4ec8 2066 ca24 0340
00000110: 618d e9dc 3b22 0640 87c3 1797 a0a5 f93f
00000120: 7aae a948 d9e8 f3bf 8ef6 ecac 4974 05c0
00000130: 04ba 96bb faa7 f03f dc2a 75a3 1ac8 e2bf
00000140: 2296 e595 5b8d 03c0 f920 6ae6 f671 c43f
00000150: 5ae6 d7f3 137a 06c0 b4df 9496 e6db 0240
00000160: c905 50bc 1571 fdbf 69d4 3c43 db23 e63f
00000170: b18e 0f9d e5ca e7bf 3da2 a3b3 ff1e ae3f
00000180: 08ac 66c0 f290 d53f c25f 6eca c10e f9bf
00000190: 04ff bce1 f6a9 0b40 e1df d2dc 8b75 f73f
000001a0: f98c c9a1 0458 0640 2a1c b7bd 5818 0640
000001b0: c2b0 c310 8a6d e43f cab3 c10d f120 0640
000001c0: 1eaf 66c3 fcc7 07c0 d053 6abb 02ae f9bf
000001d0: 1826 b157 e7e8 07c0 d6e0 6d20 9755 f0bf
000001e0: 9153 2931 2f91 f0bf 0787 4011 8a28 edbf
000001f0: 22cf 49b3 b409 0540 8014 e938 826b dfbf
00000200: c327 50df a0d5 f0bf c89d 3262 9380 c63f
00000210: 5f89 1450 fb72 00c0 a597 8f1d f800 0140
00000220: d1ce cc4c a093 08c0 927b 154f 8d1d 0740
00000230: 9cf7 205d aad1 f73f b81a 8c6b d836 f6bf
00000240: 8ff7 3d38 4ad5 08c0 db28 2099 9a2b 0240
00000250: e0cd ac13 d9b9 f13f 17e8 2a0c 8bbb f63f
00000260: 1ea6 75d5 e5a2 f43f 5730 1a5d 9def 06c0
00000270: 440b 09aa 42f8 e9bf 762c 75ef db78 04c0
00000280: 1ace 070c 18ba fd3f a986 6efc 36d0 e73f
00000290: e193 5427 df4b debf 4359 ad48 4709 08c0
000002a0: b07f 826e a62d f8bf e8b4 d91d 37e4 fbbf
000002b0: d854 654f 544a f43f 094e 1dbd 8b02 ee3f
000002c0: 6d50 0d3c 524d 0140 aab8 1330 1ac0 84bf
000002d0: c524 0aec 0103 01c0 6785 4b74 4fce f93f
000002e0: 68c3 79d1 e9cc f13f 2072 48ac 53ba df3f
000002f0: c345 7a29 dff9 fa3f 9595 e0cd 55b7 dbbf
00000300: 740b 5b6f a729 d93f 0705 3c61 2a38 eabf
00000310: b297 1879 c6d1 07c0 5993 1d67 f16b 05c0
00000320: adab c641 556c 04c0 e87a e644 06b9 da3f
00000330: 5711 fa02 8b79 f4bf f163 7c58 f749 a63f
00000340: 5462 685c 89d1 0540 63f8 f184 2162 f4bf
00000350: 5ae5 3452 6e0e ebbf 7cd2 006b 7b0b f93f
00000360: a30a 4029 c5c9 f6bf b308 d4b0 910e 08c0
00000370: 4abe 3e60 39ae f5bf 25d4 07d6 8349 01c0
00000380: fe38 1c02 abb0 0140 50e4 fdca 23be 0040
00000390: e336 a324 711d f03f 0957 3877 4b4c 0340
000003a0: fffa a5f6 5a16 0040 7206 42ac 356c febf
000003b0: e2c7 329b 7e15 0240 2931 b979 da3a dd3f
000003c0: bd0a b214 ea53 f83f 219c 2b90 4509 0640
000003d0: 337b 48c6 b670 eabf d248 88d6 7f6b 06c0
000003e0: fd26 f599 4e58 f5bf 9b17 5c39 deba c2bf
000003f0: 0c42 8dce fa11 0340 861c 158f 155c 0540
00000400: c88c e624 10de 09c0 5028 f999 5ed4 b6bf
00000410: 9406 5064 d2f7 bdbf 8b18 1a88 c54e f6bf
00000420: 68ba a9bc e7fb fdbf 8f97 ac39 53cb f1bf
00000430: 6980 09f0 e7ab 0540 899f 8790 67d8 f3bf
00000440: da82 1d2f 842a dcbf cb3e 2598 e89e f13f
00000450: 67d8 3139 ad49 e5bf 8248 8629 6f4f 0940
00000460: 354e 95af 09e1 0640 71b8 7b03 8353 00c0
00000470: 2119 4f2a 3b24 d23f d0bf b726 999f ebbf
00000480: 3cf3 71cf 34f1 f6bf 4678 b9e8 ebab 07c0
00000490: cbfc 7645 09fc d53f 7b6a 7ecd 8b9d dd3f
000004a0: 5287 4863 77a0 07c0 b1cf 304e 45b8 ecbf
000004b0: 1547 d071 4dc3 0240 3ae2 ceae b225 00c0
000004c0: 799b 5474 6e97 00c0 bb70 b338 3157 ddbf
000004d0: ef0a 6352 2963 0b40 3111 af70 b0d6 f6bf
000004e0: f3c6 3e62 7405 eb3f d355 8c3e 376e f73f
000004f0: d294 96c5 995e 00c0 7294 1897 ba56 f43f
00000500: dc1d e48a fbbb debf 0eca 3350 faa8 f13f
00000510: d05e e039 ea4b f63f d019 b406 98a0 3b3f
00000520: 4607 1778 c9cf 02c0 1686 c230 5612 0040
00000530: 6858 5649 ea78 f0bf c6fa 8b5f b82c 00c0
00000540: 9fe3 ada3 6c29 08c0 f8f5 a9db 2a39 d13f
00000550: 5edd 5769 90e7 ee3f fa39 9e51 d8f5 04c0
00000560: 242a c8b1 346c dcbf e7b8 ec3e bfc6 00c0
00000570: 5b90 45a2 3c30 e83f 3b3f d316 dcb1 fabf
00000580: 8270 0b5a 166a f43f 46c8 0361 11d5 e1bf
00000590: 5777 e297 41c3 0240 a84a ca97 6784 03c0
000005a0: e428 10b6 342a eebf 539f 3f09 74da 06c0
000005b0: b11f 61e6 28af 0440 c0ca 4bd9 fc53 0640
000005c0: 6a13 8037 b331 fbbf d7d1 5a4f 5a9c ec3f
000005d0: e9f7 b7ad 207b 0040 4c7f 894f 6b2f e03f
000005e0: 335a 2e32 2f10 a5bf 4994 5616 fd40 fbbf
000005f0: 5150 2fba a406 03c0 c575 ca1f 0367 0340
00000600: 151c deef 5b0b 0840 828f 152a ff79 e23f
00000610: 95f5 c2bd c404 edbf 5a3b 59b8 4fd8 f6bf
00000620: 2319 242d 4254 f43f 3abd 203d e8ea 0440
00000630: ec3c cc3e 46b8 0040 42a8 5499 368e fa3f
00000640: 40cb 6024 6c74 f23f 6293 11ed eed9 08c0
00000650: 011a 78ba 9b7b fbbf d4af 785e 793a 0840
00000660: e323 a4b4 2108 e53f c69c 5108 47b1 0cc0
00000670: 87ad f465 660f 07c0 c124 fb9e 8b0e f23f
00000680: 5670 6029 9b3f 07c0 3bf6 1326 2029 02c0
00000690: 73ba 475a 00b6 e43f eb15 2ef1 c121 fb3f
000006a0: 29f5 3c9f 416b f23f 81e2 4d24 5f1b ffbf
000006b0: 1f7f 7eed 7f99 f03f 6676 1888 c8c4 f2bf
000006c0: 465d f8ed 0262 ecbf f4b0 9a53 a1b4 fe3f
000006d0: bd4b 575b 9ce3 f13f d665 0891 6e33 fd3f
000006e0: f1ad 1d82 ff8a e63f fcc2 8ef2 6285 da3f
000006f0: fbde e1b9 d125 02c0 f314 a367 c233 debf
00000700: a79a fcae 4a58 f2bf b004 8631 c50e f5bf
00000710: 24b6 dff5 0527 0840 aa97 b013 d9c2 dabf
00000720: eb35 fbe0 1674 0840 248c 1bfd a285 d93f
00000730: 5fb1 0f53 7f6e fc3f 0a53 2c46 c8eb a23f
00000740: a9a6 b2f4 4219 e73f e530 3921 a08a b9bf
00000750: c082 e19e 9d2c febf 47b2 74ff 418f fc3f
00000760: 4383 5ccd 9557 fabf 930b 6878 6044 06c0
00000770: 88b8 da1f caa5 f13f 00ec be09 42e0 02c0
00000780: 6663 3dc6 45e2 0640 2e6a 2c33 c391 0840
00000790: 426b 8b97 fe3f 0940 9a27 e901 745e dbbf
000007a0: b390 e577 f2b3 06c0 b56a fbec 93db 0140
000007b0: baff 9b58 304d a63f a92d 12ee 40f5 0740
000007c0: c18b c598 3644 0840 ce04 2eb0 c303 0540
000007d0: 52e5 9f73 74c0 f2bf 6cf1 f97f e56c efbf
000007e0: 12f7 d383 b191 fe3f 3c60 45f8 b3d1 f5bf
000007f0: aa9c c182 8657 02c0 546b 6b4c 8370 d43f
