results/vqe_data/with_params/10q7l/sgd_10q_7l_42/parameters/params_ite875.npy (npy, 2448 bytes, 1 tensors)

array f8 [290]
00000000: 0abe de44 074a e6bf c6e1 9a7a 5505 0840
00000010: 395c 43a9 31ad fe3f ecfd caa1 75de a6bf
00000020: fbca cc95 fb10 04c0 28bc 2376 ea6f 03c0
00000030: 0c2d 9590 fbb9 06c0 360a 138b 8fc1 0640
00000040: bf9c 8981 a265 a63f 85ad d65c 3dc1 f03f
00000050: 06eb acf5 e639 0ac0 3420 2144 4c96 0a40
00000060: 9400 99ce 75b4 0640 ef69 eea1 36b0 f9bf
00000070: dc05 b4c4 fd11 02c0 e1c8 df86 3ae9 f2bf
00000080: a337 34e6 4a5c cfbf 903a 937c ec42 b73f
00000090: e0c3 a5fb 6446 e1bf fc18 b417 50cb efbf
000000a0: 25dc 8d76 f1bf e73f 4fb5 2a00 6949 00c0
000000b0: 8e63 ce94 b520 ecbf 7fde 248b f81d dfbf
000000c0: 97a1 bec0 b099 cf3f db2d 6458 9a89 f93f
000000d0: 5348 34ac 0286 01c0 75c8 0b75 7bdd d0bf
000000e0: 6ba8 80c2 03f4 da3f 760a 27a9 9362 03c0
000000f0: fd12 4e15 dc3f e63f f4ad ea61 0355 00c0
00000100: 57ce 7d7c ff5c febf ea33 7fa5 5903 0840
00000110: c744 d008 4fc5 0340 93ba bfed 4705 fd3f
00000120: 3ab1 eec3 91ee f9bf 7e19 e30b 9e9b 02c0
00000130: e2fe 63c5 4631 ed3f 0d54 27ba 9b14 e6bf
00000140: 8212 217e b409 01c0 8c80 c626 768d c8bf
00000150: 31ea 3da8 a178 08c0 8d2a 40bd 73c1 0240
00000160: 75a0 bd25 71de 00c0 81b7 6a37 3311 e13f
00000170: e8d1 868b 4fe2 e4bf 8437 4696 80a9 a1bf
00000180: ab6c c068 7393 b13f 70ff 5f34 1ee4 f7bf
00000190: 821c 4f62 4e7f 0d40 a849 5f32 5392 fc3f
000001a0: ef99 dba4 46be 0640 84c8 d9b3 d3d1 0740
000001b0: 68d0 9591 d31a e23f 9854 8fec a237 0740
000001c0: 7cef ff51 1298 09c0 eda0 f730 bb4e f0bf
000001d0: 2ce1 9b77 10d6 08c0 9118 1e53 a58c f0bf
000001e0: 2a70 b82e 8f97 f4bf b170 fb4b fc78 e9bf
000001f0: 56f6 83d6 01e7 0540 4891 e9ae f42a f0bf
00000200: e863 dcc7 79bb f3bf 9cdc 280a ce61 cfbf
00000210: 8ff8 f2ab 3691 00c0 0846 3be2 c926 0040
00000220: d703 c8bc 1528 08c0 f2b9 c746 7d9c 0840
00000230: d51c 34fa 3ec9 f03f 6121 b8d8 67f2 f3bf
00000240: 690b 70d1 1164 06c0 6cd6 6378 5386 f63f
00000250: 3ae6 1829 96f2 e03f 0d9c 0841 b7cd f53f
00000260: 3666 bb25 315c e33f 4915 2a90 09c2 05c0
00000270: 77c9 7be4 e4c8 e8bf 81a0 eb68 fc0e 05c0
00000280: 0fd4 015f e3a3 f83f e07d 6d22 c0df ed3f
00000290: 4428 5c90 b69c dbbf bb43 a5c7 ee3b 07c0
000002a0: d2c1 2a85 055d fbbf 7b03 7a34 6379 01c0
000002b0: 9d46 ee10 ae3b e93f 0f4e 6693 7478 ed3f
000002c0: e32f 6003 96bd 0740 a676 b9b2 cb32 a1bf
000002d0: 03aa d5ec b72d fabf 693f 5abb b084 f93f
000002e0: 269d 9ea9 a92e f93f 21e7 6d00 08ac dc3f
000002f0: 9b15 34b7 e123 fb3f c898 e995 9692 d2bf
00000300: abdc e2be 89e8 ca3f e8c5 9571 2e8b f1bf
00000310: 520a 7064 5c6b 08c0 db95 93a6 4892 06c0
00000320: 46d4 9f75 317d 01c0 6504 5aa7 4855 b8bf
00000330: 2c8e 191a 3c8f f2bf 99d1 34a1 887a b13f
00000340: dae1 4e20 8ac6 0240 039e 8a45 c933 f6bf
00000350: bbcd 7ecb f435 f4bf 77c6 929f 4e93 f63f
00000360: a1cd 3745 8080 fdbf b166 d671 4cd8 08c0
00000370: eae5 fb4d fdd7 f4bf eb3d 4d2c 3f58 00c0
00000380: de3e ace7 39b9 0140 6b71 ac12 3820 0040
00000390: dc5e 61f3 51c8 f03f 77a9 74b6 603a 0740
000003a0: c640 ecee dd72 f33f f0ab a3ff 0b4b fcbf
000003b0: 666a e9a4 edd8 0240 bd62 ca8b f8a4 e03f
000003c0: 6f8e 0cf5 b19d f83f a9ba f37c 8541 0740
000003d0: bb55 f395 99a4 f8bf a563 3c3e e03f 04c0
000003e0: 79a6 d040 4d63 f8bf c0c3 1d9b f1c6 b93f
000003f0: c98e 171a 7164 0440 3096 13fe e14a 0640
00000400: 2a09 f12e 3c65 0ac0 2572 4b14 f755 d8bf
00000410: 2bf6 ce99 1c97 c13f e228 5f05 51a0 febf
00000420: 22e3 6e0e 9131 fbbf eca1 a50b a05c eabf
00000430: 3ad8 8ca9 2d84 0440 b895 d7ff 76d6 ebbf
00000440: 3773 1d6f f2c9 e8bf 7bec d6b4 fa48 e73f
00000450: 5e79 176d d10b eabf cf6b a44e a12a 0e40
00000460: 1c02 ae28 23ef 0840 a91d 9ea7 8b48 00c0
00000470: cb17 ff9a 365e e03f 8de5 2572 402f d5bf
00000480: d1af 5636 ac44 f9bf 80d6 7b9d 8f5d 06c0
00000490: bd75 8adb 9df0 b63f 52d5 09a8 d5c1 e33f
000004a0: 4116 7b81 e8e2 09c0 717c 1c62 b9dd ebbf
000004b0: aed4 f6e7 9add 0140 3300 75be 889e fcbf
000004c0: 2103 a117 fef8 fdbf 7cc1 9da6 cfd1 e0bf
000004d0: 086c 07a3 3d74 0f40 3afb 0034 284a edbf
000004e0: 6c33 3554 cd65 da3f 478a 7237 2ee8 fb3f
000004f0: a9e6 6667 9a01 ffbf ac8f 8e6e 1954 e33f
00000500: 4f3e 96fe 5d14 c1bf c64e d5db d674 f63f
00000510: 5d46 96dc 1f3f f33f 5064 997d d95b a9bf
00000520: 07ec 43f2 931d 01c0 e7b2 c136 e85e 0740
00000530: 7d71 e8d1 c0a5 f4bf 5c34 4f15 3feb febf
00000540: 4468 a8f3 4b89 0ac0 459e 5cb5 3ed8 d33f
00000550: 59c7 a3c2 dbf8 f43f f8c4 e74b 81eb 07c0
00000560: 25d4 88e4 6d82 f2bf ef9e efcc 163a fdbf
00000570: 09bc eeb3 4aa5 f13f 39a1 e057 e35a 02c0
00000580: 9224 46be cdd9 f73f c069 05e8 df88 e5bf
00000590: 7403 6131 3c86 fa3f e0f2 feae 8f4b 08c0
000005a0: d69c 0f52 1577 ddbf 7f75 7071 c318 06c0
000005b0: 83a6 8afa cee4 0340 26f5 0732 8a79 0840
000005c0: 79e3 6c37 0eae f4bf 8a54 7e39 4fe9 f13f
000005d0: 5000 8723 913e fe3f 798f 70e1 f55e 9abf
000005e0: 33f0 ec95 a400 ddbf 910c 5622 6168 f8bf
000005f0: 2cc3 acaf 6602 02c0 5ed3 16fe e284 0240
00000600: e91e dff2 e308 0a40 2aa5 9350 317f e03f
00000610: 6221 eeb7 80e2 f0bf dba3 e130 d49b fbbf
00000620: d756 f95b a9ad fc3f 0492 357f 8fb3 0040
00000630: 6f81 cb58 2a6d ff3f 83ed 53ac 7391 0540
00000640: b47c 5bfb 4e9f d33f 2dd4 e11b a2c6 09c0
00000650: 9877 3965 8ec3 febf db3d d0b0 54c2 0840
00000660: e51a f1fa 56ec d43f 7fc7 f00e ee3f 0bc0
00000670: 83f2 89d1 65d8 08c0 6f49 9f88 1878 f93f
00000680: 6471 5ef2 b9a2 04c0 e006 538a 80c2 01c0
00000690: 2a09 a0e6 55a0 d53f 77c8 65a5 0974 fd3f
000006a0: 78bf beca 5d63 eb3f 2c51 e014 c444 ffbf
000006b0: 0101 679f c3fe f03f ab8d c9bb bbb1 fdbf
000006c0: 3dad 4a5b c12e f7bf 2722 ccd2 5b2d ff3f
000006d0: 8d37 b4f9 0b15 df3f e4a9 6f41 256b 0640
000006e0: 1aea d1b9 f528 be3f 494d c3f5 2085 a73f
000006f0: 9062 43f2 5485 01c0 7f6e 07d4 0a96 9fbf
00000700: 35bd e5ce 3d0a f5bf 17d1 c89f 8998 f7bf
00000710: f8a7 01b2 174d 0940 cda6 1084 d2e3 cbbf
00000720: 3930 a7d0 302f 0840 9914 08ab 202a ee3f
00000730: 0167 d131 6ae4 0140 2e96 278e 9945 d5bf
00000740: fb0b 72ad 6c88 e83f 7763 8675 494a e7bf
00000750: bddd 5ea1 3b9b fabf 5ed7 17cc a897 f93f
00000760: 2d27 98c9 e841 eebf 0115 9a00 cb92 05c0
00000770: 5b03 df2a 883e ec3f 2413 c226 5075 fbbf
00000780: 12d3 9d65 0131 0940 2e0a 5b8d 5887 0940
00000790: a857 fa0b c267 0a40 22ec 5f25 490f 97bf
000007a0: eb2f 586e cbc9 05c0 e63d ce47 bad3 fa3f
000007b0: e97b d288 1605 893f 6d75 1aaa 5e3a 0940
000007c0: f13a c07b 6814 0940 58b5 9487 fa89 0340
000007d0: a8e5 10ee 2c7c f7bf 83c6 323c ff61 e4bf
000007e0: 9252 7146 4d6b ff3f f3fd e175 4bcb f4bf
000007f0: e5af 88a5 83ec febf cc68 39bb 1142 c1bf
-0.6965366692656414 3.0026044443622792 1.917283688720785 -0.044665981292833695 -2.5082923606036025 -2.4296464185386135 -2.840811852982034 2.844512068289329
0.043744161904038396 1.0471776606089815 -3.278272551860371 3.323387653599662 2.838115324062594 -1.6055208516542014 -2.258784806007254 -1.1819405811807473
-0.2450040458720056 0.09086492577919558 -0.5398430743208529 -0.9935684645613772 0.7421805682669215 -2.0358448040994186 -0.8789928346987936 -0.48620427692683416
0.24687776004180925 1.596094460753071 -2.19043478521875 -0.26351820402408715 0.42114347452537143 -2.423133203033383 0.6952953735459172 -2.041510357832289
-1.897704588217399 3.001635830826207 2.4713421524580528 1.813789299685287 -1.620744481430917 -2.3259850433998386 0.9122651915822326 -0.6900156627476705
-2.129738793739592 -0.1918170632679942 -3.0589020866293812 2.344459036369989 -2.1086142490858557 0.5333496172295186 -0.652625820649118 -0.03449632486727608
0.06865617091573266 -1.4931928678415396 3.6871612244027014 1.7857238738693955 2.842908180190754 2.9774545718037775 0.5657747119389684 2.9021662217370015
-3.199253693221122 -1.019221488264573 -3.104523596233909 -1.0343373533992557 -1.287001783849528 -0.7960187419917216 2.7377964743634875 -1.0104872543825696
-1.233270436007155 -0.24517226692271243 -2.0709050591968388 2.018939750131498 -3.019572710851644 3.076410820932545 1.0491323255135303 -1.246681067046744
-2.7988621103590288 1.4077944472059256 0.529612617748348 1.3627235927940575 0.6050039040521316 -2.719744802746082 -0.7745232069558331 -2.632317371073498
1.5400117598740086 0.933563296548467 -0.4314400110021135 -2.9042640301999803 -1.7102103425823896 -2.1842712497459025 0.7885351496390346 0.9209540251635547
2.9675712836960755 -0.03359066540427351 -1.6361617328026348 1.5948951071222501 1.5738922715916686 0.44799995462345704 1.6962601810822437 -0.29019703521624907
0.2102214986859726 -1.0964798390308435 -3.0524223181430807 -2.8214276326932413 -2.1861294927025794 -0.09505132756932395 -1.1599694270634116 0.06827596603108645
2.3469431423256824 -1.3876431194747745 -1.2631729077373695 1.4109636529286982 -1.8438723281695746 -3.1056145566515956 -1.3027318044900036 -2.0430892430374477
2.215442476219194 2.015731950652641 1.0489062792820993 2.903504777369729 1.2155436833309508 -1.7683219896232423 2.355922020314483 0.5201380472454599
1.5384997913578464 2.9069928895836097 -1.5401855332796532 -2.531189428537305 -1.5242435962522036 0.10069189106958643 2.5490438497962242 2.7865638589599016
-3.299431196909741 -0.3802468965712101 0.13742406377962033 -1.9141397676308363 -1.6996012271685648 -0.8238067843895442 2.564540218935716 -0.8699297902027672
-0.7746517343726741 0.7276586086294538 -0.8139426356026822 3.770815481560454 3.1167662790396786 -2.035422620308698 0.5115006472849414 -0.33100901744145333
-1.5792657969095567 -2.795684080449803 0.08960901842006926 0.6174114496231289 -3.2357950320900106 -0.8708159366832559 2.233205616207292 -1.7887046279647734
-1.8732891963010803 -0.5256117109511673 3.9317581879272474 -0.9153023734760162 0.4124635050146057 1.7441847005762996 -1.9378913916720342 0.6040160331071909
-0.13343405657768634 1.403525217746322 1.2029112450294612 -0.049528881627971644 -2.1394423415163177 2.921341350351543 -1.2904670905619178 -1.9324332077406075
-3.317039397789843 0.3100735446082335 1.3107564547649047 -2.989992707262555 -1.1568430831077958 -1.826681900531124 1.1028544453254219 -2.2943789353777473
1.4906747276857328 -0.6729583293593393 1.657772248159941 -3.0368951484255007 -0.4603932668091607 -2.7620915281719927 2.4867229054987674 3.059345618121955
-1.2924940266659333 1.11946032007589 1.8902751338755657 -0.02575287044977823 -0.4531642402760127 -1.5254832593207406 -2.2511724209401986 2.314886078902801
3.254341027673821 0.5155264447941239 -1.055298536755878 -1.7255441579275075 1.792397841714253 2.087676042387331 1.9641517132332316 2.696021410285256
0.30659842058771436 -3.221988885716675 -1.9227432207185071 3.09488809714797 0.3269250345805815 -3.406215779040337 -3.105662953398054 1.591820272141003
-2.579456227786226 -2.219971733721522 0.33791110536562263 1.8408295117228854 0.8558796844354069 -1.9542885604360647 1.062198279061761 -1.8558919272844416
-1.4489148679811727 1.9485738977692877 0.4856595934405668 2.8023171531869924 0.11781249796505514 0.04593756675753952 -2.1901034285368226 -0.030845803443169558
-1.315000351136246 -1.4747406236247735 3.1626428515201006 -0.2178900856827596 3.023042326070961 0.9426425304851761 2.236530675127938 -0.3323730362156735
0.7666533839804964 -0.7278182311448366 -1.6628986648118904 1.5995262119663134 -0.9455455720319371 -2.6966762587568387 0.8826332890822458 -1.7161408914555034
3.1489284457005704 3.1910868686111575 3.300663083627075 -0.022519247919245207 -2.7235325451529113 1.6766913227946758 0.0122167358879874 3.153500870640235
3.1349649112738622 2.442372378564567 -1.467816286034898 -0.6369625259159907 1.9636967422167442 -1.2996325115963117 -1.9327427354974074 -0.1348287738972601
