results/vqe_data/with_params/10q7l/sgd_10q_7l_42/parameters/params_ite279.npy (npy, 2448 bytes, 1 tensors)

array f8 [290]
000000 1c b9 71 02 51 df e5 bf a6 27 42 2a 9c 4d 08 40
       -0.6835103080500491 3.037895517486464
000010 0b 96 69 a1 3c 62 fe 3f d9 4c c9 88 55 9e a6 3f
       1.8989836030172025 0.04417674345736495
000020 ce 65 53 f7 85 66 02 c0 91 b5 54 8d 2f 15 05 c0
       -2.3000602075887633 -2.63534460463297
000030 fe 58 08 15 59 38 08 c0 63 09 49 16 4a dd 06 40
       -3.0275136607334607 2.858051466087248
000040 36 25 c2 03 fe cb a0 3f 52 0b d9 b3 ac 95 f0 3f
       0.032806337317263276 1.0365416550927944
000050 fe ec 91 b4 0a 87 09 c0 f4 da 88 bf 73 88 0c 40
       -3.190938387587834 3.5666270221366805
000060 3c 1c 77 90 9c 64 06 40 c5 1c a5 6c 0e fd f9 bf
       2.7991267477368904 -1.6242813342994833
000070 9c f6 f1 3c 12 57 03 c0 6b fb ed f4 99 d6 f6 bf
       -2.417515255102286 -1.4273929183543383
000080 32 78 fc 9d 8f ce e6 bf b1 19 15 08 5f 10 95 bf
       -0.712714966360869 -0.02057026373702237
000090 1a 59 ae 74 6f 53 dd bf 91 c5 f3 fb aa 18 ef bf
       -0.45821749109872345 -0.9717612191144999
0000a0 74 6f bc 17 0c 05 e7 3f 57 d7 56 fb cd 1c 03 c0
       0.7193661178202846 -2.389064754092867
0000b0 56 ea 38 94 d0 4e ec bf 25 22 dc d1 a6 29 d1 bf
       -0.8846209425895022 -0.2681672143376395
0000c0 68 fd 7c f1 46 d3 b4 3f 2e 4d e4 7c 18 6b f6 3f
       0.08134883304318452 1.4011464003168146
0000d0 2b 49 ab ef da 86 01 c0 db 98 da a5 1c b8 ca bf
       -2.190847275175789 -0.20874364946684562
0000e0 3a 97 d4 c0 b9 3a d0 3f d8 3f 21 7f 57 fe 03 c0
       0.2535843260869687 -2.499190324022475
0000f0 ff 73 65 d2 67 c4 d8 3f 7a 16 b8 c4 51 f1 03 c0
       0.3869876436854724 -2.492831742160715
000100 3f d1 57 06 22 50 00 c0 db 59 a7 b5 6e 9c 04 40
       -2.039127397112821 2.5763830367752525
000110 2f 23 23 b3 54 44 06 40 ed 3b e6 76 c7 ab fa 3f
       2.783364676961717 1.666938270998567
000120 e1 95 7e 25 6d 7d f9 bf c1 16 fc 6b 81 13 05 c0
       -1.5931216683032903 -2.634524196272509
000130 92 35 dd a4 59 9f ee 3f c4 0c fd fe ec 1f e6 bf
       0.9569519252778937 -0.6913971882098839
000140 64 e5 94 eb 48 e5 03 c0 b0 47 1e 4f 56 b0 b3 bf
       -2.4869554905714484 -0.07690944129561106
000150 bc 69 71 f8 1c c7 05 c0 de 17 9d 99 11 15 03 40
       -2.7222232255564602 2.385287475687604
000160 0e 87 97 29 65 3b 00 c0 8c 54 68 52 35 dc e6 3f
       -2.029001545845751 0.7143808946153896
000170 43 91 35 f9 a6 d1 e5 bf 3a 1b 49 69 76 0f 7d bf
       -0.6818423144691582 -0.007094824356108026
000180 b8 33 88 08 59 fb 90 bf 3c 54 d6 96 45 1c f8 bf
       -0.01658381571364817 -1.5069023029402748
000190 bc c1 57 e1 b3 f7 0a 40 b1 a9 c8 01 1c bf f6 3f
       3.370948563089966 1.4216575689011786
0001a0 20 1d 05 cb ce 12 06 40 a5 c8 35 56 ba a2 06 40
       2.759183488935051 2.829456971660948
0001b0 0d b0 62 cc 10 1b e7 3f 87 cb fe b5 51 cd 06 40
       0.7220539085296892 2.850253507459857
0001c0 c8 58 4b 55 a3 b3 08 c0 bc c4 89 0d 8b e4 f7 bf
       -3.0877138770693797 -1.4932966736635498
0001d0 2f 39 2f fe ce 6b 08 c0 f5 49 35 02 ee ac ee bf
       -3.052640901390212 -0.9586095851066704
0001e0 e0 84 1d ca 46 8b f0 bf 42 35 d9 a0 4c 49 ec bf
       -1.0340030570153473 -0.8839476720401438
0001f0 fe 08 a1 5d 4d d8 05 40 e0 49 8e f5 00 ea e2 bf
       2.730616313435461 -0.5910649105083472
000200 df 5c ca 13 73 e6 f1 bf 69 df 8c 68 06 1d d0 3f
       -1.1187620900216684 0.25177154741276425
000210 25 c4 58 95 69 89 00 c0 ec 58 ca 0f 7e f0 00 40
       -2.0670959155763904 2.1174279435755263
000220 0e f9 a5 58 90 95 07 c0 05 19 6c 1a 0c 8f 08 40
       -2.948029224934664 3.0698473037947474
000230 6c 7c f7 65 2c f5 f5 3f 92 bd 93 dd c0 53 f5 bf
       1.3723567946506376 -1.3329476027828133
000240 2b 5c 5e 95 31 19 08 c0 cd 54 ac ed eb 0e 00 40
       -3.012301604215755 2.007285935231812
000250 42 d2 26 67 17 a6 ea 3f b1 4a 3a d0 a2 d3 f7 3f
       0.8327748312645513 1.4891689428228967
000260 e7 8e 5f 79 cb 13 f2 3f f3 22 10 cd c1 83 07 c0
       1.1298327199119116 -2.9393344898747897
000270 96 43 10 b3 d9 a3 e9 bf 2d 05 af 4e 5b e5 05 c0
       -0.801251268132648 -2.7369905612146312
000280 39 ec cb 5c a3 fa fc 3f 7f 75 9f e7 5d b3 e9 3f
       1.8111909508577482 0.8031453632244591
000290 10 6e 55 9b 0e fc da bf 19 bb 88 3e b7 6c 07 c0
       -0.42163434190089877 -2.928083885715193
0002a0 f8 cb ba 14 4b c8 f7 bf 7b dc c4 40 c8 d2 fd bf
       -1.486399727797787 -1.8639605073965686
0002b0 fa 3a ba ef 3a 57 f1 3f 04 4f 07 c5 79 13 ed 3f
       1.0837964405397416 0.9086274002279144
0002c0 2a 35 34 c8 a4 71 03 40 5a eb fc 4a 17 d0 a0 bf
       2.430490078061344 -0.03283760824566313
0002d0 3c 3a a9 41 cf 06 fe bf a2 b2 65 f3 c2 83 f9 3f
       -1.8766624989399494 1.5946683414178229
0002e0 e6 1f e8 dd 6c 52 f4 3f 63 33 5a 29 21 e5 e0 3f
       1.2701233547431854 0.5279699142134685
0002f0 e1 69 64 6d 4f d1 f9 3f cb 57 39 09 80 2f d8 bf
       1.6136011384138487 -0.3778991785123906
000300 26 0b b6 56 be e1 d2 3f 04 ea 9e 52 ee c5 e9 bf
       0.2950282904422913 -0.805411492699307
000310 88 65 b7 8f 1c 86 08 c0 ba 26 95 4d 5a fd 06 c0
       -3.065484164032288 -2.8737073956625325
000320 04 bc 10 23 ad a5 02 c0 b5 25 33 b0 3d 74 c4 3f
       -2.3308966388208336 0.15979739287858555
000330 c8 01 4b f7 06 d7 f2 bf 88 ad b7 ca cc 67 c0 3f
       -1.177496877659097 0.12816772363963147
000340 88 97 d9 1e b4 33 04 40 51 64 c9 b2 39 cf f0 bf
       2.5252458963540825 -1.0505921348433456
000350 d5 0e e7 85 fb 04 f0 bf b2 ff 87 51 f1 c1 f6 3f
       -1.0012164335793632 1.4223492798628112
000360 02 85 5d e7 b7 8c f7 bf 99 a4 26 90 41 76 09 c0
       -1.47185507180285 -3.182742239169397
000370 cb 2f 7f ee ab 02 f6 bf b4 ef c2 94 d3 06 01 c0
       -1.3756522480280065 -2.128333246420846
000380 da b1 ec b2 6f cb 01 40 de cc e0 55 a9 b2 00 40
       2.224334142540312 2.0872370442608448
000390 b9 5e 56 ad c1 e5 f0 3f d2 d7 f4 ba d8 00 05 40
       1.056092908000137 2.625413380238549
0003a0 8c 58 ef df ee f7 fd 3f 79 4a 03 4a 46 58 fd bf
       1.8730305430849823 -1.8340514079215195
0003b0 67 68 2b ee 3e 9b 02 40 39 4b 48 99 cb e8 e3 3f
       2.3258036238667503 0.62216739595383
0003c0 f4 e4 6a 4e a6 f5 f6 3f 55 ae fa c4 01 90 07 40
       1.4349730551896842 2.9453158749582067
0003d0 ad bb 7e d4 d4 68 ee bf 04 46 41 9c d4 35 05 c0
       -0.9502967977804154 -2.651284428350438
0003e0 bf 3b b2 75 d5 84 f1 bf 79 33 84 d1 73 16 c1 bf
       -1.0949301335819965 -0.13349769335072972
0003f0 fc db 1e cb 33 1c 04 40 f1 48 46 6c f1 c6 06 40
       2.513770663146259 2.847140165228773
000400 1a ba 06 b3 b0 ef 09 c0 5b 4d e7 39 3d 11 c5 bf
       -3.242036245959082 -0.16458859755821717
000410 13 b0 91 5d 6c 30 c1 3f fb 39 95 a5 ae c4 fa bf
       0.13429026192477575 -1.673018118675485
000420 2d 31 66 22 ae 84 fe bf c8 e3 1c c2 10 56 ee bf
       -1.9073926299780155 -0.948006037832891
000430 30 ce 01 0f 75 86 04 40 a0 d5 ea d8 24 48 f2 bf
       2.5656529591012927 -1.1426132653553864
000440 c7 b3 cc fc 7d 8a e5 bf 7b b4 01 90 7c 08 f0 3f
       -0.6731557786457579 1.0020719170818484
000450 95 c9 f0 1a 30 33 e9 bf d3 63 9f c6 11 c0 0a 40
       -0.7874985243018268 3.3437839047805737
000460 0e 9c 5c 0d f2 cf 06 40 8a fb 27 bc 93 0f 01 c0
       2.851535896671982 -2.1326060008718217
000470 cb 54 78 6a 52 0e d3 3f 00 3f 5a b8 ed 1b d9 bf
       0.2977491416689417 -0.3923296261136642
000480 95 71 a2 df 86 6f f7 bf 96 78 ef 70 46 19 04 c0
       -1.4647282348370017 -2.5123413870888482
000490 d3 f1 c2 ca 8f c6 c4 3f 16 57 38 84 7a 93 db 3f
       0.162309621815338 0.4308763781749446
0004a0 5a 9f ac 2d 8b 2a 09 c0 05 d7 9d ed 86 90 e3 bf
       -3.145773274260063 -0.6113924637745362
0004b0 cf 79 79 4f 12 e2 00 40 1d c6 03 09 98 d2 fd bf
       2.1103864869066693 -1.8639145233286236
0004c0 41 b7 c9 a7 22 2b 00 c0 e3 bc bc 8a 23 f8 e1 bf
       -2.021062193721179 -0.5615403852188162
0004d0 3a 88 69 e2 0a 68 0e 40 37 b3 66 ed ed f1 f1 bf
       3.8008020103889324 -1.1215647958262716
0004e0 b2 3f 6b 1f 1f 96 ed 3f 22 b8 27 b9 ea ab fa 3f
       0.9245753873492417 1.6669718964217357
0004f0 c6 ef bf e1 65 4f fe bf 42 0c cf d6 12 0b ed 3f
       -1.8943842714643195 0.9076017566188812
000500 d1 42 45 d5 95 50 dc bf b4 dd b6 16 31 a7 f1 3f
       -0.4424185354919646 1.1033182990339414
000510 36 93 4e 18 da 5b f6 3f 21 98 8e 39 86 c0 ad bf
       1.397424788426361 -0.058109468961717654
000520 8f 5b f9 65 cd 2f fc bf 07 c1 a8 eb a2 ed 03 40
       -1.7616704924928148 2.491033402526344
000530 05 d2 82 84 81 76 f2 bf 10 47 e1 aa 80 84 00 c0
       -1.153932111378823 -2.064698538780142
000540 c4 dd 50 ea 94 14 0b c0 c6 d6 a6 94 c8 99 c5 3f
       -3.385049658387034 0.16875560053238398
000550 ae 0c 02 c1 e2 af f1 3f 60 24 03 a9 17 99 05 c0
       1.10544085878136 -2.6997521595081224
000560 ae 4b 27 55 07 75 e9 bf 91 ee a3 fe 1d 2c 00 c0
       -0.7955357230333584 -2.0215415853288694
000570 0d 41 90 f4 d5 e9 ee 3f f5 22 b1 72 7f 9c ff bf
       0.9660444046622004 -1.9757074813989537
000580 74 cd 39 51 9b 54 f6 3f a3 04 a1 45 6f 24 d9 bf
       1.395655934608695 -0.3928487949343184
000590 c4 36 06 c3 46 41 00 40 fc 3a 93 67 ef d2 04 c0
       2.0318732486983624 -2.6029956905180125
0005a0 63 ab 66 a7 f1 01 e4 bf a9 d9 9d 21 3b 33 05 c0
       -0.6252372998763857 -2.650015127782542
0005b0 79 77 76 6e 97 ac 02 40 0f ab 31 7c b2 7a 08 40
       2.334273207655255 3.0599107458741694
0005c0 7a 79 72 f6 97 ab f8 bf 2b 93 e5 f4 56 ad f0 3f
       -1.5418929697840142 1.0423192564277979
0005d0 cb c1 49 51 62 0a ff 3f 10 89 42 64 c9 ff cd 3f
       1.9400351691548277 0.23436849017623063
0005e0 2f 5e a6 dc 84 de c3 3f 05 64 5a ae 5a 71 fa bf
       0.15522824071807537 -1.6526743708293463
0005f0 53 d5 d1 8d b6 a8 04 c0 58 57 31 de 6c 87 02 40
       -2.5823794440899888 2.316125617867254
000600 de de aa 5f 9a 92 0b 40 e5 6a 99 08 67 e1 db 3f
       3.446583506967598 0.4356324752786079
000610 6d 20 72 0d 19 41 eb bf 8f 28 e9 80 d9 a7 f6 bf
       -0.8516965162862228 -1.41597891193172
000620 97 82 04 d3 b3 b1 f8 3f c7 5e 77 0b 86 a6 03 40
       1.5433843844295205 2.456310357647314
000630 56 f5 d8 84 7e 01 00 40 fc b6 f9 0f a1 3a 00 40
       2.000729596968692 2.0286275146562485
000640 8e ac 46 98 42 5f de 3f 97 ae 58 1f 4c 23 09 c0
       0.4745642172881127 -3.142235035795078
000650 0a 52 34 ca fa ef fd bf 3f f9 83 a9 1c cf 08 40
       -1.8710887812241048 3.1011288875007774
000660 23 87 e5 4a e7 aa e0 3f 53 ce 30 98 a4 39 0c c0
       0.5208622420143211 -3.528145970334472
000670 8c a9 38 51 d0 00 09 c0 c9 fd dd 7a 3a 4f f8 3f
       -3.125397333661743 1.5193428802011673
000680 47 1b 02 2f 8b 7f 07 c0 7c f6 3e 4c ad 11 03 c0
       -2.9372771904485577 -2.3836313206400614
000690 fa c8 a9 d9 87 a5 e6 3f a8 9a 43 ca 33 c2 fd 3f
       0.7077063800082037 1.8599126721325465
0006a0 4b 3d 9d 2f 0f 61 ee 3f d7 b0 aa fa a2 b2 ff bf
       0.9493480615582625 -1.9811124602957102
0006b0 26 52 bc c8 d4 1c ec 3f 91 10 fa 60 57 bf ed bf
       0.8785194321267837 -0.9296070951536582
0006c0 09 0b c2 cb 63 51 f2 bf 86 85 d5 53 fa 74 ff 3f
       -1.1448705634399536 1.9660590433853442
0006d0 bc a2 fc 01 01 c4 ee 3f 5a 8e 49 39 fb 15 01 40
       0.9614262617879699 2.135733077580693
0006e0 6b 2e 60 56 b5 02 b5 3f 2b da 51 31 ca b8 d0 3f
       0.0820725761297411 0.2612786752355613
0006f0 8a fb ac c3 da ad 01 c0 62 9a 59 e9 24 5d a9 bf
       -2.209889916149625 -0.049538758740528946
000700 c6 d1 da 0e c4 ac f2 bf 48 fe bc f4 25 1c f2 bf
       -1.1671791630043216 -1.1318721351707541
000710 41 70 b4 e2 b1 39 09 40 a1 c7 92 eb 82 3a d2 bf
       3.153171321040674 -0.28482125287257004
000720 54 41 f8 2a bc 86 08 40 20 55 d5 7c 34 1b e4 3f
       3.0657885891925307 0.6283209264899234
000730 c6 45 58 82 0e fc ff 3f 4a 30 29 81 79 ad c0 bf
       1.9990372745127032 -0.1302940254848884
000740 db 17 36 39 60 41 e7 3f 27 83 aa 60 ef f9 e0 bf
       0.7267304532440407 -0.5305096519478852
000750 a5 02 dc fb 7a 11 fe bf 2d 07 2a e4 08 b2 f8 3f
       -1.8792676771410382 1.5434655106223076
000760 e4 7a 15 a2 b2 e6 f6 bf 30 d4 5b 64 b5 e6 05 c0
       -1.4313227015879244 -2.7376506653331703
000770 01 5a 2b a1 3e 20 ee 3f 7b 2c 77 7c 97 b8 02 c0
       0.9414361141051019 -2.3401326869839614
000780 f8 13 8a ea 9b c6 08 40 44 29 c8 b7 08 ee 09 40
       3.0969770739925444 3.241227565570769
000790 dc 87 13 f1 51 dc 0a 40 3a c4 fb 35 b2 e7 8f bf
       3.3575781663976 -0.015578644058651493
0007a0 fd db cb d4 9d cc 06 c0 90 7c 26 6b f9 12 fd 3f
       -2.8499104141915255 1.8171323953209004
0007b0 27 ba 4e 09 9a b4 78 bf 3e 81 4a 04 c9 01 08 40
       -0.006031610207101446 3.0008716902958943
0007c0 4f e3 1e ef 5e 04 09 40 b4 04 aa cd 6c 63 06 40
       3.127134197359204 2.798547369719552
0007d0 29 ac 1f 0a 9f 2b f5 bf d2 ef 11 98 38 82 ea bf
       -1.3231497188051071 -0.8283961267584294
0007e0 11 1c 65 83 c4 0a 00 40 17 c0 78 e1 b7 23 f9 bf
       2.005257631800767 -1.5712202842223684
0007f0 01 3b 26 36 8f 10 01 c0 49 1e ef 66 a0 74 d1 3f
       -2.133085654298498 0.2727433209624662
