results/vqe_data/with_params/10q7l/sgd_10q_7l_42/parameters/params_ite1969.npy (npy, 2448 bytes, 1 tensors)

array f8 [290]
000000 ed db e3 ff 65 8e e2 bf 0d 96 d8 a9 24 33 08 40
       -0.5798826215603846 3.0249722737523883
000010 29 16 50 4b bc fe f9 3f e7 f2 06 c9 db 4d d4 bf
       1.6246912900836696 -0.31725210792119046
000020 07 72 ea cc be 60 01 c0 b5 a7 2f f6 63 5a 02 c0
       -2.172238922981936 -2.2941359742444214
000030 c1 76 a8 4a b7 8a 07 c0 c0 fd 8e 16 e5 84 06 40
       -2.942732413545713 2.814890075911279
000040 5e 6d ce 74 e5 d6 5d 3f 72 44 ee 6e f4 bc ee 3f
       0.0018212548049863701 0.9605657736411912
000050 17 9c 6e 65 9e b9 09 c0 3a 78 ed 40 9e dc 0a 40
       -3.2156341480617914 3.3577237198324186
000060 00 cf 89 df 0b 89 05 40 ca da d5 2a 03 53 01 c0
       2.691917177575192 -2.165533384944273
000070 2c ad 1d 9d 2f 65 00 c0 64 23 fe 7e f9 22 f4 bf
       -2.0494072222405944 -1.258538719239561
000080 74 11 ee fe 14 dd 95 bf 5f e8 9a 07 16 80 bb 3f
       -0.02135117345780331 0.1074231880728873
000090 30 a0 79 72 a6 78 e6 bf 04 4a 41 74 dd db f1 bf
       -0.7022278056947524 -1.1161779919826822
0000a0 db 1a 3e 1a ae 9b e8 3f 04 f8 b6 6f de ab fc bf
       0.7690039169836739 -1.791960178743012
0000b0 29 21 0d 09 9e 85 dd bf 2e 16 69 60 69 b7 e6 bf
       -0.4612803543464162 -0.7098891146676516
0000c0 50 80 6e f1 09 f8 ba bf 35 e0 7e 48 89 3d fa 3f
       -0.10534727234198837 1.6400235015735352
0000d0 6d 85 0a 09 b5 88 00 c0 17 53 05 f7 b4 23 d0 bf
       -2.0667515474639715 -0.2521793758690349
0000e0 a8 f1 23 3c 7f 06 c3 3f ba 77 e5 83 f8 4d 03 c0
       0.1486357730535819 -2.413071661415384
0000f0 74 c9 87 98 40 27 e0 3f eb de 63 14 c6 27 fd bf
       0.5047915438756676 -1.8222103878487654
000100 37 db d1 cf 72 0c 00 c0 3a 7a 24 12 cd 3e 09 40
       -2.0060783611219466 3.1556645791418108
000110 40 42 b2 01 bf 2e 05 40 56 bd 34 61 35 f7 f8 3f
       2.6478252537274614 1.5603536412343906
000120 68 da f8 9d 99 66 f5 bf 4a 31 eb 02 0c 95 01 c0
       -1.337548844412277 -2.1977768161797586
000130 79 4c 01 fe 0d 84 ec 3f b3 17 d7 9d 28 ca e4 bf
       0.891119953254374 -0.649677570611621
000140 70 f0 f5 ab c0 85 02 c0 84 1e 84 65 41 d5 c5 bf
       -2.315308898394555 -0.17057054001655925
000150 e4 85 8c 42 3b d8 09 c0 15 d5 a0 2f 03 7c f6 3f
       -3.230581779397413 1.405276475952012
000160 ef 29 12 a2 26 cc 01 c0 e2 06 b5 f7 37 71 c1 3f
       -2.22468306177074 0.13626765818667425
000170 18 6b 6a 8f 64 23 e6 bf 4d 6c 5e 40 fb 05 b4 3f
       -0.691820411785872 0.07821626969818958
000180 80 3a ad 86 d7 8c af bf d0 df da 50 62 b4 f8 bf
       -0.06162141341211669 -1.5440390737912715
000190 e9 38 46 1b 34 9b 0e 40 69 17 3d 19 d8 af 00 40
       3.8257829790883204 2.0858613940971975
0001a0 e4 ee 80 fc 9b c3 0a 40 ee 4c 96 76 00 59 0c 40
       3.3455123640868454 3.543457914792831
0001b0 7f 52 c8 e8 54 ab db 3f 22 0e b7 33 d3 9c 03 40
       0.43233225567499994 2.4515747108687416
0001c0 43 4d ac 19 70 5c 09 c0 b2 a4 27 1f 97 22 ea bf
       -3.1701356893260324 -0.8167224510663316
0001d0 c1 9d 69 04 c8 db 08 c0 b5 6f df eb 9d 94 ed bf
       -3.1073150963527216 -0.9243917090311614
0001e0 83 e0 c5 c7 a9 b8 f7 bf d3 14 dd 34 74 a3 ee bf
       -1.4825837901717314 -0.9574528725139778
0001f0 5b 77 c2 61 e6 c8 06 40 90 2f ca 79 20 8f 01 c0
       2.848095668551577 -2.194886161310883
000200 c4 9b f8 f2 2a b5 f9 bf f3 1c 40 f2 52 31 e5 bf
       -1.6067304125842705 -0.6622709971860828
000210 3d 83 cb 84 98 37 02 c0 42 d4 94 86 c7 aa f7 3f
       -2.277146375141824 1.4791941887936138
000220 14 6f 50 77 41 e6 08 c0 a0 0e a7 ac 45 f0 08 40
       -3.1124295541211584 3.117320393417529
000230 64 cc d8 3c bd 93 f8 3f a1 9d 24 7b ad ff f5 bf
       1.5360691429930506 -1.374921303775274
000240 6d 79 aa fd 2e 9e 02 c0 e7 20 14 c4 f1 cc f4 3f
       -2.327238065495456 1.300035253460061
000250 b4 72 22 db 88 1b ec 3f c6 06 3c 99 8c 72 ee 3f
       0.8783611564609459 0.9514830582486062
000260 ab 32 08 44 c9 3b e4 3f 1d 5f c3 31 c3 d0 03 c0
       0.6322981194258167 -2.4769348037479078
000270 de 38 ff 84 42 f0 ed bf 18 c5 38 fb 6f 88 05 c0
       -0.9355785939785866 -2.6916198374461935
000280 94 99 61 ff 77 e1 f6 3f 13 a3 61 71 57 b4 e9 3f
       1.4300460792379441 0.8032643522720683
000290 a7 07 7c 42 6e 56 c0 bf 0c ed d0 98 67 9b 08 c0
       -0.1276376556998546 -3.0758811892279763
0002a0 20 ad 6a bd b7 ac 02 c0 d9 a1 e4 94 28 22 fb bf
       -2.3343348310642256 -1.695839482892657
0002b0 a5 1b 02 e0 1b a0 e4 3f 66 46 8a c2 b2 c2 e4 3f
       0.6445445418511225 0.6487668799984021
0002c0 ee 52 6c da d3 05 07 40 46 e2 18 df d9 cd 7b 3f
       2.8778454841907353 0.006788111744349628
0002d0 7d 06 47 fc 61 23 00 c0 ed b6 44 e2 95 a3 fb 3f
       -2.017276736180803 1.7274378622636803
0002e0 a1 60 a4 3a 47 b4 01 40 b9 e0 c1 4f c7 06 f2 3f
       2.213026483670618 1.126654922058192
0002f0 8a 1c 03 2e a0 fa fd 3f 5c 20 30 b0 25 35 d1 bf
       1.8736879155492567 -0.2688688488565327
000300 40 36 2a 44 25 35 ee 3f 07 b4 f9 e0 75 51 f4 bf
       0.9439874965043558 -1.2698878086187066
000310 b3 ec 36 a6 6c b1 08 c0 56 2e 4d 14 48 6b 07 c0
       -3.0866330132972393 -2.927383574109437
000320 68 dd 58 f5 cd 9a 08 c0 28 e8 16 a2 60 e6 a0 bf
       -3.075588146948281 -0.03300764063483569
000330 da e7 48 cd 2a a7 e9 bf 34 a6 88 13 57 5d b3 bf
       -0.8016561517208587 -0.07564300753497194
000340 74 2f 01 3e 21 a6 04 40 0a 49 f9 ca 61 ae fb bf
       2.5811180919753784 -1.7300737312949104
000350 b3 52 5f a6 4a 21 f6 bf ff 34 1b 25 09 ac e9 3f
       -1.3831278323097365 0.8022504544002514
000360 91 9b 50 59 97 37 fd bf 6a 43 ad 75 9c b0 08 c0
       -1.82607207192061 -3.0862359231472754
000370 1e 7b 5b bd 51 d8 f4 bf 23 00 89 8d 91 f4 fe bf
       -1.302812328030718 -1.9347091225354311
000380 4e 5d ad 68 e0 5c f9 3f 7c 34 ec f2 2d b2 04 40
       1.5851749504998511 2.587001703103452
000390 b0 cc ba 1c 74 b8 fe 3f 0d cf de 63 c2 6b 09 40
       1.9200326082471229 3.177616863476834
0003a0 1e 0a e4 b5 09 d1 f5 3f e6 ba 70 8d 80 0a fc bf
       1.3635346512898034 -1.7525640034688705
0003b0 4e 2d 4e 28 2c 66 02 40 d7 d7 75 69 27 5f c8 3f
       2.299888911138317 0.19040386819295804
0003c0 4a 1e bf 21 cb 5e fa 3f 66 c6 c8 a1 bc c9 02 40
       1.6481429403519479 2.3485043181797662
0003d0 4e 4e da 23 e4 af 00 c0 5c dc da 9c cb e7 05 c0
       -2.0858843613621394 -2.738181329182721
0003e0 1b d6 eb 20 53 1e fc bf 56 9c 56 9b 31 94 a9 3f
       -1.7574034963594218 0.04995875378818286
0003f0 17 b1 cd 23 83 c9 ff 3f 7f b7 5d 83 a3 22 08 40
       1.9866973303388187 3.016913439080724
000400 f6 26 45 22 9d cf 09 c0 51 a1 36 72 5f 18 de bf
       -3.2263739278176855 -0.47023759988453145
000410 42 78 80 2d 57 4b b4 bf e9 2a eb be ae 0a fa bf
       -0.07927460537800449 -1.6276080568083506
000420 9a 57 87 7b ad 76 f7 bf 1d ae 28 e4 30 ab f2 bf
       -1.4664740395869331 -1.1667946732003494
000430 67 00 81 bf ec 4f 07 40 00 84 c6 e7 22 1c 8f bf
       2.9140257798426776 -0.015190384577012495
000440 da 56 25 18 5f 5e dd bf ab a9 3b 12 f2 bb 9e bf
       -0.4588849769400959 -0.030013830530984425
000450 9d 4c 78 6b 3f 4f ef bf 31 37 21 34 78 e0 09 40
       -0.9784237956067902 3.2346042702328295
000460 cc a9 9b dc e2 08 11 40 01 4a d5 a0 81 74 00 c0
       4.258677908898289 -2.0568878712740575
000470 27 a9 15 62 dd 10 f2 3f 8c 1d 6f 0a 5c 73 d2 bf
       1.1291173774175804 -0.2882909871954886
000480 35 75 bf 83 4a 1c fb bf ba 22 f2 3b 76 2c 07 c0
       -1.6944070001985214 -2.896709888770002
000490 8c 1e 9d b4 cf 30 a1 3f b9 0d 99 7e 7a 87 f1 3f
       0.03357552604444178 1.0955758042554022
0004a0 03 06 1e 9e f1 63 0a c0 59 91 e4 c3 1f cc f9 bf
       -3.2988006928360405 -1.6123349811615155
0004b0 4a 12 24 fa 2f 00 03 40 e2 5b 49 8e 24 ba fc bf
       2.3750915090807085 -1.7954450185841258
0004c0 48 41 37 46 78 fa ee bf 01 f4 f5 a6 7a d1 ba bf
       -0.9680749293711779 -0.10475889755430502
0004d0 b6 4d e7 be 8d 2d 10 40 d0 6b d2 63 96 55 c9 3f
       4.044486029498719 0.1979244220172789
0004e0 9e 58 98 c5 92 b3 d6 3f 66 ad 9b 4f 59 7b fb 3f
       0.35471028610607813 1.7176144704524972
0004f0 0f 49 74 33 72 ce 01 c0 fc 3b b8 dd d5 17 d4 3f
       -2.225803758608101 0.31395479824362815
000500 1b 49 f7 54 64 03 bb bf 5c a5 12 84 a5 a8 f2 3f
       -0.10552050661434402 1.1661734732718605
000510 56 30 70 bb 5b 0a f0 3f 7d 30 e1 6d 57 53 a4 bf
       1.0025288888746409 -0.039698345339815845
000520 61 29 d8 2d 84 fe 04 c0 15 96 9f eb f9 93 02 40
       -2.6242755490867897 2.322254029090582
000530 f7 74 15 86 d2 30 fc bf 99 97 04 a4 2f 9c fb bf
       -1.7619195211075842 -1.725631371207305
000540 db 27 c1 f4 99 08 09 c0 fe 8c 11 25 c6 7b cf 3f
       -3.1291998979040563 0.24596478281009831
000550 bd 40 72 67 54 da e1 3f 46 a6 bb 9c 8e 52 05 c0
       0.5579015751300386 -2.665311073757752
000560 13 98 d2 6b a2 50 f7 bf f0 12 42 e8 1d f3 fc bf
       -1.4571861469098664 -1.809354693659028
000570 b2 0f 11 fe 25 cb e9 3f ba 50 9c 67 29 06 02 c0
       0.8060483896483588 -2.253008660753122
000580 09 40 ab 5e 6f 0b f9 3f 33 9d ed a8 23 57 e1 bf
       1.5652917573934266 -0.541887121141292
000590 ba 51 ba eb 28 45 fc 3f 07 85 22 f3 c0 5b 03 c0
       1.7668847282521782 -2.4198016161832387
0005a0 b5 b8 26 9e ca ef d8 bf 0f a7 1a 44 6c 60 08 c0
       -0.38963571018656334 -3.0470815010675163
0005b0 bf cc eb e2 f2 30 08 40 15 10 67 64 3e 65 09 40
       3.0239007690630326 3.174435409922817
0005c0 50 03 1b f8 03 7a f1 bf 41 6e 1c 81 55 c6 f8 3f
       -1.0922889415380332 1.5484213870430639
0005d0 7f 61 66 27 96 82 fc 3f 93 29 8f 2e d6 75 81 bf
       1.78188147917362 -0.008525536819338686
0005e0 fd 7a 0a 73 b8 23 e6 bf 34 5f b6 5b 7c 91 f8 bf
       -0.6918604132550566 -1.5355189878955118
0005f0 19 51 e0 69 41 92 03 c0 d7 51 bb 52 8e 35 fd 3f
       -2.4464138290005732 1.8255751830775944
000600 20 a4 d1 da 13 73 0c 40 8f 19 f5 be 23 51 ed 3f
       3.556190213701953 0.9161547402989515
000610 a4 9c 24 a5 79 ae f1 bf bb ae 2e ac 13 07 03 c0
       -1.1050964785479573 -2.378455491232527
000620 47 e5 60 23 a3 37 ff 3f 24 9c a0 9b c0 76 00 40
       1.9510833150837514 2.0579845579518565
000630 bd 5d 31 f2 e1 8d f9 3f dd 20 be df e6 7d 09 40
       1.5971393070848159 3.186475513448484
000640 25 92 ec a5 be 2a d3 3f e4 52 c5 f5 48 dd 0a c0
       0.29948393062139395 -3.358049316486687
000650 f0 68 33 d0 8f fc f7 bf 56 0d 85 60 6e e0 08 40
       -1.4991605885357409 3.1095855274776723
000660 e5 14 7d 20 77 8d c0 3f e7 f7 6d f6 87 5d 0a c0
       0.12931717954976488 -3.2956694843587573
000670 72 1d 81 3a a9 62 09 c0 b6 7d 00 b3 b8 8e f9 3f
       -3.1731743403103616 1.597344111658328
000680 f1 2e 56 87 ed 2b 00 c0 79 2b 6c 71 ff 51 00 c0
       -2.021449143712623 -2.0400380002151306
000690 97 5f b1 a9 11 9d e3 3f 0b e4 87 0a 82 fc fe 3f
       0.612923461371781 1.936647454391507
0006a0 ae 7a ec a1 7e 62 ec 3f fc fc b9 ea 99 bb f1 bf
       0.8870232737134154 -1.1083010834698248
0006b0 ab 8f 08 24 c1 4d f3 3f 42 19 c1 07 12 ba 03 c0
       1.206483021503099 -2.4658547025493656
0006c0 10 f1 93 77 6d 1f f9 bf 7a 7e 51 38 49 de fe 3f
       -1.5701727553378682 1.9292690467772489
0006d0 63 17 c4 10 62 e9 d0 3f 2c 4e 6e aa 9e 6d 09 40
       0.26424457204153934 3.1785252871429943
0006e0 0d dd 26 60 6f a0 c3 3f f0 b5 cd 3a 7c 5a b4 3f
       0.15333358950531598 0.07950569568284727
0006f0 3f c5 d0 e3 d5 cd 06 c0 25 09 09 eb e1 d3 a9 bf
       -2.8505056188666056 -0.05044466013034058
000700 b9 6c d5 8c 68 2f f0 bf d6 c8 7a b0 8e 5f f8 bf
       -1.0115743161502861 -1.523329438565772
000710 b3 60 e3 5f fd 18 09 40 26 6a 59 69 4e 9f cd bf
       3.137202023626821 -0.23142414230353942
000720 db 4e bc 00 45 15 08 40 4c 63 b0 74 0f c4 fa 3f
       3.010385518786149 1.6728663023152022
000730 4d 95 89 05 68 25 00 40 4b ae 29 9c 05 12 d8 bf
       2.018264811764914 -0.37609997034335113
000740 e2 5f 9b 3b b5 91 eb 3f 55 38 d0 c0 ed 4a e6 bf
       0.8615366138646972 -0.696646572674363
000750 55 58 14 ee fd 66 f2 bf 67 74 af 83 20 b0 f9 3f
       -1.1501445102672012 1.605499758144356
000760 f8 b8 f6 7a 50 0b e3 bf 6f 18 cf eb c2 77 04 c0
       -0.5951311494480072 -2.5584772512984766
000770 68 fe 81 51 a8 74 e4 3f 63 20 32 87 4c 3c f8 bf
       0.6392404167126644 -1.514721420391674
000780 c8 4a 36 1a 88 04 09 40 8a 39 a0 d8 01 22 09 40
       3.1272127197092665 3.141605083837196
000790 5c 65 15 e9 f5 a0 0d 40 08 a1 cb 09 0d dc 80 3f
       3.703594037023022 0.008232213841850924
0007a0 4e ff d9 c0 c3 07 07 c0 83 4a 79 91 f5 22 f9 3f
       -2.878791338589429 1.57103497338963
0007b0 ec 2a 11 29 fe 12 99 3f 7e 8d 4a 47 7a 19 09 40
       0.02448651433614206 3.1374402589441948
0007c0 95 b9 0e 97 fc 28 09 40 8f e5 39 42 01 07 02 40
       3.1450130273216907 2.2534203695219683
0007d0 f1 5a 0a 75 d7 21 f5 bf b4 ae 34 32 46 5f df bf
       -1.3207621166126808 -0.4901900759020734
0007e0 6a 53 6d 8b 19 5a 03 40 f8 70 cc 28 22 4b f0 bf
       2.418994035028324 -1.018343123788382
0007f0 bb d6 d6 5b c2 6c f3 bf 46 01 1a 1e 67 9f e0 bf
       -1.2140525424451158 -0.5194583499833605
