results/vqe_data/with_params/10q7l/sgd_10q_7l_42/parameters/params_ite1601.npy (npy, 2448 bytes, 1 tensors)

array f8 [290]
0	0xbfe4b4dda366942b	-0.6470783416194811
1	0x4008b29544b8792b	3.0871987694546497
2	0x3ffa6c3a4752cd8e	1.6514227663109042
3	0xbfd0944cdfe65281	-0.25905153145985343
4	0xc002113c1b67c972	-2.258415426354241
5	0xc0023519aab21a86	-2.275927861748019
6	0xc0079222aded2e43	-2.946355208206826
7	0x4006cf984962b6d8	2.8513646825075334
8	0x3f8d5b9c8ec7985d	0.014334891421594326
9	0x3feff68f8cebd0a6	0.9988477470747241
10	0xc00a4d498a8acc1a	-3.28773792491985
11	0x400a074b774557ae	3.2535619085346843
12	0x40056a2bcf048cd8	2.676841370893822
13	0xc0029f5b9d8f8d97	-2.3278114613946843
14	0xc0014e5eea67c53d	-2.163266974727462
15	0xbff557c2290b7d1d	-1.333925400096468
16	0x3fb70953d2ced761	0.08998607536963511
17	0x3fb57e798a8f05af	0.08396110184459958
18	0xbfe5e9a6bd040307	-0.6847718898498848
19	0xbff0caf1eb45eb0b	-1.0495471182209168
20	0x3fe73fe1c801ed1c	0.7265480905911406
21	0xbffa23a608f4fdd1	-1.633703265178941
22	0xbfe29ced97ad66ca	-0.5816562616775738
23	0xbfe40bd282fdb505	-0.6264431532305542
24	0x3fb14ff0d6bb3be4	0.06762604944672962
25	0x3ffcd221d2ff1e21	1.801301788525855
26	0xc0012c6ab1576ff7	-2.146687875252606
27	0xbfcf5674de534769	-0.2448259435246272
28	0x3fd35e1a8be74426	0.30261863386573606
29	0xc002c5210679e909	-2.346254397006423
30	0x3fe89408fc70f1d1	0.7680706911556233
31	0xbffdf43d1ae814e3	-1.8721285868680801
32	0xc000bac3d8c7ad49	-2.09119386062017
33	0x400883376a91d351	3.0640705419304273
34	0x4003bed57dd1f02f	2.46818064019137
35	0x3ffb91b8aa8c3b63	1.7230765020392134
36	0xbff8d0d835837ab3	-1.550987443006005
37	0xc000f98837e2053f	-2.1218418470240574
38	0x3febecb0dff6af11	0.8726429342545733
39	0xbfe6452877359d3c	-0.6959421470936955
40	0xc0012d4198f685c1	-2.147097773574132
41	0xbfd5e8177dd2fde6	-0.3422907570602248
42	0xc00994da71aabfe4	-3.197682273887027
43	0x3ff9828f48eb4df0	1.594374928322278
44	0xc00173289e51d664	-2.1812298172688305
45	0x3fc5f528f3ff3ab9	0.1715441886321594
46	0xbfe5cc01d06ac590	-0.6811532087942158
47	0x3fa97b2003e335a1	0.049767494654229034
48	0xbfafcba431f04108	-0.062100535484320984
49	0xbff83c00abb48fad	-1.5146490771521528
50	0x400dfc78e9fbd960	3.7482775001509907
51	0x3fffa573b75d7073	1.9778935587592315
52	0x400c069ceda5712f	3.5032290044893197
53	0x400bb7d595a15217	3.4647628488403472
54	0x3fa32befe11f498a	0.03744458792756962
55	0x4004d653177c63d7	2.6046506724201026
56	0xc008e1981f1f65d4	-3.1101534301239813
57	0xbfe58f6d489213b5	-0.6737581651110448
58	0xc0092859264d0ad5	-3.1447012893926094
59	0xbff08ff5f9677075	-1.0351466886850436
60	0xbff8e3123a17f6fd	-1.5554373044282663
61	0xbfefb1bfe4e4369e	-0.9904479475532815
62	0x40076a3dce295913	2.926875696789588
63	0xc0009e05c89136f8	-2.077159468585588
64	0xbff96fa305466c21	-1.5897550779398062
65	0xbfe2636407693c19	-0.57463265845752
66	0xc001750c2a999472	-2.182152111827741
67	0x3ff951654687a02d	1.5823719744748914
68	0xc007dc0499a12480	-2.982430649023229
69	0x4008db3c926307f7	3.1070491253349206
70	0x3ff8c3a4e6ff6cea	1.5477646849965887
71	0xbff4fab2ba8484dd	-1.311205605110721
72	0xc001626b966aff96	-2.1730567695048633
73	0x3ff6734577aabb4c	1.4031424211968497
74	0x3fe4b8df9105a3c5	0.6475675423108603
75	0x3ff2dbe8a4ecf8c0	1.178688663712407
76	0x3fe58ca5544fb46b	0.6734186789232245
77	0xc003c9c08d211a52	-2.473511793682783
78	0xbfeae734421860ae	-0.8407231608316772
79	0xc004b9231d28baec	-2.5903990057043895
80	0x3ff7c4aa0c23665d	1.4855137323524084
81	0x3fe7395d70777f42	0.7257525631539254
82	0xbfb12120b2e2390e	-0.06691173903729838
83	0xc0087123155f7b25	-3.055242697693205
84	0xc001c45a4e286258	-2.2208753686975733
85	0xc00090a67c416da8	-2.0706300456492563
86	0x3fe232cdf9212a7e	0.5687017312823881
87	0x3fea294eec29f4cb	0.8175425160003668
88	0x400660461d282b88	2.7970087316402363
89	0x3f7d57813bd3ce4a	0.0071635292235786106
90	0xc00000c14ae108dc	-2.000368676178466
91	0x3ffba3b80762283b	1.7274704254546254
92	0x4000e235e07a7bae	2.110454324472321
93	0x3feef35ece7df761	0.9672082932517975
94	0x3ffbf55a78f5aa5a	1.747400734423215
95	0xbfc578111f462766	-0.16772665049603147
96	0x3fe0b56a60b1690e	0.5221454514060342
97	0xbff5c00f35f37e15	-1.3593895060984142
98	0xc0084adba0fdfb47	-3.0365517213353175
99	0xc006572159ebe0d8	-2.792544081221518
100	0xc006ce056854d00b	-2.8505962515719196
101	0x3f8e0bea954b8d4d	0.014671166115880619
102	0xbfea8343c722be0b	-0.8285235299462682
103	0xbfb071600516bdbe	-0.06422996639479714
104	0x4003c24aae8e6ac4	2.4698690068447338
105	0xbff96e22ded5db60	-1.589388723803232
106	0xbff59ff081dfcbec	-1.3515477250300547
107	0x3fecd26cf33ed2a5	0.9006867171179535
108	0xbffedc83f174e038	-1.9288367683311787
109	0xc008f73eb07af9de	-3.1207250392464934
110	0xbff6a6f9de9877c5	-1.4157656378879306
111	0xbffedb37e624a661	-1.9285201063124975
112	0x3ff95887a8ebdbe7	1.584113750313685
113	0x400442f959df92e0	2.5327021619180954
114	0x3ff977488b79f70a	1.591621918515957
115	0x4008ab895d514c74	3.083758095782793
116	0x3ff57db8573a8e81	1.3431933791515862
117	0xbffcfb0adb75718b	-1.8112896511657677
118	0x4003366ea6dc504b	2.4015782390579594
119	0x3fd55f9c1fd8b39e	0.3339605628014456
120	0x3ffce0d7387984b8	1.80489275036261
121	0x4003645bb2b448bd	2.424003025175891
122	0xc000d8daee58e7e9	-2.1058863278276374
123	0xc00561c34a4c8784	-2.67273576780366
124	0xbff5c5e7a9ec2426	-1.360816634902457
125	0x3fb1f85a3e97a8b5	0.07019580867896276
126	0x4000a9a2e0177003	2.0828301913406917
127	0x400740a310a1ceee	2.90656102174568
128	0xc00aa0c1825b70f7	-3.3284940895229016
129	0xbfdb31d1189f32f2	-0.4249155750701866
130	0xbfc0c68598c20f3c	-0.13105840643776812
131	0xbff8bb9b8a61eec4	-1.5458026319092122
132	0xbff870066ef7ed15	-1.5273498854356309
133	0xbff2feba8d71a263	-1.1871896290923807
134	0x40072c43855b4d68	2.8966131609428665
135	0xbfc37447670ec734	-0.15198605091205197
136	0xbfe1589f3c24d92c	-0.5420681166349701
137	0x3fb5a0df10ca7dc7	0.08448595199523999
138	0xbff0c0a60236143d	-1.0470333181740579
139	0x400cb81c65e0bf7a	3.5898979148113854
140	0x4010ecd45d2614aa	4.231278853844893
141	0xc0008df11f11ee68	-2.069307558760375
142	0x3ff1ddf366be3acb	1.116687203731703
143	0xbfd1516601b745b1	-0.27059316794938143
144	0xbff8a2e0e6cc924b	-1.5397652640905501
145	0xc0072faf97686da5	-2.898284132837676
146	0x3fa08affeb97056c	0.03231048346379847
147	0x3feb30e8a78bb157	0.8497203132988415
148	0xc00a85ba3e9f13ac	-3.3152966396614456
149	0xbff71171159fd68c	-1.4417582363798003
150	0x400318e1186894af	2.387148085300019
151	0xbffc1816d11f168a	-1.7558811348730239
152	0xbff166210ea4d91f	-1.0874338695553616
153	0xbfd4030dbea3077b	-0.31268638245466435
154	0x400ecb41b54a8816	3.8492464221353755
155	0x3f905d62e74d1db1	0.015981240623003937
156	0x3fd9529d42a95593	0.39566737661274337
157	0x3ffb8af67ef7f182	1.7214264831264647
158	0xc00191baf5b4213d	-2.1961573787304176
159	0x3fd8f8e516049e4a	0.39019133711051224
160	0xbfb84bf4bb8ba7d1	-0.09490899637935903
161	0x3ff24f3c50c67c24	1.144344630745544
162	0x3ff2600af0f0a07f	1.1484479343144185
163	0xbfa3c074b24604d2	-0.038577696573165135
164	0xc004ee8249c3e6c2	-2.6164594424161303
165	0x40032a95850b5153	2.395792998702896
166	0xbffbfbe8d97320a2	-1.7490013593797262
167	0xbffd293827215c35	-1.822563317158495
168	0xc0098913ffdfdfa1	-3.1919326772876535
169	0x3fd00ef976a59d16	0.2509139689122589
170	0x3fe4d545d0cdb470	0.6510342672533067
171	0xc005852b01988a5b	-2.690023434131303
172	0xbff5b1460906e7c0	-1.355779681455246
173	0xbffb9801d9ce68bb	-1.724611140065959
174	0x3fec68cf74db34d1	0.8877942354535212
175	0xc002123d24ef6267	-2.2589056859545056
176	0x3ffa174cb8dfe3a6	1.6306884023344792
177	0xbfe0a7046da8b84b	-0.5203878537920529
178	0x3ffc80927bb59ae1	1.7813896973036025
179	0xc005c080cf10a81f	-2.718995683379958
180	0xbfd7ce8d1b7e263a	-0.3719818848117914
181	0xc0083b6b46e42653	-3.029013208234383
182	0x4008588dd42738fc	3.043239266821841
183	0x40095c8ae428dce6	3.1701867890329707
184	0xbff4db841820ea1d	-1.3035927717707019
185	0x3ff847c1bce7a051	1.5175187472432479
186	0x3ffc44407ef0ae5c	1.7666630705451984
187	0xbf990a73dbb990e0	-0.024453935895864087
188	0xbfe34e14ff55fd20	-0.6032814967183278
189	0xbff88f89e2d4181d	-1.5350436077583318
190	0xc0023df71e209987	-2.280256495828499
191	0x3fff811cc936c5f5	1.9690215930862653
192	0x400bd69bc1dcdd5d	3.47978927092815
193	0x3fecd1cbeb89332e	0.9006099319754861
194	0xbff2a634e0c8d9d6	-1.1655777722022456
195	0xc000900008edcdec	-2.070312566525663
196	0x40002215eaa7cc4b	2.016643365140714
197	0x4000a62b15ecea59	2.0811368668485497
198	0x3ffacd8a81de7b1e	1.6751809189806361
199	0x40090ddca6351a10	3.131768511291064
200	0x3fd4e7e81ea7c4fd	0.32665446275412063
201	0xc00b441ef7e99224	-3.4082621925501986
202	0xbff7e88b4d900d21	-1.4942734746735555
203	0x4008c8fdb82acf5c	3.0981401813568663
204	0x3fb73189b7f96670	0.09059963933523263
205	0xc00a88028886f210	-3.3164110819036594
206	0xc009319df12c94f6	-3.149227031872779
207	0x3ff923ab13c1bf09	1.5712080737829999
208	0xc002ab7a2b1aee9b	-2.3337291114419947
209	0xc00023b60b610b6e	-2.0174370659819294
210	0x3fdcc3e1763aa505	0.4494556097584595
211	0x3fff9c8cb7c0a6a1	1.975720136435861
212	0x3fee02a43c55bced	0.9378224543014803
213	0xbff621c42d92d35d	-1.3832437305656733
214	0x3ff33ffd3f2f1a0b	1.20312237435576
215	0xc00254d9420ac942	-2.2914300117055584
216	0xbff72de1fdff3e3d	-1.4487018510589131
217	0x3fff8195fc16b256	1.969137177201579
218	0x3fc7ef2c9e3090d1	0.1869865200434391
219	0x400937eda377aec6	3.152308728303839
220	0x3fc48f27755647f8	0.16061871747348255
221	0x3fb3f52c47774ebb	0.07795979256416789
222	0xc006c347a8ca592e	-2.8453515230895823
223	0xbfa5a7adc5117607	-0.042294912630250585
224	0xbff215b20afd0b67	-1.130296748088506
225	0xbff8411c0071e8ea	-1.5158958451634654
226	0x4009257caa043070	3.1433041842010923
227	0xbfce3801613ac6ff	-0.23608414886034976
228	0x40082f39b3327b24	3.023059272745188
229	0x3ff813578b3cd19d	1.5047221602409089
230	0x40008277f003ce53	2.063705325237416
231	0xbfd758bc8125ada5	-0.36479103672055607
232	0x3feb952225e62487	0.8619547596182578
233	0xbfe2692d9c0ce466	-0.5753391311510654
234	0xbff7769cd0649612	-1.4664581432674635
235	0x3ff9e225dcaf6e02	1.617711889316411
236	0xbfe6df559c07d21a	-0.7147625014754937
237	0xc004da70430412de	-2.6066594348543353
238	0x3fe3c5db3ceff376	0.6179023924047289
239	0xbff92d9fb9a81d5a	-1.573638653966404
240	0x400901a5f890b502	3.125804845729932
241	0x400928fc21eb3ac0	3.1450121545707077
242	0x400d21e697e6bd04	3.6415531031885866
243	0x3f9100a5fd7248e3	0.01660403594412053
244	0xc006bfa9d8a1dac0	-2.84358567470494
245	0x3ff8ed24ea7e49bf	1.5578965339560538
246	0x3f8d92194be394a5	0.014438817623565756
247	0x40091d008a62fb27	3.1391611873108505
248	0x4009298944918dda	3.145281348888358
249	0x4002ec4d4e8e2ea3	2.365381826128059
250	0xbff5703326b421ba	-1.33989253157243
251	0xbfe008034a24eac6	-0.5009781311158228
252	0x4002764208a7bf42	2.3077431369964936
253	0xbff0126ac8346c9c	-1.004496366548472
254	0xbff819c24a1de67a	-1.5062888045489715
255	0xbfdc40a7716012a1	-0.4414461714916716
