results/vqe_data/with_params/10q7l/sgd_10q_7l_42/parameters/params_ite649.npy (npy, 2448 bytes, 1 tensors)

array f8 [290]
0	0xbfe641c95defed19	-0.6955305895529903
1	0x40088005f7214c07	3.062511378005641
2	0x3ffe4705ad1f83f2	1.8923393976804133
3	0x3f62111cc4ed7748	0.002205425443590512
4	0xc003eb907d2e12df	-2.490021684616621
5	0xc0046dcc2630eafd	-2.5536120399168554
6	0xc007bfdc9801f015	-2.9686824679938675
7	0x4006d9254ac60da0	2.8560281602564856
8	0x3fa79efc5ed19857	0.04613484055953226
9	0x3ff1591a445d7e70	1.0842535658374821
10	0xc00a017f76ea649d	-3.2507314005166124
11	0x400baffb8ddbc24e	3.460929020184529
12	0x4006a8ea7ffbba5b	2.8324785231300615
13	0xbff91053cb2485ef	-1.5664861617336745
14	0xc002d0b7d4a3b61b	-2.3519131290875186
15	0xbff3834c5a0f5a08	-1.2195552366225701
16	0xbfdc0a37510e33f7	-0.4381235400731493
17	0x3fb8748e8896516e	0.09552851519248914
18	0xbfe06aef4ed681a2	-0.5130535640528715
19	0xbfef67a4a26930c1	-0.9814017459953207
20	0x3fe7013ecdcd9dca	0.7189020175546201
21	0xc000e8769a1a0d18	-2.113507465286272
22	0xbfea668eeb027158	-0.8250193204908483
23	0xbfd78076b2770369	-0.3672157996007202
24	0x3fcbdd8070dd1a53	0.21769719611093538
25	0x3ff7a1a023315074	1.4769593596184025
26	0xc001b20ed494ed17	-2.211942349238267
27	0xbfcbf00fd1dbcfd9	-0.21826360461238783
28	0x3fda7c5384001713	0.4138382710519732
29	0xc0035bc34586095d	-2.4198060447244374
30	0x3fe03d4a62309b0a	0.5074817579050841
31	0xc001ad68acf52494	-2.209672309142272
32	0xbffececc3e4709ef	-1.925487750312296
33	0x400691736c508b2a	2.8210209333496055
34	0x4004bcd9b261c5cf	2.5922120987022264
35	0x3ffc735b30b8a935	1.778163137738898
36	0xbff9d0d98678f573	-1.6134886982757422
37	0xc0037fe69cc4bbdd	-2.4374515769518283
38	0x3fed9bf1f2d38655	0.9252862684917981
39	0xbfe5cdfe39b00597	-0.6813956381521845
40	0xc0021a1c809aa2ee	-2.262749676436548
41	0xbfba52acb6bd0925	-0.1028240152491305
42	0xc0076126495afa99	-2.922436307038265
43	0x40025cb4a345df10	2.295266414232067
44	0xc00134d7800e55ee	-2.150801659047594
45	0x3fe2a0e76fd90b3c	0.5821416077163586
46	0xbfe57fb58f7b1b02	-0.6718395044671015
47	0xbfa45c8d7d0831bd	-0.039768620979973225
48	0x3fb4e2a0ef3d6c04	0.08158307877367582
49	0xbff7c81e37891516	-1.4863569421152696
50	0x400c73839f2734c2	3.5564033922042606
51	0x3ffaa154c84d39b5	1.6643874954494156
52	0x4006e611877b7c42	2.862338121849036
53	0x400764494ec26a0c	2.923967948253681
54	0x3fe82c846bcefd45	0.7554342370639594
55	0x4006b46c2785c490	2.838096913118143
56	0xc0098c03623920c9	-3.1933658288654425
57	0xbff37b4c9a7002a2	-1.217602351447717
58	0xc008b82781642039	-3.089919100635623
59	0xbfef38a01cdcdcee	-0.9756622852063666
60	0xbff2a8366e8e065b	-1.166067535261752
61	0xbfe7d4aaa3c6d4eb	-0.744710273624745
62	0x4005b998e700cd6b	2.7156236693496587
63	0xbfed9b12d9386ed9	-0.9251798861109491
64	0xbff3f2f9b0ce57f4	-1.2468201548085718
65	0xbfbcaae37e13db25	-0.11198255374970907
66	0xc000471eb93d4f9c	-2.034726569350779
67	0x4000dfefe253d88e	2.1093442613446944
68	0xc008464f21de281b	-3.0343306203767617
69	0x4008b0403494464e	3.0860599620580507
70	0x3ff18757b5608aa4	1.095542629722936
71	0xbff3d89524f51cca	-1.240376610150451
72	0xc00792b913dc6116	-2.9466420699719817
73	0x3ffa6733ff2d7453	1.6501960723756113
74	0x3fe175f14987358f	0.5456472812744994
75	0x3ff74958f6e9e35c	1.4554071087897773
76	0x3fe4a114785ba763	0.6446630812399515
77	0xc006e67837359aa8	-2.8625339806779557
78	0xbfe8c9dc964ecf1e	-0.7746413169574884
79	0xc005a561e02d1722	-2.705753089309739
80	0x3ff9feb8a18da1e1	1.6246877966569786
81	0x3fe9d38c576f132a	0.8070737559979524
82	0xbfdd0b073ef35219	-0.45379811427599887
83	0xc00726e3ff3eb4b9	-2.893989557362684
84	0xbff9e1898e775e30	-1.617562824734602
85	0xc00029c99b0b6c14	-2.020404063497617
86	0x3febbde7beb0f5bd	0.8669317936361761
87	0x3fec7eb231cb89cc	0.8904658291397083
88	0x40069d7eb20cb235	2.8269018087505864
89	0xbfb055669a17bfda	-0.06380311262159868
90	0xbffacb1e3d55ca40	-1.6745893855956098
91	0x3ff9f353fd584444	1.6219062706261562
92	0x3ff704a8bbdd9ef0	1.4386374796394499
93	0x3fd761cea77ae683	0.36534468036152407
94	0x3ff8bbebf9bf5fba	1.545879340721497
95	0xbfc9875583eee72c	-0.1994425672726775
96	0x3fdca86a45a9574b	0.44777924349670134
97	0xbff12c09dcc4f4fb	-1.0732515929988142
98	0xc00878fca1651250	-3.0590756043405136
99	0xc007103c28c9a408	-2.8829272448097107
100	0xc00158745cbd0970	-2.168190693396518
101	0xbfaf241e238e4a50	-0.060822431412039024
102	0xbff382ab2fbc7830	-1.2194015373893414
103	0x3fbca995088cf191	0.11196261843446666
104	0x400361aea1f1e3b2	2.4226963664954946
105	0xbff59a58f089c6e1	-1.3501824756644327
106	0xbff14c15482ef2ab	-1.0810749835647282
107	0x3ff6b95ee8ae5b5b	1.4202565278153176
108	0xbffb7fb3c8330d3a	-1.718677312878596
109	0xc0093c659e220dba	-3.154490695394739
110	0xbff7b02a9946d23f	-1.48050937532129
111	0xc000dfd72d7acb74	-2.109297137555979
112	0x40023caa9e3eecdf	2.279622303290679
113	0x3ffe74b78a516d2c	1.9034953501748744
114	0x3ff015cc99adcb3e	1.0053220751839969
115	0x4005d3f054547b45	2.728485735729381
116	0x3ff752ca463d7b86	1.4577124351269233
117	0xbffc46dc5b93d8e9	-1.767299993252488
118	0x400258cea2d11748	2.2933628768977634
119	0x3fe2944fca2dd3ac	0.5806044529732524
120	0x3ff7f015559adbf1	1.496114096063817
121	0x40074ca7cfed9546	2.9124294514064415
122	0xbff5fb45398e7652	-1.3738453148174767
123	0xc0047afc57c436c6	-2.5600516182665585
124	0xbff7778a9674febb	-1.4666849019267107
125	0x3fc0d256b3348f2b	0.1314190268541265
126	0x400463ba3208fea2	2.548694983386512
127	0x400666ce4084edb9	2.800198082024249
128	0xc00ae4ca141f5b2b	-3.3617135593480234
129	0xbfd5728123287e1e	-0.3351137965528056
130	0x3fca837f4753a2fa	0.2071379755282335
131	0xbffe8824dc7e357f	-1.9082382786758385
132	0xbffc1d9fe1eedac5	-1.7572325540074172
133	0xbfee5f0664ee6f51	-0.9490997287098059
134	0x400448e0bee14821	2.5355849182606254
135	0xbff0735a63cf071c	-1.0281623743798667
136	0xbfe931426560072c	-0.7872631053907972
137	0x3fe9d26006bd4ec8	0.8069305545454535
138	0xbfe8835eb831d009	-0.7660363767195132
139	0x400d9ff90270a769	3.703111666739393
140	0x40075988d6b43a63	2.9187180303336375
141	0xc000a5bdad304f08	-2.0809281854980135
142	0x3fd8d6cc79cd361b	0.3881102742642228
143	0xbfd78ec53ea2ab45	-0.3680890189813691
144	0xbff83404bd54f8db	-1.5126998325136387
145	0xc00640ffd5bb78c5	-2.7817379663311805
146	0x3fc093de19dd7b8c	0.12951256049106197
147	0x3fe12fce04a4f286	0.5370855417928204
148	0xc009fd07c1bfe27d	-3.2485499512370652
149	0xbfe6b9118b2d73ff	-0.7100913732825801
150	0x4000c2849f9408ce	2.094979521470214
151	0xbffcf84376da86b1	-1.8106112139434283
152	0xbfff0a6467398e1e	-1.940037158224079
153	0xbfe29fc268cde765	-0.5820018813094349
154	0x400fbc3bce48eb4f	3.966910945511166
155	0xbff20ed46e710e56	-1.1286205591321923
156	0x3fe2a494de1359c2	0.5825905167974315
157	0x3ffcbb8592fce2ed	1.7957816831314475
158	0xbffe11f06a2547e9	-1.8793796678842176
159	0x3fe671d1a6781006	0.7013939143512296
160	0xbfc982479afefc76	-0.1992883211914635
161	0x3ff521d3afedbccc	1.3207585212910997
162	0x3ff3a2661b513eda	1.2271481577953893
163	0xbfa93b083fd8d247	-0.04927850512868708
164	0xbffe91ec7cd27921	-1.9106259227624565
165	0x4006e6b773213521	2.86265459008304
166	0xbff2eff198b2874a	-1.1835800137273105
167	0xc0000e8fe2d4c689	-2.00711037837829
168	0xc00a84cf99d4422a	-3.3148490922833576
169	0x3fd1aae5b9894284	0.2760557472111389
170	0x3ff5b57f4b40c294	1.356810850102339
171	0xc007352069d385d2	-2.9009407298733345
172	0xbff0237167494364	-1.0086530718437752
173	0xbffed1e1946264e7	-1.926240520120979
174	0x3ff36ebc8dfe4500	1.2145352884875251
175	0xc001bb00d060acb0	-2.216310146284364
176	0x3ff795b9407b8c2d	1.474053623089968
177	0xbfe255ee2ce3d619	-0.5729895474202663
178	0x3ffc52a1315b17d3	1.7701732566797446
179	0xc006ed7234d2a0c0	-2.865940487554411
180	0xbfdf76172b8e018d	-0.4915826726283051
181	0xc005a2944007ed33	-2.7043843271655077
182	0x4003452faf2b9869	2.4087823567561384
183	0x40088580e859f308	3.065187278027569
184	0xbff4d3fdf6e1d90c	-1.3017558711849828
185	0x3ff19d1f9ab42306	1.1008602183448501
186	0x3fff53ae34977c4a	1.9579298071255544
187	0x3fba7c6d8baa7bd3	0.103461119268544
188	0xbfd4eaa27e935910	-0.3268209682550074
189	0xbff95e832ed1a955	-1.5855743244997786
190	0xc002c7a01db3539b	-2.347473365817178
191	0x400280c0affd8d80	2.3128675221684603
192	0x400a20a1f1905e88	3.265933882921505
193	0x3fd82a08a21340c4	0.3775655348554319
194	0xbfef608861fce5df	-0.9805337823701697
195	0xbff88b4042b3b36c	-1.5339968305154015
196	0x3ffcf63e4ed12edc	1.8101180151742744
197	0x400190dde18766f6	2.1957357043692083
198	0x3fff005fb29f3a9e	1.9375912644788182
199	0x400407fca989bc91	2.503899883762252
200	0x3fd494f1326bfede	0.3215907089615778
201	0xc00948d15bb74e2d	-3.1605555692019807
202	0xbffe29fca039a9e0	-1.8852506884382976
203	0x4008e46e2e1d9855	3.111538276937646
204	0x3fd2da2c224f26fc	0.29456618643290233
205	0xc00b2c24c11dd67c	-3.3965544783812316
206	0xc008dc239fbee140	-3.107489822399799
207	0x3ff8b9a08a198b07	1.5453191179773869
208	0xc00527f7dfd48570	-2.64451575152696
209	0xc001db1c9fb4bb5f	-2.2319881894140248
210	0x3fdce04247147086	0.45118767682448213
211	0x3ffda6a4346c7201	1.8531839416310734
212	0x3fe8de94cbf5715a	0.7771705611772106
213	0xbfff03fbe01b853b	-1.9384726289939198
214	0x3ff01ca63ffe5e08	1.0069944858313438
215	0xbff981997b2c64e1	-1.5941405116521354
216	0xbff66393850630f3	-1.3993106075532153
217	0x3ffeaeb8f171b799	1.9176568442739834
218	0x3fe6ff2068f6accd	0.7186433839864549
219	0x4005206d4af999b3	2.640833459608268
220	0x3fbbff91911ba7ec	0.1093684176700262
221	0x3fb4a785fd9d0844	0.0806812042401655
222	0xc00171594a482ffc	-2.1803460887222155
223	0xbfa3152396cc8bf2	-0.037270652921755146
224	0xbff4ec33416e8f69	-1.3076660686428687
225	0xbff54a8f3215df44	-1.3307029682600424
226	0x400949cc74f0bc07	3.1610345016447385
227	0xbfc9ca2571c00ddd	-0.20148151449403331
228	0x4008371bea9b95c4	3.0269087151270657
229	0x3feaca4b249e2e01	0.8371940341179994
230	0x400175c868e0d5bb	2.182511157380501
231	0xbfd0a8fc97d9cb4f	-0.26031412915397295
232	0x3fe85f4abdf48610	0.7616323194562842
233	0xbfe50aa2d09b450f	-0.6575483393045561
234	0xbffc4b6b2637567e	-1.7684127323931587
235	0x3ff94f4d370f62d0	1.5818607474122253
236	0xbff1fc46a43a6353	-1.1240908064994144
237	0xc005bb0b1ee5182c	-2.716329804769904
238	0x3fedc712b37e4dd5	0.9305509095888121
239	0xbffe369aa72b716b	-1.8883310823503858
240	0x400979918c4841aa	3.1843596419859823
241	0x4009cfc55192a201	3.2264505741952694
242	0x400aad74d60e0e54	3.3346955035247365
243	0xbf9f2c20c2dd3b2e	-0.030441772359434065
244	0xc00602587d4915aa	-2.7511453426293047
245	0x3ffafbb9604ca5cb	1.6864560853667736
246	0x3f9ebb5aefb89c6e	0.030011578446785973
247	0x4008f5aba44282d5	3.1199562866971555
248	0x40090d462360a1cd	3.13148143423698
249	0x4004ef719d5ef557	2.6169159216503135
250	0xbff736bfb44c5946	-1.4508664172077075
251	0xbfe7448555cc9643	-0.7271143604054447
252	0x3fff3269d4005e37	1.9498079568201214
253	0xbff632004ea6aad6	-1.387207324247972
254	0xbffdb3a60b4c600f	-1.8563595239011226
255	0x3f82f061148feb77	0.009247549476631296
