results/vqe_data/with_params/10q7l/sgd_10q_7l_42/parameters/params_ite318.npy (npy, 2448 bytes, 1 tensors)

array f8 [290]
000000 c3 e1 d0 1a 53 d3 e5 bf 4e 51 bc b8 04 79 08 40
       -0.6820464633702205 3.0590910370321245
000010 34 d9 3c 86 fe 46 fe 3f a0 6d 18 70 d0 77 a2 3f
       1.8923325771007287 0.036070359881900105
000020 7b 60 db 6d 83 83 02 c0 74 b4 9a 9a 28 29 05 c0
       -2.314215524918891 -2.6450969770872295
000030 83 f1 dd 85 27 60 08 c0 9a af a9 79 f5 ed 06 40
       -3.0469503839833023 2.8661908631238022
000040 af d6 ab e7 95 14 a3 3f 4c 37 25 84 10 f6 f0 3f
       0.03726643040674326 1.060074344818946
000050 4d ff d3 65 06 a3 09 c0 ec bf 98 3e 2c a5 0c 40
       -3.2046020465203697 3.580650795971442
000060 a7 86 45 f3 42 6a 06 40 31 d5 21 42 0f eb f9 bf
       2.801885510024323 -1.6198875983512375
000070 86 b5 da 5a b0 3c 03 c0 2a ed b7 01 e0 68 f6 bf
       -2.4046332452769006 -1.400604254448647
000080 b1 66 81 3c 15 50 e6 bf 9e 56 f1 f3 de bb 66 3f
       -0.6972757512805484 0.0027751307057240623
000090 b1 0b ae 20 38 02 dd bf f1 70 92 e5 c6 e5 ee bf
       -0.45326045218842653 -0.9655489429310632
0000a0 2f 45 07 1f 78 e4 e6 3f 02 31 34 9c f1 bd 02 c0
       0.715389309503882 -2.3427459910800517
0000b0 3a 3b 17 ae 41 ab eb bf 8c 0c d8 27 e1 74 d1 bf
       -0.8646553421220695 -0.27275875941286
0000c0 30 e5 1c 86 7b ff b3 3f fb 2b d0 42 48 19 f6 3f
       0.07811710380783121 1.3811724290742393
0000d0 3b 24 f5 72 18 8c 01 c0 ef 5c 17 97 59 54 cb bf
       -2.193406007867933 -0.2135116565466215
0000e0 51 f6 e8 bb f5 e6 d0 3f 9e 6b f3 7e 1c e2 03 c0
       0.2640966734942128 -2.4854059141193394
0000f0 42 00 64 6b 60 cc d6 3f dd 50 36 13 1c ce 03 c0
       0.3562241600739108 -2.47563948640355
000100 da 03 b2 c1 f3 39 00 c0 7a 45 c1 43 0e b4 04 40
       -2.0282969601107483 2.587917832694697
000110 b3 ef f8 9d 3b 51 06 40 53 ea 2a 1d bd 77 fa 3f
       2.7896644918054903 1.6542330874787197
000120 6c 6b a6 a7 aa e2 f9 bf 56 5b 54 4f 67 ed 04 c0
       -1.617838530428993 -2.6159197042101523
000130 58 63 ff 3b 5f 8a ee 3f e1 33 0b c2 cf 09 e6 bf
       0.9543911144092858 -0.688697699538917
000140 0c 3f 38 0d fd b1 03 c0 89 8d eb 5c e8 e6 b3 bf
       -2.4619084389486314 -0.0777421213966162
000150 07 7d 88 e2 ce d2 05 c0 f8 0c 2e ac ee e7 02 40
       -2.727933664121909 2.3632482005647226
000160 5d 71 3a ee f9 5c 00 c0 b1 8a c8 56 94 f2 e6 3f
       -2.0453985797486625 0.7171117491710303
000170 f2 c0 b6 20 73 ca e5 bf 58 67 c4 8c dd 98 91 bf
       -0.6809631003325463 -0.017184697834728396
000180 a0 ad 52 33 e8 12 a1 bf fb 33 68 2b 09 f3 f7 bf
       -0.03334737421513556 -1.4968349166476844
000190 99 ef 72 b4 ae 1a 0b 40 4d eb 23 24 99 fd f6 3f
       3.3880285356116926 1.4369136249285532
0001a0 6d fe 13 9a 5a 3e 06 40 37 c0 5f 53 30 a7 06 40
       2.7804462468482627 2.8316351426692807
0001b0 1e 17 61 b6 1c d7 e6 3f 33 ed fb f5 c0 f2 06 40
       0.7137588083357718 2.868532106161774
0001c0 f2 9b 97 07 a4 ee 08 c0 77 e3 f5 e7 91 81 f7 bf
       -3.1165237992422528 -1.469133287521087
0001d0 57 6d aa fb a3 70 08 c0 1f 26 9f 31 21 a2 ee bf
       -3.05500027288296 -0.9572912186787937
0001e0 d6 3f c4 08 f6 b3 f0 bf a8 53 6f 6d af f4 eb bf
       -1.0439358084149624 -0.8736188065910158
0001f0 3d 8a 55 bd 6c d5 05 40 b0 00 c5 bc 21 37 e4 bf
       2.729211310551618 -0.631729954424392
000200 1d b4 ab 9d 42 3e f2 bf 5b 3f 27 e4 6f 84 d0 3f
       -1.1402002486240754 0.2580833175716088
000210 3d b3 93 53 de 92 00 c0 c1 9b f2 b8 9e e2 00 40
       -2.071713116593314 2.1106543015516483
000220 3b 7a 30 42 5c 84 07 c0 5d b1 93 84 a8 a7 08 40
       -2.939629094223418 3.0818643910953782
000230 1b 28 5d b3 cc 9c f5 3f 83 68 90 11 b7 ac f4 bf
       1.3507811552431181 -1.292166775331254
000240 4e 3c 4c c0 f5 fb 07 c0 52 51 fd 81 1e f9 fe 3f
       -2.9980273268952606 1.9358201101031978
000250 6e c5 a6 a1 76 40 e8 3f 7f 9f 0e 37 80 e5 f7 3f
       0.7578690678839572 1.4935304785412595
000260 04 fc c3 6c d1 0e f1 3f 0b 34 30 2d 9e 65 07 c0
       1.06611769186543 -2.9246181040130117
000270 31 0e b0 30 30 b5 e9 bf be 8a 15 b7 17 f3 05 c0
       -0.8033677054340328 -2.7436975768517575
000280 57 d4 75 4f 90 c0 fc 3f cd c8 0e d7 82 45 e9 3f
       1.7970126251141403 0.789735240969344
000290 e9 2b ce a3 ed 2a db bf da a3 a2 b3 99 4b 07 c0
       -0.42449513432137437 -2.9119142564781955
0002a0 9e 51 91 87 86 be f7 bf f3 15 66 9d a1 f2 fd bf
       -1.4840150161372558 -1.8717361591710613
0002b0 c3 cc 61 fc 85 3f f1 3f 0a b1 71 4b da f8 ec 3f
       1.0780086382554124 0.9053775285260894
0002c0 66 11 ba 80 64 d0 03 40 aa 69 31 9c 72 89 a5 bf
       2.476754193952888 -0.04206426769879397
0002d0 93 13 bc df 17 76 fd bf 11 82 12 34 f2 3b f9 3f
       -1.8413313617358866 1.5771352800439937
0002e0 74 87 e5 c6 49 b3 f4 3f d5 79 ee b1 68 c6 df 3f
       1.293771531047665 0.49648492218139256
0002f0 ee 33 0b c8 99 97 f9 3f 3e 45 d8 c8 ab b8 d7 bf
       1.5995118917664928 -0.3706464253783287
000300 82 7f 36 41 33 0a d3 3f 10 a6 31 28 60 8d e9 bf
       0.2974975716442644 -0.7985077652967352
000310 31 34 69 69 53 a0 08 c0 9c 2f a1 41 98 0e 07 c0
       -3.078284095309322 -2.8821263434710556
000320 77 34 75 5e c5 93 02 c0 75 6a 3d 73 21 51 c0 3f
       -2.322153795196353 0.127475911397443
000330 29 ad 55 39 23 27 f3 bf c3 9c 1f a5 37 cc c0 3f
       -1.197055076564377 0.13123221934004023
000340 6b 55 b3 b6 a1 0b 04 40 c2 d2 fe 34 48 b0 f1 bf
       2.505679538104848 -1.1055376119740434
000350 eb 40 a7 b6 f0 2e f0 bf 61 85 14 01 38 a5 f6 3f
       -1.0114600310226318 1.415336612910629
000360 3e 42 e9 aa d7 cd f7 bf f5 0b ec 04 f1 7b 09 c0
       -1.4877545047967398 -3.1855183014426935
000370 34 ae d8 92 ff f5 f5 bf 6e a7 7d 60 7b 14 01 c0
       -1.3725581871211832 -2.1350009477945866
000380 6a c6 d7 1b 5f bc 01 40 9f 76 50 82 36 7f 00 40
       2.216978280565674 2.0621156864934416
000390 cc 1e 04 5a 6b 6a f0 3f 2f 1a c8 72 9f 12 05 40
       1.0259812847379406 2.634093186122548
0003a0 65 af 55 2f 50 56 fd 3f 0e 3f a6 01 7b 45 fd bf
       1.8335725640308393 -1.8294630112104104
0003b0 4a f8 18 fa cb aa 02 40 ec 67 ba fd 86 47 e4 3f
       2.3333968676443293 0.6337313609722037
0003c0 57 1d f4 32 f2 1b f7 3f b0 50 75 2f d7 93 07 40
       1.4443227758764203 2.947187777297664
0003d0 2a f2 d3 d4 76 3f f0 bf 71 83 9b bc 84 1a 05 c0
       -1.0154941857900988 -2.6379484877547204
0003e0 5d fc 01 cc 74 07 f2 bf f4 28 2f b4 20 75 b4 bf
       -1.1268203705838211 -0.07991222762135292
0003f0 58 e4 5c e1 8a 14 04 40 07 e7 11 55 f5 c8 06 40
       2.5100305181954745 2.8481241842354197
000400 41 f3 e4 ab cc 32 0a c0 7a 85 d9 98 e6 55 ca bf
       -3.274804442333704 -0.20574648345340646
000410 71 42 50 20 b9 3b c3 3f 50 66 ee 1a b8 4a fb bf
       0.15026010587509434 -1.7057419826509381
000420 a2 e6 e4 e5 96 89 fe bf 2b b1 98 05 f9 c9 ed bf
       -1.908591173194886 -0.9309048756890993
000430 a2 c0 db c5 ce 55 04 40 7c 37 a2 b6 4f 28 f2 bf
       2.5418982942283757 -1.1348416456343946
000440 b1 da e6 5c ab b6 e5 bf b5 6e 17 58 70 a7 ef 3f
       -0.6785485090720923 0.9891893120324854
000450 a3 af ab 1f 8b 93 e9 bf 4f 1b 21 f6 e7 ff 0a 40
       -0.7992606752936705 3.3749541500905376
000460 64 f2 00 9b 24 ab 06 40 9d 20 19 b1 83 0c 01 c0
       2.8335659131683304 -2.1311105571549676
000470 f9 da 1a d5 5a 25 d4 3f cc 57 de 5a 4a 67 d7 bf
       0.31477995692277677 -0.3656793486965142
000480 9a 80 29 77 f8 3e f7 bf 4c e5 e5 fb 47 31 04 c0
       -1.452873673893953 -2.5240630797895047
000490 3f 8e cf bc 5e 25 c6 3f 27 52 e8 40 66 7b dc 3f
       0.1730154439857063 0.4450317033636417
0004a0 e4 c0 28 d1 de 5c 09 c0 ce a7 42 96 f4 39 e2 bf
       -3.1703468647539115 -0.5695746359608564
0004b0 50 0c 1e 1c 06 ce 00 40 23 5d e4 82 9b 72 fd bf
       2.1005975910825683 -1.8404803383799127
0004c0 a7 8f c6 25 6f 1b 00 c0 6f b7 e6 c1 e9 17 e2 bf
       -2.013395590898614 -0.5654190814145589
0004d0 ec 75 e5 b4 6d d7 0e 40 60 e7 7f 99 bd 15 f2 bf
       3.8551897175336673 -1.1303077694014618
0004e0 63 e2 29 00 12 08 ed 3f d6 4f 9e 59 6d 55 fb 3f
       0.9072351458735962 1.7083562374800656
0004f0 23 da ce 2e 8f 20 fe bf ea ef 8b 01 ca fb eb 3f
       -1.882949049800694 0.8744859724242791
000500 8a eb 17 fc 59 9d d8 bf 7f e5 4d d2 cf d1 f1 3f
       -0.38460397356509957 1.1137235846530016
000510 9a c1 95 fe 58 f8 f5 3f 28 d3 79 bc f0 3f ac bf
       1.37313174674282 -0.05517532635432182
000520 59 b1 95 b8 68 27 fc bf 08 b3 06 b6 f9 55 04 40
       -1.7596213541356376 2.5419801922602154
000530 78 e1 5b 1d 34 7f f2 bf a8 e0 8c a0 aa 88 00 c0
       -1.1560555598099125 -2.0667316954605504
000540 a3 e9 a1 da ed 32 0b c0 04 6c 62 57 a5 1b c5 3f
       -3.399867733064825 0.16490618483371133
000550 bf 19 6a 8b f0 3b f2 3f 3e 82 a7 b9 e4 d3 05 c0
       1.1396336980702555 -2.728463602470838
000560 3d 94 7b de e5 1b ea bf 81 bf ce be 81 04 00 c0
       -0.8159055085531076 -2.0022005946011068
000570 20 49 36 69 86 11 f0 3f e6 2e 60 ba 63 17 00 c0
       1.0042785749288399 -2.011420684871939
000580 53 64 b4 e6 a6 67 f6 3f d9 49 13 c4 cd f9 da bf
       1.4003056537533396 -0.4214968123243615
000590 49 d6 4e fd 53 fa ff 3f de f6 0f 7d 1c 13 05 c0
       1.9986152548639373 -2.6343316812989164
0005a0 9e 57 0e 95 10 89 e2 bf 57 b7 25 0a 9b 41 05 c0
       -0.5792315398455121 -2.657033995891577
0005b0 a6 7c bb a4 c2 96 02 40 5f 4e 0d 60 f9 8b 08 40
       2.3236134404865707 3.068346739202567
0005c0 db 99 84 56 7f 29 f8 bf 44 5a de 8a bc 38 f1 3f
       -1.5101312045677477 1.0763516830972018
0005d0 70 34 a4 59 a9 f2 fe 3f ed dd 8e 81 49 09 cf 3f
       1.934243536149804 0.24247092081144164
0005e0 79 e5 79 1e 51 e9 bd 3f a2 00 43 ef 3a 44 fa bf
       0.11684138292357273 -1.6416577669297472
0005f0 57 a0 3d 5f b3 8e 04 c0 96 4d bb e8 34 8b 02 40
       -2.5696780625039923 2.3179720098648415
000600 5b 9e e8 f4 42 8d 0b 40 45 c4 29 82 bc a2 da 3f
       3.443975365971523 0.4161826392292521
000610 81 b9 66 2e 4e f7 ea bf e4 d9 39 d0 f6 89 f6 bf
       -0.8426886469149367 -1.4086826452090628
000620 c7 ff de f1 1d 71 f9 3f 79 b2 7e ac e4 6c 03 40
       1.5901164482202021 2.4281705356755166
000630 9a c8 f5 d3 54 1d 00 40 51 82 ca 93 bf 94 00 40
       2.0143219527609064 2.072631029718004
000640 af d0 34 0c bd 40 db 3f ed 99 0c 89 16 25 09 c0
       0.42582632247946156 -3.143109389016209
000650 05 04 a0 69 ae 53 fe bf b9 db 49 f1 20 f0 08 40
       -1.895430004690071 3.117250332895733
000660 25 35 cd f1 4a e3 df 3f 85 87 3b 88 94 44 0c c0
       0.4982478486388849 -3.53348642760915
000670 d9 e3 cf 6b d7 09 09 c0 5b d2 db d1 80 48 f8 3f
       -3.1298054144685747 1.5177009770969991
000680 16 52 b8 6b b1 1f 07 c0 9b 05 62 2f 55 0c 03 c0
       -2.8904751220345686 -2.3810218526638898
000690 4b 60 fc a8 85 9b e5 3f 67 22 72 d9 2c b9 fd 3f
       0.6752346325402042 1.8577087873437905
0006a0 03 b3 4c eb eb 7c ed 3f bd 0b 24 ef 63 70 ff bf
       0.9214992137618484 -1.9649390546262417
0006b0 01 40 4c a8 28 a4 ec 3f e4 8b df 99 cd 90 f0 bf
       0.8950389182155051 -1.035352326457308
0006c0 77 32 18 bf 9e c0 f2 bf ef d8 c1 45 59 5b ff 3f
       -1.1720263924245538 1.9598019337550416
0006d0 e8 28 d1 8f 2b ce ed 3f 31 ee c1 cd 26 8f 01 40
       0.9314172562528968 2.1948982310111878
0006e0 70 22 d2 c5 45 6a b4 3f 87 77 8f c8 61 38 ce 3f
       0.07974659041986754 0.23609564106930866
0006f0 e1 a3 45 02 79 a7 01 c0 b3 ed f5 53 f9 31 a7 bf
       -2.2067737748625267 -0.04530314588461284
000700 3a 04 ad d3 98 5d f2 bf 51 f6 6f 4d da 25 f2 bf
       -1.1478508251750683 -1.1342413926025936
000710 dd b0 af ef f6 3c 09 40 2f 5e 98 7d d7 f0 d1 bf
       3.154767868565712 -0.28032481446413987
000720 c8 10 a0 33 5b 81 08 40 9e 9f ec 2c d5 95 e4 3f
       3.063162234613717 0.6432901265552464
000730 72 6c f6 e8 13 1a 00 40 9d ca cb 0c 56 a3 c0 bf
       2.012733287830593 -0.12998462319190632
000740 38 34 d5 51 d9 f8 e6 3f d4 41 56 65 97 3d e1 bf
       0.7178770635888503 -0.538768480228152
000750 2d 9f f4 5e 82 04 fe bf 2b c5 d5 bd ad 00 f9 3f
       -1.8761008938981363 1.5626656928473703
000760 91 a0 b6 7f 2f 79 f6 bf 8b 99 66 a6 9d ed 05 c0
       -1.4045863140873147 -2.741023349767777
000770 7a 32 0a 18 b5 0c ee 3f 2c b9 1a 73 7f a4 02 c0
       0.9390511960533126 -2.330321215870887
000780 c6 b9 d4 b1 49 f2 08 40 a7 9a 38 d4 1d ec 09 40
       3.118304623894093 3.2402912692808346
000790 25 4c bd 55 cf e8 0a 40 66 b5 b5 31 5d 33 99 bf
       3.3636767099756235 -0.024610000762029037
0007a0 51 db 38 19 c4 aa 06 c0 81 7f 9a 10 61 ad fc 3f
       -2.833381840751294 1.7923288963865789
0007b0 c2 cb 36 1b 54 12 68 3f ae dd 31 74 51 10 08 40
       0.002938427229048441 3.007967860957897
0007c0 e4 4f 41 64 76 03 09 40 21 08 ae 7a fb 91 06 40
       3.126690657847563 2.8212804397926594
0007d0 39 c8 98 c3 e5 6b f5 bf 62 c7 cf 59 50 f1 e9 bf
       -1.3388421669483377 -0.8107072595723646
0007e0 f4 7b 19 d2 a0 ea ff 3f ba 6e 99 f3 01 e4 f8 bf
       1.9947822768224315 -1.555665923652596
0007f0 c2 79 28 47 9c 5a 00 c0 5a df 79 2a b9 1b ce 3f
       -2.0442433890559366 0.2352210481074007
