results/vqe_data/with_params/10q7l/sgd_10q_7l_42/parameters/params_ite1833.npy (npy, 2448 bytes, 1 tensors)

array f8 [290]
000000 52 86 d9 81 d8 be e3 bf f4 9b 48 63 e7 78 08 40
       -0.6170465980650965 3.0590350872548644
000010 f8 46 b4 68 b5 25 fa 3f d0 73 f0 62 ac e7 d2 bf
       1.6342062082298394 -0.2953902212337285
000020 fc e5 c9 f8 dc 93 01 c0 18 47 7b 21 21 33 02 c0
       -2.197198814069223 -2.274965535711896
000030 22 8d 77 dd 87 5f 07 c0 3c 58 e6 e5 60 94 06 40
       -2.9216458608731424 2.822450443355619
000040 e4 5a 14 b3 e2 10 81 3f d8 9a fd 13 08 6a ef 3f
       0.008332987871239657 0.9816933050577417
000050 69 9c c2 75 7e ed 09 c0 a5 3e 7d 56 dd c3 0a 40
       -3.240963859559589 3.3456370121928836
000060 2d fc e7 5c 78 7b 05 40 e9 88 a1 3b 0c c6 01 c0
       2.6852881677910063 -2.2217030199691306
000070 77 48 66 64 0d a8 00 c0 70 b0 28 30 b6 99 f4 bf
       -2.0820567935671153 -1.2875272637566262
000080 3d aa 4f 99 da 3e 96 3f 16 4e d7 7a 33 ca b8 3f
       0.02172414360749485 0.09683534382866585
000090 96 b2 05 9d c3 76 e6 bf 70 2a ab 3c 82 4a f1 bf
       -0.7019975725975935 -1.0806906099193405
0000a0 46 79 33 e6 86 8f e7 3f 5c 34 53 ca c9 b3 fb bf
       0.7362703796496042 -1.7313936141320232
0000b0 15 bf 0b 61 12 d7 df bf 52 1b 7b 58 3d b6 e5 bf
       -0.49750194050919677 -0.6784960487501428
0000c0 39 5d 80 e9 03 bb a6 bf 8f 19 6e 9e 7e 75 fb 3f
       -0.044395563367454156 1.7161852062868979
0000d0 57 bb 45 cf 3d ca 00 c0 be 14 0d 0d cc d7 cf bf
       -2.0987507050662475 -0.24877310406933434
0000e0 29 ab 1b 28 d8 50 c8 3f 8c fa 2d 1a f9 ee 02 c0
       0.18996717413332334 -2.366686062362822
0000f0 29 41 99 9f 29 19 e2 3f 49 91 52 da 78 99 fd bf
       0.5655716054116385 -1.8499687698577694
000100 e9 86 ef cf e6 5e 00 c0 56 0f 92 04 b5 2a 09 40
       -2.0463386769268834 3.145853076655764
000110 9b 57 66 4e 76 bd 04 40 e5 6d ef 83 52 e5 f9 3f
       2.5925108075125087 1.618486895916129
000120 9f 0b e8 99 75 50 f6 bf 77 a9 57 50 ed 61 01 c0
       -1.3946434032411401 -2.1728159214737235
000130 9b ed 85 fb 02 4d ec 3f a2 0b 67 84 26 ac e5 bf
       0.8844008362352044 -0.6772644601809257
000140 a7 be 35 5e ea 15 02 c0 e6 6b 81 ba 65 b7 d2 bf
       -2.260700927748832 -0.29244368756707073
000150 50 00 a9 5b 95 a5 09 c0 b4 d7 ca ab 20 64 f7 3f
       -3.2058512841177063 1.4619452200545142
000160 8c 81 68 25 fd 7c 01 c0 6c ca 34 d3 a1 36 c3 3f
       -2.18602971291711 0.15010474026492504
000170 b4 dc ff e1 52 26 e6 bf 8f 7b 1f d8 af 7e b2 3f
       -0.6921781934787732 0.07224558855476303
000180 f3 a3 2f ae aa fe b4 bf 46 02 b3 01 49 60 f8 bf
       -0.08201090576734753 -1.52350712455531
000190 5f a4 c1 df 31 3a 0e 40 cd 19 47 5e 3e 42 00 40
       3.778415439698207 2.0323455205391157
0001a0 38 ae 90 f2 29 4b 0b 40 fe b6 c3 10 fd 4c 0c 40
       3.4117011022952077 3.537592059109442
0001b0 8a 14 16 ef 7a 23 d4 3f f5 53 68 cd 5c d0 03 40
       0.31466554020182314 2.4767395064795843
0001c0 2d 21 82 d9 ab 45 09 c0 36 34 10 3d 0b b6 e8 bf
       -3.15901918342947 -0.7722221558229936
0001d0 8d f7 00 85 c0 ed 08 c0 65 4d 35 65 a0 56 ee bf
       -3.1160898581428627 -0.948074529335298
0001e0 f3 fb d2 10 ee 02 f8 bf 20 c3 2f 91 b6 99 ee bf
       -1.5007153184121733 -0.9562638126063554
0001f0 6b f3 34 30 d9 08 07 40 d0 4d 81 01 92 45 01 c0
       2.8793205038222616 -2.1589698903642116
000200 ee ee 9f 6b 8c 9a f9 bf b3 61 f5 7f ca 3e e5 bf
       -1.600231571587695 -0.6639149188222774
000210 e9 1b ff 88 6f d8 01 c0 f8 e6 f5 97 56 0f f8 3f
       -2.230681486401853 1.5037446914633943
000220 99 a9 ee 2b e5 6f 08 c0 e7 f3 fb 8d 5f d2 08 40
       -3.0546363289078724 3.1027213184847713
000230 02 66 87 3f 10 7a f8 3f e4 9b b9 94 c1 64 f5 bf
       1.5298006517026583 -1.3370986756869963
000240 8f ac ca dc c2 1f 02 c0 3d 7b 8e 84 16 5c f5 3f
       -2.2655083894110883 1.3349824121466576
000250 af 71 b8 8d 92 f9 e8 3f 6b 61 54 2e 70 b5 f0 3f
       0.780465390012571 1.0442964372396897
000260 8b 8f 6a c4 a7 89 e4 3f 3f 3d bd 7d 73 ce 03 c0
       0.6418036304717004 -2.475806219422935
000270 95 8b 71 f0 dc e2 ec bf da 55 bf 0e 67 57 05 c0
       -0.9026932426607909 -2.6676770355359
000280 b5 59 06 f0 f0 31 f7 3f 68 7b ba 34 9f 92 e8 3f
       1.4496926666230199 0.7678981809475376
000290 04 ca 04 7e c1 89 b8 bf ae f4 7d 17 d0 a3 08 c0
       -0.09585198713902093 -3.0799867472947744
0002a0 ff da 08 f3 57 3b 02 c0 0f 1f 19 e1 0e 2a fd bf
       -2.2789763438298674 -1.8227680962463102
0002b0 07 ae 28 d9 cf 0c e3 3f 72 81 00 cb 07 79 e6 3f
       0.5953139535317299 0.7022742237932518
0002c0 90 31 38 bc 13 bc 06 40 ec 37 58 d1 ba 04 75 3f
       2.8418345169686248 0.00513146377262606
0002d0 c7 1d 34 42 b9 29 00 c0 49 43 92 78 34 b4 fb 3f
       -2.020372884002174 1.7314953527276933
0002e0 37 18 4b e2 d6 69 01 40 04 62 46 c1 25 32 f1 3f
       2.176679389874177 1.0747430372049402
0002f0 e5 79 00 4e ea 2b fd 3f 95 53 74 57 8e 66 d1 bf
       1.8232214972446112 -0.2718845228239897
000300 d5 f0 da 15 e4 8e ea 3f b1 c6 56 71 4b 68 f4 bf
       0.8299427439556221 -1.2754625727942932
000310 ec 75 c8 90 57 97 08 c0 3e 4d 85 82 9d 2d 07 c0
       -3.073897486798833 -2.89727308244042
000320 96 97 09 a1 53 ea 07 c0 36 1f e6 16 43 5b 61 3f
       -2.9894173222591673 0.0021187124577330086
000330 8c b9 52 a7 3f ab e9 bf c5 3f 05 4a 19 d5 b1 bf
       -0.8021543758421088 -0.06965787942067354
000340 6f 7f bf 8a 1e 4b 04 40 06 27 fe 79 78 da fa bf
       2.536679347962426 -1.6783375516264996
000350 86 a3 f8 21 31 1b f6 bf b7 cb f4 e5 5b 5a ea 3f
       -1.381638653469254 0.8235301486332592
000360 10 c2 49 98 47 f1 fd bf a2 21 db a9 95 d3 08 c0
       -1.8714061688189112 -3.1033128042219724
000370 8c c8 93 71 2a 5c f5 bf 6b ea 66 45 ce fb fe bf
       -1.335001414929624 -1.9364760123268308
000380 50 fd bb ba 4b 58 f9 3f 3d 58 2b b5 03 74 04 40
       1.5840565962133333 2.5566476968624827
000390 97 10 21 3b 89 c4 fc 3f 3e c5 80 d9 90 5e 09 40
       1.7979824361546315 3.1711747162268287
0003a0 5c 54 31 7e 6b 70 f5 3f a8 87 2a d1 a1 ae fc bf
       1.3399462632562722 -1.7926347895195054
0003b0 8a 4c 3e 3c 32 ef 02 40 57 f3 7a ca 94 e3 cf 3f
       2.3667950350296154 0.2491327274964543
0003c0 0b d0 3f 74 1e 38 fb 3f 7b 1f 8e d8 f4 e5 02 40
       1.7012009182917633 2.362283412778138
0003d0 1f 8c 19 a6 13 c9 00 c0 a9 18 fa d8 ae cb 05 c0
       -2.098182008413928 -2.7244545890162795
0003e0 f5 75 bf 0c 2b 1a fa bf 8a a6 f6 75 05 7e aa 3f
       -1.63138871173521 0.05174271645530577
0003f0 d8 a3 ec 7c 83 0c 00 40 84 ca 94 aa e9 ed 07 40
       2.0061101684300233 2.991168339410537
000400 d8 70 70 f5 6d 17 0a c0 02 83 8d f4 43 11 df bf
       -3.2614401984156807 -0.48542879945857476
000410 b4 e3 fb 0f 1e f1 b8 bf 7b 52 8c e8 27 7c f9 bf
       -0.09742916002495755 -1.5928114971076457
000420 65 14 b3 1d 40 ea f7 bf 15 c8 55 6f c4 ca f2 bf
       -1.4946900520456208 -1.174503741171525
000430 36 48 15 c0 45 57 07 40 03 df ab 04 9a 6b b7 bf
       2.9176135069365285 -0.09148562063262138
000440 78 4c 8d 2e d8 f6 de bf 5a 95 45 5f 8c 9f 87 bf
       -0.48381619020546607 -0.011534783036675367
000450 b4 ae f7 11 bd b1 f0 bf 45 4f 7b b4 57 80 0a 40
       -1.0433932020049896 3.312667284024345
000460 9d d7 aa e6 75 f0 10 40 03 73 31 e1 00 7c 00 c0
       4.23482475679148 -2.0605485528197973
000470 49 9c 8c 3a ad 19 f2 3f 1e 0f 06 c5 dd 5b d2 bf
       1.1312687193947275 -0.28685707321732135
000480 22 aa d0 46 82 2d fa bf e4 13 34 67 05 27 07 c0
       -1.636110569592923 -2.894053274418626
000490 72 7b f8 42 29 32 a0 3f 19 dc ae a8 bb 46 ef 3f
       0.03163269941818826 0.9773844046202412
0004a0 66 18 8a 4b 8b 65 0a c0 4f 19 53 c5 5d bd f8 bf
       -3.299582090522608 -1.5462320049278622
0004b0 83 b2 6f d1 22 4c 03 40 52 d0 66 99 be 81 fc bf
       2.41217578527568 -1.7816759102106698
0004c0 74 75 04 25 29 ed ef bf 71 02 ea 3f 95 53 c3 bf
       -0.9977002833362989 -0.15098825093084003
0004d0 be 25 4f 45 c8 c3 0f 40 f3 fd 5b 7a cd 8a c1 3f
       3.970596829870117 0.13704842066361742
0004e0 6a 79 8e b7 39 ec d7 3f 63 01 a6 9b 69 7a fb 3f
       0.37379305768435833 1.7173858718889157
0004f0 ab 47 10 54 b0 e4 01 c0 71 5b 5b 76 cd 52 d2 3f
       -2.236664444681954 0.28630386884963516
000500 f4 69 60 a0 b3 39 b9 bf e7 f5 00 57 74 5f f2 3f
       -0.09853670754856819 1.148304309709937
000510 29 d6 76 9f 55 ed f0 3f a4 9c 4c 44 1d 00 a5 bf
       1.0579429844923516 -0.041016497218430176
000520 be 1c db a9 84 09 05 c0 0c 61 e3 ec 64 b0 02 40
       -2.6296475667946586 2.3361299998179046
000530 90 f7 63 89 2d 23 fc bf 48 6d d5 f7 a5 11 fc bf
       -1.758588349038721 -1.7543086701396806
000540 a0 6e 3c 0a 61 30 09 c0 61 2b 80 9a eb 5c cf 3f
       -3.148622589081995 0.24502320331552155
000550 1b ad d6 2f 03 8c e2 3f df 8f 6f 87 a0 4d 05 c0
       0.5795913633677715 -2.662903841106512
000560 39 74 29 bb a4 be f6 bf 0e 05 57 95 a1 85 fc bf
       -1.4215438185704115 -1.7826248010244998
000570 50 2e b7 43 bf a5 ea 3f b1 01 58 ec d4 fb 01 c0
       0.8327328035897583 -2.2479647125585065
000580 0d c3 10 08 85 58 f9 3f 8a 40 6d 26 e1 eb e0 bf
       1.5841112437303224 -0.5287938833735251
000590 df 5b 16 e3 d9 89 fc 3f 88 df 34 84 a4 e9 03 c0
       1.7836550589179223 -2.489083321441232
0005a0 59 4e 56 9c 9e 5c d8 bf dd 5f 0f 33 f6 52 08 c0
       -0.38065305011079925 -3.040508650690738
0005b0 29 a2 68 30 80 52 08 40 9a 75 c0 0b 87 68 09 40
       3.0402835637981025 3.1760388296231215
0005c0 ab 3b 27 d5 36 e2 f2 bf 56 b4 1b aa 30 9a f8 3f
       -1.180228073720836 1.5376440663196909
0005d0 ac e6 0b bf 77 8e fc 3f 84 21 8f 86 f3 4f 85 bf
       1.7847821676972826 -0.010406401199262623
0005e0 e7 9c ea ea d6 1d e6 bf f3 55 cd b0 ff cc f8 bf
       -0.6911425197803539 -1.5500485330898044
0005f0 3c ba a5 cc 2b f6 02 c0 01 cb 82 08 78 d6 fd 3f
       -2.370200728232957 1.8648605663735796
000600 a2 29 9b 60 13 50 0c 40 75 60 1c 62 d9 e6 ed 3f
       3.5390994593955876 0.934429828284023
000610 09 03 79 e5 bd 2c f2 bf de 1e 8c a8 b7 0b 02 c0
       -1.1359232867982334 -2.2557213943253904
000620 03 a7 b2 e5 8b 08 00 40 cc 10 db c8 e2 8d 00 40
       2.0041730828423865 2.0692802135327835
000630 2c 7a a8 49 b1 ff f9 3f 3e 74 5f 49 81 40 09 40
       1.6249249341268621 3.1564965946440955
000640 53 75 b7 0e a1 dd d3 3f 3f 68 46 c5 7d 07 0b c0
       0.3104021686284188 -3.3786578571425987
000650 aa d0 9f 5f a8 b8 f7 bf 59 14 dd 6f 9c d8 08 40
       -1.4825824485133503 3.105767129835425
000660 43 2b 5a 00 70 51 bb 3f ec 5c 35 35 3f 80 0a c0
       0.10671138771628556 -3.312620559397706
000670 ae 40 dc c4 3d 48 09 c0 dc aa 80 79 71 50 f9 3f
       -3.1602740649905945 1.5821394678302374
000680 1e dc 7b a7 fa 44 01 c0 a5 ac 08 6e d5 2d 00 c0
       -2.1586812100099584 -2.022379741325113
000690 3e a8 c6 0e e4 c2 e0 3f b3 37 a3 b7 49 0c ff 3f
       0.5237903870195237 1.9404999898283506
0006a0 2b d5 85 9b 25 8f ec 3f 13 22 eb 9e 7f 51 f3 bf
       0.8924739873461126 -1.2073970992806877
0006b0 15 ab 93 30 b1 64 f3 3f 2c bc 1a 37 fa 24 03 c0
       1.2120830438167947 -2.393055372718228
0006c0 3d e4 f3 7f 68 3a f8 bf 4d 4d f0 49 72 4b ff 3f
       -1.5142598150398634 1.9559195411901158
0006d0 ae 7f cc 03 42 d5 cd 3f a7 49 04 f5 38 4f 09 40
       0.23307061372270027 3.1636828557904724
0006e0 9d 01 dc df de 4c c4 3f cd 27 51 b4 65 c9 b3 3f
       0.15859590464243647 0.07729182865401114
0006f0 27 28 00 b5 3d e6 06 c0 d4 92 77 fd e6 12 a8 bf
       -2.8624223843262544 -0.047019213143163846
000700 9e 32 a3 43 21 ed f0 bf 01 2a 7f cb 91 43 f8 bf
       -1.0578930513467308 -1.5164964627352904
000710 b8 96 90 c5 e9 1f 09 40 ca fe 7e c7 08 fc cc bf
       3.1405826029539092 -0.22644147625941563
000720 38 a2 f0 ab 04 28 08 40 3e 5e 1d 55 bf b5 f9 3f
       3.0195401604471748 1.6068719219964716
000730 c4 4a ea 18 07 55 00 40 63 44 6e 0e f5 20 d8 bf
       2.04151744332316 -0.37701155099154543
000740 0c 48 1d cf 64 01 eb 3f dc 5f 13 a4 3e 29 e5 bf
       0.8439201398089167 -0.6612847523310807
000750 0b d7 be 6d f0 9a f4 bf cb eb f8 29 7c c1 f9 3f
       -1.2878269469196677 1.6097375525994149
000760 2f ff 4b 7b 8b f2 e4 bf 48 c8 72 59 c7 a6 04 c0
       -0.6546075256482932 -2.581434916320209
000770 e7 53 eb 63 06 56 e4 3f 59 9f 1e aa eb 99 f8 bf
       0.6355010940120537 -1.5375782628343215
000780 9c 86 2d 04 bf 04 09 40 53 41 c1 91 21 21 09 40
       3.1273174597161653 3.141177309713535
000790 3d 53 0f 71 21 89 0d 40 11 94 0a 6f a4 c1 87 3f
       3.691958316116511 0.011599812163078512
0007a0 86 44 87 c5 9e f5 06 c0 9d c9 8c c1 a6 1c f9 3f
       -2.8699317390351693 1.5694949684662796
0007b0 d6 46 5d 8d 45 ff 92 3f fd 74 14 1a 58 19 09 40
       0.018551909211345606 3.1373750722401597
0007c0 94 0b 71 89 9a 27 09 40 10 cc 93 f4 e4 72 02 40
       3.144337724459044 2.306100760231409
0007d0 b3 d0 12 18 ff 52 f5 bf 21 97 97 d9 c4 52 df bf
       -1.3327628078814484 -0.48942681550248507
0007e0 10 10 7b f3 be 14 03 40 09 71 4a e9 21 45 f0 bf
       2.3851298353129167 -1.016878043453348
0007f0 b7 7b 07 1d e7 a7 f5 bf f7 10 6e 6f 02 6a df bf
       -1.3534918912844043 -0.49084530717688274
