results/vqe_data/with_params/10q7l/sgd_10q_7l_42/parameters/params_ite1654.npy (npy, 2448 bytes, 1 tensors)

array f8 [290]
-0.6424339420035456 3.0834568940896605 1.6467248939081576 -0.27089346450865587 -2.246171640783932 -2.270252957527059 -2.9359171563263073 2.8434150147440787
0.013533646630383497 0.9973476371408752 -3.279228348778607 3.278649406260062 2.678423251989595 -2.3108372827058346 -2.1427411655064947 -1.3238649876945399
0.0630020795204841 0.08842487236076722 -0.6900121156095544 -1.0554705156301094 0.7258496568700361 -1.6517003388388607 -0.5596182788039828 -0.6478660758927406
0.04324565492076557 1.792769396808174 -2.136663796804126 -0.24598188441509874 0.27994152409229556 -2.3470909474360333 0.7174610572579463 -1.865583792380441
-2.0811942053424977 3.0872238891713577 2.494950706176146 1.6987105141914682 -1.5146000787549263 -2.140236522396772 0.8702778256377353 -0.6921584422790275
-2.177892497709066 -0.3362981815748194 -3.19460787571647 1.5675996074708558 -2.174613053946314 0.1637384050638846 -0.6847356358358093 0.05736251465077854
-0.07004467283409015 -1.5152313789213163 3.7520767297567175 1.9839327583243536 3.482483826108146 3.489874252574822 0.11063886612789031 2.558886320520334
-3.1201847196361707 -0.7046162906416916 -3.1443882448791647 -1.013451815224778 -1.5491698779715208 -0.9817615444005663 2.9146944795775562 -2.1048242215316186
-1.5957195436432299 -0.5948649019512916 -2.190437087579062 1.564548274391366 -2.9913321963364377 3.104814493492356 1.5393698939605858 -1.3159270139521555
-2.1886947032889075 1.3945755806218127 0.6699296723857618 1.1595937039600726 0.6739093790040719 -2.475047754806205 -0.8498657497205485 -2.609833627009475
1.4781015902456802 0.7308720574022991 -0.07117586497108576 -3.0682708550299043 -2.2320741944726965 -2.017235452991063 0.5662254300165366 0.7902220900751636
2.804224819604922 0.005874593275283482 -2.003566903404079 1.728701674096013 2.1274388455300977 0.9960236047186836 1.7584479752057198 -0.20320623833689264
0.6019892889599666 -1.3290209585289594 -3.0493546919535435 -2.8197715209063228 -2.8793893910554065 0.013179531324514339 -0.8169279597876422 -0.061946241176763735
2.48859425893557 -1.6073427236555857 -1.3581602413946996 0.8781203591592934 -1.9172607752019317 -3.11867073957506 -1.400486628507535 -1.9307818195216448
1.5817118118226305 2.545571265595697 1.6398872015962158 3.114356875193687 1.333874169498358 -1.8104214895862596 2.3974196801651293 0.3208251253039029
1.7845220909300623 2.403907499890333 -2.1061760171483095 -2.6837930757311534 -1.4273463673440874 0.06133712741799631 2.0653632099588703 2.927714233501291
-3.312848812378509 -0.4385393466185708 -0.12622381900789847 -1.557100684638922 -1.519431474141827 -1.1902500874867736 2.908641409143915 -0.14349045374687067
-0.5254796386766117 0.05413526809589029 -1.0548601757475822 3.5272085424218336 4.232535554502192 -2.0662602894793056 1.1257197921614805 -0.2798514459955227
-1.5577363821483947 -2.8974888090705178 0.03162641159750679 0.8717060985384836 -3.3103662724032548 -1.4680183467690355 2.400779963204231 -1.7617401567473736
-1.0590485739075923 -0.2691086917891192 3.872346929306781 0.05102780285353755 0.39189726768627214 1.7206409318848137 -2.210078824981903 0.3525403130706295
-0.09497957466801696 1.1393849644477716 1.129123237024887 -0.03992056172299313 -2.6263342350404004 2.368236982569719 -1.761066599009989 -1.808023082694283
-3.1826277835654446 0.24704279866531723 0.6262199325279317 -2.6808248426053414 -1.3727401614051997 -1.7382861336320445 0.8821401661128125 -2.263107795088801
1.6230115017605713 -0.5155234110297897 1.783604959615289 -2.65851938088683 -0.3727549923777122 -3.0314621797516357 3.0485227113396642 3.1721723317904473
-1.2774886311058968 1.5256336281677605 1.768000688652619 -0.019792595767105136 -0.6243599082447973 -1.542207651035956 -2.297350957681707 1.9404091996580166
3.497952757826687 0.9123514744099418 -1.160936953582036 -2.1154430906919264 2.021787890815249 2.0832865828580576 1.6625713312850425 3.1368317571330055
0.3238005855741843 -3.399822090630799 -1.485722340124194 3.0997474729284966 0.09259732690456937 -3.3184622583777097 -3.149963043127351 1.5697283510391522
-2.3010893682858113 -2.016393177307674 0.45680679581353717 1.964856406982959 0.9253752246228458 -1.3384637993621546 1.2040103040785743 -2.3137621833734197
-1.4627864838962708 1.970960518400285 0.19537183391588464 3.1555374496312276 0.1606058377136001 0.07707310907879011 -2.855182572152284 -0.04280901120608483
-1.11323439854717 -1.5154849778765 3.1431521191228278 -0.23170939931258308 3.0225423871887775 1.5265250268096642 2.06035403973866 -0.3688068464902106
0.8525529826054964 -0.5947749555818758 -1.436512464843994 1.615347743248291 -0.7026526596249587 -2.6028302912598718 0.6230156919119746 -1.5679273054863307
3.1266713976336846 3.1433789686891727 3.6593373535490654 0.015660154973427303 -2.855234266652752 1.5604482330558622 0.014656895857135093 3.1382300144062727
3.144920288961604 2.354760958837943 -1.3403708990350105 -0.49757662220187276 2.3303382787492737 -1.006553167357485 -1.4829104481729853 -0.4487729020292556
00000000: dedb 57a0 d18e e4bf 37ed b572 ebaa 0840
00000010: 8283 cd33 fc58 fa3f b5f2 b08a 5156 d1bf
00000020: 0af5 52d6 28f8 01c0 d7ce f161 7a29 02c0
00000030: 967e 5122 c27c 07c0 d93f 0a5f 50bf 0640
00000040: 8b8b 624d 87b7 8b3f f469 8897 45ea ef3f
00000050: 2bf6 9012 dc3b 0ac0 897e 378a ac3a 0a40
00000060: 5621 812b 696d 0540 e3ca dc41 987c 02c0
00000070: 8425 ed7a 5524 01c0 d87a a70d 8d2e f5bf
00000080: 29d7 1e7f e720 b03f af45 f12e 03a3 b63f
00000090: ba60 cc49 9414 e6bf 9260 280d 35e3 f0bf
000000a0: 623a 420f 293a e73f 2fae a155 5d6d fabf
000000b0: 0f9f b697 64e8 e1bf a8b5 04a3 51bb e4bf
000000c0: 1c57 2863 4b24 a63f d9f8 88f6 2eaf fc3f
000000d0: 3a91 4e30 e317 01c0 9953 7c9a 557c cfbf
000000e0: 1c34 b1da 8fea d13f a8cd 5f9e d7c6 02c0
000000f0: 6272 22e4 70f5 e63f df8b 0364 6ed9 fdbf
00000100: de90 c425 49a6 00c0 065e 3b70 a2b2 0840
00000110: eb44 41b7 a8f5 0340 e02d 7d13 eb2d fb3f
00000120: ca57 cc4a cd3b f8bf f630 6b53 341f 01c0
00000130: bc89 f1e1 50d9 eb3f a6a3 2776 2926 e6bf
00000140: dee9 dee6 526c 01c0 105c e4ce e885 d5bf
00000150: 5df8 ed92 8e8e 09c0 caf4 7453 e314 f93f
00000160: 9a3b 6187 9b65 01c0 709e 6c4b 61f5 c43f
00000170: 1542 4ab5 5ae9 e5bf 1b01 e298 9e5e ad3f
00000180: 0bd9 149b 72ee b1bf cb70 2542 633e f8bf
00000190: 131a f3cd 4004 0e40 6f75 a746 30be ff3f
000001a0: 15de ef7a 20dc 0b40 c0b0 2f31 43eb 0b40
000001b0: 5091 af27 d452 bc3f 6a88 2664 9978 0440
000001c0: bf87 0268 23f6 08c0 df1d 9176 378c e6bf
000001d0: 7b76 2d06 b527 09c0 6765 2740 1937 f0bf
000001e0: 3a60 9d5a 66c9 f8bf e277 b52f 976a efbf
000001f0: 52f0 dc56 4b51 0740 a874 da14 aed6 00c0
00000200: 4c92 5837 1188 f9bf cf68 6d1e 2209 e3bf
00000210: cdc7 38e1 0386 01c0 ec62 78c5 6308 f93f
00000220: 12e5 1593 3fee 07c0 6192 2dfb a8d6 0840
00000230: 8e1f 7053 42a1 f83f 218f 0d7c 090e f5bf
00000240: 2b6f 5c5e 7282 01c0 6522 e97b 2e50 f63f
00000250: f789 305a 1070 e53f 0c7f b220 b28d f23f
00000260: f948 e966 aa90 e53f 7072 57d6 e5cc 03c0
00000270: f349 21a8 1932 ebbf d70d e073 f0e0 04c0
00000280: 2755 64da 4da6 f73f ac4c 03cc 4d63 e73f
00000290: 29b9 50dc 9438 b2bf b7fc 0c97 d18b 08c0
000002a0: d40b 1cb7 49db 01c0 496d 5757 4c23 00c0
000002b0: bab4 02cb 841e e23f 1363 2ed6 7f49 e93f
000002c0: 58ad 166c 0d6f 0640 e90f ea1f f50f 783f
000002d0: 82bf ab15 4e07 00c0 7586 2c16 c3a8 fb3f
000002e0: 8955 4ea8 fe04 0140 e3f1 09e5 6cdf ef3f
000002f0: a39d 1358 9a22 fc3f 6f04 007a a902 cabf
00000300: df02 940a 7f43 e33f 8949 097b ab43 f5bf
00000310: cac1 9e12 1465 08c0 f2e0 035f e48e 06c0
00000320: 3442 184e fd08 07c0 4788 1fc0 defd 8a3f
00000330: ca3a cf1a 4624 eabf 81bc edef 6ab7 afbf
00000340: 0e22 591b a4e8 0340 6607 f900 adb7 f9bf
00000350: 8048 b83b 06bb f5bf 604f 11de 8f19 ec3f
00000360: a055 76a2 19ad febf 73bc 0ba5 09f3 08c0
00000370: 79cd beaa 6468 f6bf d0e8 287a 7be4 febf
00000380: 079a 770b b14e f93f 7ff7 ba77 545d 0440
00000390: 5bc1 bf5c fa3c fa3f b43c f8ef 33ea 0840
000003a0: ff97 ef70 8c57 f53f 39fa 1b86 7cf7 fcbf
000003b0: a1c4 885e ea2d 0340 5795 3a1b 6688 d43f
000003c0: e78b 3809 678d fc3f d61a f5da 333b 0340
000003d0: 152c cacf 72d9 00c0 f2f8 0b81 6878 05c0
000003e0: 87ea fc24 69d6 f6bf 1aee 9478 9467 af3f
000003f0: 5614 8925 dd85 0040 c05f a770 f56b 0740
00000400: aa10 cee0 b680 0ac0 211a ef55 0711 dcbf
00000410: 24bd 4e23 1a28 c0bf 71a7 5168 e2e9 f8bf
00000420: 483c 9f60 974f f8bf be11 fdac 430b f3bf
00000430: 0984 80c9 e544 0740 f1c4 102b e55d c2bf
00000440: e78e daac bad0 e0bf ad67 102c 9eb7 ab3f
00000450: d304 4b10 b5e0 f0bf 24fd be1c b937 0c40
00000460: 00fa e6cc 1dee 1040 67b2 8279 b387 00c0
00000470: 14b2 bcc1 f202 f23f 4a80 120a 16e9 d1bf
00000480: 0fde 11fc 7cec f8bf f3de db9c 0e2e 07c0
00000490: b093 0047 5631 a03f 0f4a 1e30 04e5 eb3f
000004a0: fa06 ee4f a17b 0ac0 e0d0 54ce 007d f7bf
000004b0: 84d5 1620 cc34 0340 677a 5472 1630 fcbf
000004c0: d0ef dcea dcf1 f0bf 5c6e 93a9 1339 d1bf
000004d0: f41b e106 91fa 0e40 dba6 e2f0 5020 aa3f
000004e0: cbac 0647 d814 d93f f6aa 29c9 be87 fb3f
000004f0: f908 97ce 3dae 01c0 b43c ca3e 0590 d63f
00000500: 16b4 fcd6 9450 b8bf 82b7 7dba eb3a f23f
00000510: 09cf 0287 e310 f23f 988f 13c6 7770 a4bf
00000520: dae8 fe85 bb02 05c0 6f84 2a3b 26f2 0240
00000530: ad36 8d2b 542d fcbf 5c5c a99c a9ed fcbf
00000540: 5209 2e8e 0576 09c0 b96b 7d32 199f cf3f
00000550: 05f2 4962 fe09 e43f b45a 8a4b 5472 05c0
00000560: ec41 3263 bef6 f5bf 80a3 f01e 05d0 fbbf
00000570: 4429 7e03 7e3a ec3f 23d5 7942 d81a 02c0
00000580: fa7e 91e8 daf7 f93f 0040 d6f3 2a7f e0bf
00000590: 407f a85a a589 fc3f 6187 25cf a544 05c0
000005a0: 53b6 6bc1 37db d7bf d1c0 483e 6f40 08c0
000005b0: 6f89 12e0 5f63 0840 3c87 32e3 9b60 0940
000005c0: 42c9 39eb 9770 f4bf a088 aace fe68 f83f
000005d0: 7b18 1117 bb49 fc3f 6335 179e 8244 94bf
000005e0: f409 5ba1 c1fa e3bf 5372 0dee e1ac f8bf
000005f0: ee6a f589 f960 02c0 2e38 5684 ea0b ff3f
00000600: 8d8c cea7 cefb 0b40 e189 21b8 fb31 ed3f
00000610: b8a4 85a0 3293 f2bf 6191 586d 6dec 00c0
00000620: a400 3421 9f2c 0040 4f91 ec27 92aa 0040
00000630: db2e 7265 e499 fa3f 1786 8f3f 3b18 0940
00000640: 93df 5d17 26b9 d43f 30d2 9bec d532 0bc0
00000650: ed51 dcc9 84c5 f7bf 3bb1 3067 48cc 0840
00000660: aa8c c05a 75b4 b73f c6f0 c5f0 358c 0ac0
00000670: 92b9 eed2 1f33 09c0 1d13 b579 9b1d f93f
00000680: d7af ef8a a168 02c0 da4f 03bf 9221 00c0
00000690: 3105 2792 523c dd3f fa3e 9545 0d70 ff3f
000006a0: b314 c980 ac9c ed3f ea3e 5204 596a f5bf
000006b0: 2908 014f a043 f33f af7b 62bf 9582 02c0
000006c0: 53d8 d5cc 9267 f7bf 6bc8 83e5 0d89 ff3f
000006d0: e437 9dba f101 c93f 45c1 1b6b 8a3e 0940
000006e0: 7e67 436a bb8e c43f 4cfa e432 10bb b33f
000006f0: 9806 dcf5 69d7 06c0 e15d 350e 10eb a5bf
00000700: 5dad 68df cecf f1bf 0ef1 182d 6d3f f8bf
00000710: 98e2 2ff0 2c25 0940 b596 1c52 a7a8 cdbf
00000720: 1eff fdb3 2a2e 0840 bcc4 aa81 a56c f83f
00000730: 4bdf 16e6 9a7b 0040 a1d8 0d08 889a d7bf
00000740: 4dbb 4c31 1d48 eb3f 3e87 d67c 6508 e3bf
00000750: 24d2 8c7e f4fb f6bf 77b3 0ee0 76d8 f93f
00000760: f82b 316e 217c e6bf 93fe 0fb0 98d2 04c0
00000770: 0904 b59a beef e33f 691b 39f1 3a16 f9bf
00000780: fd66 314b 6c03 0940 36a2 6bdf a325 0940
00000790: 0632 94a9 5246 0d40 db3a d835 3709 903f
000007a0: 7389 2d10 85d7 06c0 f236 0191 98f7 f83f
000007b0: e32c f042 6f04 8e3f ba9a 7956 181b 0940
000007c0: 88ef ecf7 cb28 0940 40da e0e9 8cd6 0240
000007d0: 0ad9 7dc1 2872 f5bf c11d e79d 4bd8 dfbf
000007e0: b0c2 3e65 88a4 0240 12c5 777e d71a f0bf
000007f0: 78cb 5c4e 00ba f7bf 8ffc 62fa b1b8 dcbf
