results/vqe_data/with_params/10q7l/sgd_10q_7l_42/parameters/params_ite414.npy (npy, 2448 bytes, 1 tensors)

array f8 [290]
000000 4a d5 91 18 7c 0a e6 bf e5 c1 57 e1 89 b1 08 40
       -0.6887798766971767 3.086688766947406
000010 c9 4c 9b 4b 6b 04 fe 3f b1 7a 06 f6 b9 e8 95 3f
       1.8760788873085394 0.02139559330100366
000020 97 bf e5 8f f1 c4 02 c0 5b a8 6a 98 33 3f 05 c0
       -2.3461638681400916 -2.65586012912267
000030 21 d2 24 97 71 6f 08 c0 08 53 e1 ae c1 f7 06 40
       -3.0544158752548047 2.870974889994958
000040 fc a9 81 42 ca 7e a6 3f dd 14 08 f8 78 73 f1 3f
       0.043936081522435416 1.090691536782564
000050 17 96 94 1f 44 e5 09 c0 d1 29 80 7d 5a b4 0c 40
       -3.23694634124946 3.588063221429572
000060 c6 d7 a3 9f 44 7d 06 40 66 9d 6f 82 9f b6 f9 bf
       2.811166045367801 -1.607085713878257
000070 db ed 96 c6 6f 32 03 c0 bd 74 b7 75 bd 2b f5 bf
       -2.399627257805816 -1.323178729849402
000080 6f 5e 7d 01 2a 53 e4 bf 39 45 0c ff 12 74 ae 3f
       -0.6351518658729683 0.05947932589891498
000090 aa 98 03 1d ad f1 dd bf 92 72 24 76 97 b0 ee bf
       -0.46787574609187266 -0.959056597468207
0000a0 ce 48 c8 ca 93 ab e6 3f 7a 56 bd e8 d7 df 01 c0
       0.7084444962113368 -2.2342985327512084
0000b0 e9 46 98 f9 27 0a ea bf 96 52 4d f3 13 bf d2 bf
       -0.813739764680773 -0.29291247138943655
0000c0 e4 f8 3a 65 53 93 ba 3f 5f ae a6 81 3e 99 f5 3f
       0.1038105127472338 1.3499131264205955
0000d0 26 75 db d5 1e a9 01 c0 3b ef 0d b8 c2 14 cc bf
       -2.2075783450697086 -0.2193835638716964
0000e0 fa a5 25 64 0e ed d3 3f 58 ae 9b 62 b1 93 03 c0
       0.31134376316057877 -2.4471156791458206
0000f0 da a6 71 55 98 10 d5 3f 4f aa 06 e1 9d 3a 03 c0
       0.329137881699905 -2.4036214428099707
000100 31 88 db a8 2e d9 ff bf 16 d8 99 dc f1 11 05 40
       -1.9905230136869358 2.6337620958756913
000110 38 d1 b3 ca a7 ff 05 40 2f 30 bb 6a ed 4d fa 3f
       2.7498317562223313 1.644025246542707
000120 2d 22 b4 0f e8 79 f9 bf d6 54 73 fb da 7f 04 c0
       -1.5922623265670481 -2.562429394204268
000130 ec df 8a 6c 83 31 ee 3f 91 7f 37 af 3e 0c e6 bf
       0.9435441131563471 -0.688994734020513
000140 48 98 2a 22 a4 0a 03 c0 32 28 c5 48 50 ca af bf
       -2.380195872235195 -0.062090405352663317
000150 f5 92 1f dc 1d 14 06 c0 61 40 88 b5 75 42 02 40
       -2.7598225781570087 2.282451074810567
000160 5b 16 0d d6 05 c7 00 c0 7f 26 d5 96 34 86 e6 3f
       -2.097179100298303 0.703882498354872
000170 12 ab db 5c 22 76 e5 bf 31 8b fb 48 e6 53 9a bf
       -0.6706706823000295 -0.025710676388267465
000180 e9 9a 73 fa 64 46 7d bf e5 90 25 51 b0 ae f7 bf
       -0.007147211500728481 -1.4801486177248588
000190 1f fe 9b a1 21 79 0b 40 c6 f3 d8 fd bf fb f7 3f
       3.434146177838343 1.4989623943249497
0001a0 9c 33 57 52 84 9c 06 40 99 15 35 a3 b0 1f 07 40
       2.8264242585050408 2.8904736280989707
0001b0 11 a3 c3 30 63 21 e8 3f b9 72 22 cd d9 33 07 40
       0.7540756180215756 2.9003177667749154
0001c0 89 82 25 7e 11 52 09 c0 a8 fc eb 02 97 59 f6 bf
       -3.165072427291595 -1.3968725313314199
0001d0 0c bc 4c 80 b8 84 08 c0 0f cb 36 c2 27 2c ee bf
       -3.0648050330560235 -0.9428900521510019
0001e0 08 d5 49 3b e2 63 f1 bf 8f 3f 2b 6a 3b 6b ea bf
       -1.0868856731370347 -0.8255898545848924
0001f0 61 41 97 ca 99 e0 05 40 9f 53 97 09 b9 bc e7 bf
       2.734668333760212 -0.7417874514891202
000200 4f 33 0f 1c 3a 8d f3 bf a6 03 af 3e 8f 31 c6 3f
       -1.2219792457646752 0.17338743744587964
000210 ee 80 2c 2d f0 58 00 c0 43 29 bb fd cf f8 00 40
       -2.043426850243228 2.1214904616109904
000220 17 3e a6 30 4d b5 07 c0 42 bc 31 57 08 d5 08 40
       -2.96352613456089 3.1040198146870646
000230 74 f0 74 dd ef 43 f4 3f 2b a1 a9 96 f8 6e f3 bf
       1.2665861750274674 -1.2145925412424485
000240 87 d1 8e 76 cb b8 07 c0 b4 f2 d6 95 dc 27 fd 3f
       -2.965231825097536 1.8222318509207698
000250 1f 97 05 82 32 4e e3 3f 62 e9 de 46 28 36 f8 3f
       0.6032955684174545 1.5132220047367686
000260 5c 09 46 2d 1a ea eb 3f 98 71 d2 15 10 73 07 c0
       0.872326935219728 -2.931183023915036
000270 d9 e4 96 87 c3 83 e9 bf b2 3e 68 43 65 0a 06 c0
       -0.7973344467383426 -2.75507595693474
000280 d4 5c c1 c6 83 e6 fb 3f c7 a6 4b dd 14 02 e8 3f
       1.7437780155067246 0.750254089563179
000290 dc 30 46 f6 2f 98 db bf 48 20 c3 ff f4 17 07 c0
       -0.431163778783924 -2.8866977673933754
0002a0 8f c5 dc ad f1 3b f8 bf e2 7b 44 bf 0f ee fd bf
       -1.5146347800731268 -1.8706204863917653
0002b0 12 5d bf e5 3e a0 f0 3f fd 5c ee 21 dd b6 ec 3f
       1.0391224836838018 0.8973222410885736
0002c0 1e 3c 7c 5f b9 ca 04 40 a6 c7 40 5f 51 56 ae bf
       2.5989863834179365 -0.059252303006714954
0002d0 cc b1 26 00 15 6d fc bf b6 09 b2 78 e1 21 f9 3f
       -1.776631355848724 1.5707716669718201
0002e0 52 1d d9 e7 ba 76 f5 3f 48 65 f1 dd cb 31 da 3f
       1.3414868408743428 0.4092893283282888
0002f0 c6 08 81 c6 70 b8 f8 3f 8e fb 0c 30 31 08 d4 bf
       1.5450294260086124 -0.3130000085110901
000300 b0 1f 8b 0b 77 6b d5 3f 94 33 a6 83 ec 6c ec bf
       0.33468414428034077 -0.8882963725351254
000310 91 16 70 4d 26 9b 08 c0 61 9d 7c 66 9d 2d 07 c0
       -3.0757566499549474 -2.8972728735713393
000320 18 66 b3 e0 af 4f 02 c0 17 19 64 f9 be 99 aa 3f
       -2.2889096789119883 0.05195423883746935
000330 5f e2 29 27 a1 8e f3 bf c0 a6 b8 98 cd d4 be 3f
       -1.2223216562107593 0.12043461779162623
000340 f6 54 69 b6 a2 d5 03 40 17 0d 24 80 aa 21 f4 bf
       2.4793142557997454 -1.2582192426205603
000350 48 49 4c 90 13 a0 f0 bf 5a 75 da eb dc a0 f6 3f
       -1.0390811573639258 1.4142731869718177
000360 5d fd b4 0d 62 ba f8 bf 43 16 66 fc ce 79 09 c0
       -1.5455036673955285 -3.1844768255857914
000370 f6 e5 90 92 6c 8f f6 bf e7 a4 61 b8 a9 23 01 c0
       -1.410015652202103 -2.142413559417594
000380 9b e4 13 ce 00 dd 01 40 7c a1 21 7c 79 cc ff 3f
       2.232911691648565 1.9874205445176747
000390 ef db e6 24 00 6c ef 3f 45 20 37 9d 11 10 05 40
       0.9819336624849465 2.632846096272291
0003a0 4f 9d 54 cc 3b a1 fb 3f cd a8 08 23 59 f2 fc bf
       1.7268636686001917 -1.8091670387753311
0003b0 bd 16 20 86 70 66 02 40 a8 d5 d2 40 c6 a1 e4 3f
       2.3000193098585826 0.6447478548131373
0003c0 4f f7 5e 2b 4b 6b f7 3f dc 71 4f f5 d9 62 07 40
       1.4636947340181512 2.9232672848577135
0003d0 66 b9 43 63 1d b7 f2 bf f3 72 01 0d 91 f4 04 c0
       -1.1697057607194323 -2.6194172874514776
0003e0 4d 68 9a d4 c8 1a f4 bf dd a6 5b 59 f0 ce ae 3f
       -1.2565391831217483 0.06017256823345261
0003f0 ae 9c b4 74 e5 e3 03 40 ca 91 b4 7c 0f bf 06 40
       2.486277496110765 2.84329125810675
000400 2a 32 c4 15 fb bc 0a c0 dd 4f 93 68 7f 5d d1 bf
       -3.3422757816790822 -0.27133164608426147
000410 de 4e cc cf 0b 50 c7 3f 9a 5c b2 fb c8 66 fc bf
       0.18213031431570575 -1.7750940162566509
000420 69 52 b1 8d 60 f6 fd bf be 63 82 4c d7 de ed bf
       -1.8726506743306806 -0.9334522718737543
000430 66 bd 41 e2 3a c9 03 40 38 f2 54 70 9e 31 f2 bf
       2.473256843215199 -1.137113989635635
000440 27 5e 73 51 b0 94 e6 bf fa 8c b6 12 a2 bb ed 3f
       -0.7056504813035119 0.9291544309129727
000450 67 da 9b 5f c8 f9 e8 bf 93 1a b9 d8 d8 c0 0b 40
       -0.7804910533294106 3.469163602017326
000460 5f 97 f7 bf 2a 95 06 40 56 ab 2c e5 0a 0d 01 c0
       2.822835445159327 -2.131368437219332
000470 b0 02 16 95 22 e9 d6 3f 70 76 6a 3b c2 bd d5 bf
       0.3579794364850768 -0.33970695307093646
000480 0d 90 58 fc d8 45 f7 bf 4b b7 e6 43 8f ec 04 c0
       -1.4545526368392558 -2.615507631758111
000490 da ad ff 63 93 1f c8 3f 58 25 cc b3 eb b3 de 3f
       0.188463615252984 0.4797314887842581
0004a0 50 73 b7 34 8c a3 09 c0 7b a7 b8 ae 42 32 e1 bf
       -3.2048572653278953 -0.5373853123212337
0004b0 ad ba 87 fd b6 a6 00 40 b4 7d b8 db d4 db fc bf
       2.0814037138983026 -1.8036697943533513
0004c0 42 68 9c b9 1d 33 00 c0 ce 94 92 8e 4b 8c e2 bf
       -2.0249590397698123 -0.5796258720989955
0004d0 71 1a 42 7e 5d cf 0f 40 29 0b d0 1c 22 fb f2 bf
       3.9762525428698656 -1.186311829137319
0004e0 7f 8c 04 f2 e0 5a ea 3f 3e 24 0a 22 72 8b fc 3f
       0.8235935904416606 1.7840443925545197
0004f0 5c cd 73 1f 72 36 fe bf 1c 4c b3 a8 2a c2 ea 3f
       -1.8882924297912131 0.8362019820145892
000500 1f 60 a9 51 e0 11 d3 bf 43 44 53 e1 ec d6 f2 3f
       -0.2979660794712817 1.1774720002906782
000510 fc 1f e7 ac 12 00 f5 3f e8 bb 9d 67 07 36 a8 bf
       1.3125178102509372 -0.047287207983451485
000520 d8 b9 58 09 5d 89 fc bf 50 4a 62 98 df 75 05 40
       -1.783535992155171 2.6825553803439917
000530 39 ae 20 ae 94 78 f2 bf 82 08 17 88 a2 89 00 c0
       -1.1544386674749048 -2.067204535677832
000540 fa e5 87 95 58 22 0b c0 f3 ed 8a 8b 16 00 c8 3f
       -3.391770523271359 0.18750268758400032
000550 e8 f9 31 1c 11 9d f3 3f e3 b3 ec 6d e7 4f 06 c0
       1.2258463956237566 -2.7890156352864195
000560 84 00 8d 7f ca 75 eb bf e8 2a a1 c9 3b 8e ff bf
       -0.8581287852503157 -1.9722249866633152
000570 dd 0f 98 71 aa 4c f2 3f 86 96 8d cc ad ce 00 c0
       1.1437172353043856 -2.100917432852671
000580 6b e8 0d c6 7b df f6 3f 99 51 36 42 6c b1 e0 bf
       1.4295613991257834 -0.5216580670553866
000590 96 80 bc 11 44 0d ff 3f 28 7a 6b e4 33 8d 05 c0
       1.94073874405152 -2.693946632890647
0005a0 a7 d3 5b 15 da a7 e0 bf a3 b7 36 6d 75 54 05 c0
       -0.5204897324716641 -2.666239598495808
0005b0 d7 38 e3 1f 2f a3 02 40 bf 2a 61 a7 1c a7 08 40
       2.329679726716772 3.0815976215866097
0005c0 6b 96 df 88 de 8b f6 bf 32 ed 53 38 bc d0 f1 3f
       -1.4091477724663501 1.113460750609033
0005d0 f1 4b 89 e9 52 c7 fe 3f 95 5d 96 68 06 48 cf 3f
       1.923663055659514 0.24438552958302454
0005e0 1f 81 3d be 19 ec 9f bf c3 32 44 8c ca f6 f9 bf
       -0.031174089657157397 -1.6227517584949716
0005f0 1b 62 22 db d6 10 04 c0 fe 99 3e 9a 6b 85 02 40
       -2.508222305285256 2.3151466417650672
000600 b8 61 b4 92 49 1a 0b 40 13 42 e1 77 b5 31 d8 3f
       3.3878356419847613 0.37803398806593796
000610 bb 43 48 67 f1 a1 eb bf e6 3b 90 05 e5 7e f6 bf
       -0.8635184304458713 -1.4059801308937891
000620 16 86 30 90 a8 6b fb 3f 9b 66 ac 1f e0 a9 02 40
       1.713783801308073 2.3329470133292722
000630 db 1f d7 bb 4d de ff 3f ca a1 6f ef c0 98 01 40
       1.9917733514321216 2.199586744875181
000640 23 74 0e 86 77 0b d6 3f fc 7c 79 b2 42 31 09 c0
       0.3444498833794702 -3.1490529959988844
000650 42 cb 8c 14 3a a9 fe bf 61 06 08 94 c7 00 09 40
       -1.9163151552899795 3.125380665297414
000660 64 68 9b a4 c0 fa d8 3f e5 b7 2b 70 b0 ee 0b c0
       0.39030471873195993 -3.491547466596773
000670 03 f1 a5 db 09 06 09 c0 c2 25 39 ee 57 33 f8 3f
       -3.127948490144378 1.5125350289912238
000680 f5 b1 51 a4 ee 59 06 c0 a6 8e bf 50 2e dc 02 c0
       -2.793912204497469 -2.357510214658606
000690 4a 3f 0a 1f 0d 9e e3 3f 4b 40 38 8a fd c0 fd 3f
       0.6130433660746146 1.8596167945106739
0006a0 40 7d 4f ad 4b cd ea 3f 92 5a bc 5f 8b f7 fe bf
       0.8375604996653365 -1.9354356517484672
0006b0 8c 1d a0 0e 57 41 ee 3f e7 d4 40 bf 02 05 f5 bf
       0.9454760823872888 -1.3137233229475045
0006c0 c6 0e 79 a7 b0 00 f4 bf e2 f8 49 ed 39 f0 fe 3f
       -1.2501684705647889 1.933648993406273
0006d0 da 73 d6 e5 89 35 ee 3f 53 3f ee 62 b7 b8 02 40
       0.9440354813592606 2.340193531890614
0006e0 99 4b 03 24 77 27 b7 3f 3e da 62 32 11 57 c4 3f
       0.090445944111066 0.1589070793176734
0006f0 9a 3c 18 89 28 65 01 c0 b6 34 fd 29 94 20 a8 bf
       -2.174393721630236 -0.04712355625688629
000700 26 25 63 d1 ac 82 f2 bf dd 47 16 9d 1f bb f2 bf
       -1.1569030932608455 -1.1706844459736125
000710 36 b4 4f fe f5 42 09 40 b0 c7 91 88 1f b0 d0 bf
       3.157695757682201 -0.26074970566616695
000720 15 e9 e5 28 f2 70 08 40 9b bd 4f a5 2f ab e5 3f
       3.05514938308364 0.6771467427005747
000730 e5 dc eb 13 ef 6c 00 40 47 8d 5f 0c 41 a3 c2 bf
       2.0531903797487865 -0.14560711959993908
000740 b9 57 6d 71 33 2f e7 3f e6 b8 90 73 72 06 e2 bf
       0.7245118346570428 -0.5632869965682203
000750 15 ff a1 22 d6 c8 fd bf 1b 26 5b 2c 20 6c f9 3f
       -1.8615323403209392 1.5888978703172885
000760 90 e8 43 31 fc 39 f5 bf 58 f1 01 8f 00 fa 05 c0
       -1.326656525080157 -2.747071377989567
000770 e3 58 b4 76 a8 5a ee 3f 57 d2 01 ec 1c 30 02 c0
       0.9485666578719044 -2.2734926641517563
000780 3a ba b4 c5 7c 53 09 40 19 52 eb 86 56 f2 09 40
       3.1657653280047073 3.2433290997089554
000790 c9 a5 c0 6a 20 e8 0a 40 45 5e 93 ef ac 42 a0 bf
       3.3633430805245763 -0.03175869392879042
0007a0 8e ab 3c 22 2b 3f 06 c0 b5 80 45 d9 fd ef fb 3f
       -2.7808439898266846 1.7460916983764438
0007b0 e9 b8 c8 ae c7 cd 9e 3f 2b 67 ea 77 ea 3b 08 40
       0.030081863444302668 3.0292558067711943
0007c0 ac 13 96 c9 c3 0f 09 40 7a 07 d9 b3 23 a6 06 40
       3.1326976536679094 2.8311227846724565
0007d0 96 89 df d8 f6 01 f6 bf 27 9b af a5 03 97 e8 bf
       -1.3754795524224384 -0.7684343563131265
0007e0 36 1f 84 66 42 69 ff 3f 37 4f e5 db 6a c0 f7 bf
       1.9631980900321202 -1.4844769086530059
0007f0 c3 27 de 35 83 42 fd bf 18 e7 b7 8b 65 3c c0 3f
       -1.8287384132586204 0.12684315988718065
