results/vqe_data/with_params/10q7l/sgd_10q_7l_42/parameters/params_ite838.npy (npy, 2448 bytes, 1 tensors)

array f8 [290]
000000 56 6c 47 f3 08 51 e6 bf d0 72 fb 53 4e 1e 08 40
       -0.697391963152209 3.014797836409663
000010 6a 50 80 f9 62 a3 fe 3f ca a6 89 a5 23 3f a4 bf
       1.9148893114225083 -0.039544214207877085
000020 68 b3 3c b6 88 15 04 c0 c5 12 55 a2 0f 86 03 c0
       -2.510514663436357 -2.4404595071995083
000030 34 c3 98 a2 c8 da 06 c0 9c e8 56 70 48 c5 06 40
       -2.8568279936665935 2.8463295723459634
000040 fe 4a c3 47 29 4f a6 3f d4 48 16 ad a7 d3 f0 3f
       0.04357270241748344 1.0516735802853434
000050 5d c6 ac 9c e7 2d 0a c0 d7 96 33 ec 58 c0 0a 40
       -3.272414421103163 3.3439196065181522
000060 69 19 24 9c 0a b8 06 40 09 1c a7 e9 b0 88 f9 bf
       2.839863986827528 -1.5958718421040905
000070 4c 2a 1a 3d 3c 26 02 c0 71 2b a4 e3 99 f1 f2 bf
       -2.2686695836648934 -1.1839846508252914
000080 c6 90 2d e8 3f 2f d1 bf e4 70 c3 ed 6f ee b7 3f
       -0.2685088889468371 0.09348201327106015
000090 40 9a 62 1b 8b fe e0 bf 1b 86 28 f5 9d b2 ef bf
       -0.5310721907488372 -0.9905538357017493
0000a0 8d c2 6b f9 24 8d e7 3f 47 d9 32 a9 2a 53 00 c0
       0.7359795447828944 -2.040608713020592
0000b0 ba 1d 67 87 7a de eb bf d4 c9 79 11 5c 25 de bf
       -0.8709080357156644 -0.4710302515660747
0000c0 dc 98 c4 02 0a ba cf 3f 1a e3 04 7b 6c 72 f9 3f
       0.24786496291307614 1.5904354863579955
0000d0 ae 5a 2f a1 7f 92 01 c0 4c 70 af 61 f4 47 d0 bf
       -2.1965324966980324 -0.25439176120358264
0000e0 83 44 27 cf ad cf da 3f 35 d4 0f 59 c9 6a 03 c0
       0.4189257166845623 -2.427141853137551
0000f0 a6 a5 45 4b da 74 e5 3f 89 b6 00 ac 69 94 00 c0
       0.6705142469556236 -2.07246717812706
000100 ea a0 9b 4b ae 51 fe bf 39 0c 39 07 e2 d7 07 40
       -1.8949416116175208 2.9804115833553877
000110 b0 7f 30 01 1b c4 03 40 0a ef d7 ca 24 ff fc 3f
       2.470754632275167 1.8122909473012805
000120 7c d2 24 f2 31 01 fa bf 5a 7b 0a b8 b1 b7 02 c0
       -1.6252917727225897 -2.3396944406698994
000130 2f 27 4a 5f 2d 4b ed 3f f8 ae 73 a4 99 0b e6 bf
       0.9154269086004428 -0.6889160358382176
000140 e9 cd 45 d1 91 3d 01 c0 81 6c 87 76 6c 7b c6 bf
       -2.155063281004676 -0.17564159190701292
000150 fb cc 49 f7 0d 52 08 c0 d5 f1 10 79 97 a6 02 40
       -3.040065700473517 2.3313435991569613
000160 b7 c7 be d2 44 f5 00 c0 6c fe d6 c7 57 35 e1 3f
       -2.1197601761313893 0.5377615836259344
000170 d7 38 5c 66 48 04 e5 bf 94 e3 4e c2 1c 5e a2 bf
       -0.6567728041861994 -0.03587427017141134
000180 76 0d 8f b4 68 4c b1 3f 2b 50 2d ba 89 ec f7 bf
       0.06757215889142806 -1.4952485344447364
000190 48 e3 8f bc 9b 5f 0d 40 11 e7 a5 d0 72 35 fc 3f
       3.671683762684925 1.763048949271653
0001a0 7f 37 cf 4d ab a5 06 40 0d f7 4d da e8 b7 07 40
       2.830893142591719 2.964799600128464
0001b0 fe 8d 95 58 99 7e e3 3f 78 a6 19 08 21 13 07 40
       0.6092039804611316 2.8843403466060487
0001c0 20 da f2 1e 7d 9b 09 c0 2d df 4c 41 2f b8 f0 bf
       -3.2009222429144444 -1.0449669409553721
0001d0 65 eb b4 35 2d cf 08 c0 9b bb 98 f4 97 77 f0 bf
       -3.101160449584699 -1.0291976503901654
0001e0 a0 6f 45 07 11 1d f4 bf 97 fa c5 00 9e f7 e8 bf
       -1.2570963176758383 -0.7802267088989819
0001f0 b9 9a 8a 3c f3 dc 05 40 99 27 44 72 68 39 f0 bf
       2.732885811786528 -1.0140156234287814
000200 eb 73 22 f2 34 ac f3 bf ec 79 26 e5 d6 b9 cd bf
       -1.2295426805860596 -0.23223386944751157
000210 f6 4c 5a 55 a5 8b 00 c0 34 0f 4a 6f 2f 50 00 40
       -2.068186442201859 2.0391529745556003
000220 2a f7 73 a9 26 2c 08 c0 fe 64 73 63 ec 9c 08 40
       -3.0215581167712076 3.076622750243245
000230 5a 4a 9b 74 b6 ab f0 3f 09 39 67 f4 b4 0b f4 bf
       1.0419220499940338 -1.2528581187248753
000240 05 d7 f5 94 61 a6 06 c0 e5 1e 1b c9 ff fb f6 3f
       -2.8312408101581945 1.4365232330036914
000250 a3 27 60 d6 27 9b e0 3f dc 2f 8a 50 e3 fb f5 3f
       0.5189398943923503 1.3739960809789329
000260 73 e9 85 83 ad 39 e3 3f 0f 24 6b f2 7b ea 05 c0
       0.6007907456217211 -2.7394942225405496
000270 56 0e f7 e6 1b cd e8 bf 6a c8 fc 78 6e 21 05 c0
       -0.7750377188717248 -2.6413239910262307
000280 c5 ea 13 52 fc d7 f8 3f f3 f6 ca 51 2a 07 ed 3f
       1.5527308660663703 0.9071246716991638
000290 42 6e 14 53 53 4c dc bf 97 e4 8c 86 6b 3a 07 c0
       -0.44215853799116556 -2.903525401282035
0002a0 c2 c6 01 ff 0a 3b fb bf 63 27 a1 43 49 56 01 c0
       -1.7019147835930402 -2.1671319278292898
0002b0 37 60 ac 2a 40 54 e9 3f 1e 76 32 d9 77 5a ed 3f
       0.7915345033134206 0.9172934763079785
0002c0 df fa b3 e3 3f 9c 07 40 74 ac 1d 33 ab c7 a3 bf
       2.951293734483769 -0.03863272665952247
0002d0 6f 17 0f 26 9c fe f9 bf 85 c0 ef 9d 1e af f9 3f
       -1.6246606337240015 1.6052538079639203
0002e0 77 df 27 3a 86 d4 f8 3f 2f ac 14 84 7e 0d db 3f
       1.551885821505463 0.4226986207820031
0002f0 f6 a7 f4 16 4e b3 fa 3f bf 39 71 b9 9e cd d1 bf
       1.668775643988281 -0.2781750498733366
000300 7d 14 e3 e0 3a b5 ce 3f 7c c4 72 6e b9 7e f1 bf
       0.23990570050060347 -1.0934385599505552
000310 f0 38 a0 90 be 6a 08 c0 8a ae a7 6c d0 a4 06 c0
       -3.0521212862869262 -2.830475663058512
000320 22 99 b1 01 d1 60 01 c0 61 26 91 aa 93 d0 bb bf
       -2.1722736484836256 -0.10865137972100448
000330 b1 1d 51 c1 fc cb f2 bf 13 0a 10 a7 e1 1d b4 3f
       -1.1748015929641549 0.07858095482519216
000340 c8 b1 e0 40 30 c3 02 40 a8 ee 3a a5 e2 02 f6 bf
       2.3453068798610026 -1.3757044271759842
000350 f1 5b 6f 38 e1 d5 f3 bf a2 97 d1 6b c2 c8 f6 3f
       -1.239716740082937 1.4240135394734144
000360 7e 6d b1 82 17 58 fd bf 18 62 0c 82 43 e4 08 c0
       -1.834006796378929 -3.111456886294274
000370 54 4e a4 70 b6 7f f5 bf 6a ca d1 57 69 64 00 c0
       -1.343679847724066 -2.0490290509126696
000380 de 1d 94 db 8a e4 01 40 f2 f8 6c 79 3e b0 ff 3f
       2.2365929750992413 1.980528330153501
000390 45 68 96 fb 8b ae f0 3f f0 29 a5 43 35 09 07 40
       1.0426139667165597 2.879496124723339
0003a0 aa 10 6b 60 86 eb f3 3f 2f 08 f4 a8 f2 4a fc bf
       1.2450011984192693 -1.768297824834473
0003b0 40 b1 93 f4 f4 c2 02 40 9f 7e 5c ba b3 df e0 3f
       2.345193777806486 0.527307380663803
0003c0 46 0b 36 1a f6 6b f8 3f 1f b7 3a 15 4e 53 07 40
       1.526357748400828 2.9156762751143925
0003d0 c5 11 7b 30 a4 2a f8 bf e9 5b 7c 14 93 4b 04 c0
       -1.5104104894427206 -2.5369016266299593
0003e0 47 3e 47 f7 5e 68 f8 bf 20 bc ef f1 76 6d ba 3f
       -1.525481191569172 0.1032327976861187
0003f0 a1 47 c0 08 a4 72 04 40 f1 b8 cf 9e f3 4d 06 40
       2.5559769328765047 2.788062325205026
000400 75 17 e0 5a 61 75 0a c0 bb 8c 15 5a 41 1e d8 bf
       -3.3073145961415613 -0.37684663579257077
000410 84 81 a3 b4 1f a4 c3 3f c9 68 93 9e 74 b5 fe bf
       0.15344616241692333 -1.9193006700866582
000420 c7 fe 10 0b 9f 7b fb bf 60 9f 51 83 c9 35 eb bf
       -1.717680972316815 -0.8503158154316957
000430 2f 53 c1 ab cf 97 04 40 6b 45 55 b7 f1 97 ec bf
       2.5741265695927704 -0.8935478764271186
000440 45 2e 65 23 e8 23 e9 bf 60 ee 90 8b 0c 91 e7 3f
       -0.7856331530869701 0.7364561773205871
000450 8b a4 5b 64 89 d9 e9 bf 83 79 dd 59 27 2a 0e 40
       -0.8078047714344775 3.7705828686441136
000460 a1 9c e1 31 02 98 08 40 42 43 65 eb 37 4b 00 c0
       3.0742229363418834 -2.036727751758378
000470 eb e1 32 f6 90 51 df 3f 04 df 08 ab 0a fb d5 bf
       0.4893534092221034 -0.34344736769297435
000480 bf 27 4b b9 9d 49 f9 bf 56 ca e8 c5 aa 5e 06 c0
       -1.580472682765034 -2.7962241613070473
000490 a9 d1 48 87 e1 7c b7 3f ee 71 95 4e 95 6f e3 3f
       0.09174928238718984 0.6073709997977497
0004a0 c6 d5 a5 4c c5 e7 09 c0 da 40 4b dc d2 31 eb bf
       -3.2381692875012247 -0.8498319914451955
0004b0 3f 8a 14 d5 6d ac 01 40 c0 74 27 a6 4b b8 fc bf
       2.209193863572437 -1.7949940195460812
0004c0 33 27 d9 6a c3 33 fe bf 66 88 01 99 e2 22 e1 bf
       -1.8876375364074647 -0.5355084408186144
0004d0 c0 9c 1b 2c 38 81 0f 40 f1 39 b9 5a 1e 3e ee bf
       3.9380954214026076 -0.9450828334755085
0004e0 fe 6b 0b 64 30 90 db 3f 73 8d 02 78 1f ff fb 3f
       0.43067559976560676 1.7497858703507887
0004f0 5d 06 50 9f ac d5 fe bf b6 61 bb 98 2b 81 e3 3f
       -1.9271665785930943 0.6095178587957466
000500 a3 32 e2 cf 27 1f c2 bf 24 ba 91 8e 8f 45 f6 3f
       -0.14157579088750535 1.391982609664077
000510 a4 c5 a3 f0 9c 31 f3 3f 20 66 d0 12 c2 bc aa bf
       1.1996125602712278 -0.052221360012662865
000520 1d 0b 71 06 bf cb 00 c0 2a f0 40 c6 85 58 07 40
       -2.099485445332347 2.918223904473071
000530 ca cf ee 71 09 6e f4 bf c4 8a 4b 44 f1 ea fe bf
       -1.2768644762518186 -1.9323589961792758
000540 97 a3 8c 5b 1d 8b 0a c0 74 42 41 c2 3c f5 d3 3f
       -3.31792708895632 0.31184309930998855
000550 eb fa e1 1d b3 39 f5 3f 77 82 ab 5f 02 cb 07 c0
       1.3265868346494993 -2.9741256212440095
000560 be d0 fc 9b 7b 13 f2 bf ba a7 db a1 50 83 fd bf
       -1.1297565549148625 -1.8445593187884541
000570 f6 40 54 0e 58 05 f2 3f 0f 99 c4 46 8a 56 02 c0
       1.1263046798449614 -2.2922559288737214
000580 1e 83 4d a1 de da f7 3f bb df 7d 11 0d 0b e5 bf
       1.4909349728479309 -0.6575990049013777
000590 ae 0b c8 99 a5 b0 fa 3f 02 20 a0 64 d0 1e 08 c0
       1.6681266791426697 -3.0150459157339364
0005a0 3b f4 17 4b b8 ef dd bf a3 d3 ee 64 39 09 06 c0
       -0.467756341298642 -2.754504002130902
0005b0 d1 28 fa 7d f5 cd 03 40 01 6d e7 e7 a5 72 08 40
       2.4755658952682116 3.055980502843909
0005c0 15 89 25 69 48 a1 f4 bf 6a 38 92 d0 56 d8 f1 3f
       -1.2893756968774757 1.1153171679793794
0005d0 f5 fb ea 14 cb 73 fe 3f 7d fb c0 eb f4 aa 8a bf
       1.9032698456865067 -0.013021386570583488
0005e0 5b 4b 77 1d 54 17 dc bf 42 dd a9 07 a2 80 f8 bf
       -0.43892386319673954 -1.5314045237881406
0005f0 90 63 48 10 20 1d 02 c0 92 38 fc 1a fc 85 02 40
       -2.2642213127223343 2.315422259161161
000600 05 eb 15 5c 24 0c 0a 40 cf f4 ca 2d f8 cb de 3f
       3.2559287256420952 0.4811993071742337
000610 a5 49 99 c6 da c1 f0 bf fb 7f 5d fa 47 42 fb bf
       -1.047327781464085 -1.7036819248096424
000620 50 b8 fb 22 a1 bb fc 3f 6a e1 88 16 c6 cd 00 40
       1.7958079687628192 2.1004754791758176
000630 b0 31 84 8e 7a 66 ff 3f 47 64 19 a7 34 65 05 40
       1.9625192229315012 2.674416833364862
000640 43 f1 53 c1 1e cd d3 3f a9 96 16 9a 11 ab 09 c0
       0.3093945396392607 -3.208529666723582
000650 28 33 c0 88 64 7f fe bf 6c 1f 4b 38 3d cb 08 40
       -1.9061017362429968 3.0992378614354745
000660 7b dc 9d 3c eb ba d4 3f 72 ab 6f af e9 2e 0b c0
       0.32390862388223923 -3.397906656833066
000670 41 db db 84 0b d8 08 c0 76 a2 9b c0 6a 61 f9 3f
       -3.105490720710265 1.586283447623058
000680 9d df df 40 8a b1 04 c0 44 f8 8e 29 92 be 01 c0
       -2.5866894787140624 -2.2180522200351636
000690 26 36 98 9d 18 80 d6 3f 88 42 57 8c dc 72 fd 3f
       0.3515683688172849 1.8405423624100496
0006a0 e8 47 1f 75 50 ac ea 3f 9c 6a b9 9a f0 53 ff bf
       0.8335344588797371 -1.9579931301038078
0006b0 ae d6 59 1a 2c e1 f0 3f 4c 62 c9 1d 53 2e fd bf
       1.0549737004597932 -1.8238097346822029
0006c0 29 65 c9 21 c1 37 f7 bf 7b 13 37 e7 e1 1c ff 3f
       -1.4511119193833315 1.944551375564713
0006d0 83 c8 48 09 5c 98 e0 3f d9 13 74 e6 88 41 06 40
       0.5185985738119289 2.7819993976759005
0006e0 4c cb f8 11 15 7f bd 3f 51 39 30 5a fa c4 aa 3f
       0.11522037209287567 0.052284072408030575
0006f0 4c 57 ea c5 bc 6c 01 c0 c2 b9 2c 26 bf 64 9f bf
       -2.178094431127567 -0.030657755570411067
000700 6d 7a 7c c4 8e 23 f5 bf 07 cf 19 1f 93 60 f7 bf
       -1.3211810755962248 -1.461077805984077
000710 cb 26 e0 ff 03 4c 09 40 fa da bf d9 1f 02 cb bf
       3.162117003467619 -0.21100233204170832
000720 60 83 7d 96 05 2f 08 40 f8 4d 6b b5 8a b2 ed 3f
       3.022959876733168 0.9280446570723475
000730 4a ed 24 fb 1c e1 01 40 29 98 ff 1c 94 c0 d4 bf
       2.234918558182163 -0.32425406295658604
000740 d4 4b 8b 53 bb 7b e8 3f 4f 28 bd 9e 0b 1d e7 bf
       0.7651039725991446 -0.7222955799454754
000750 8f 14 b3 63 b0 df fa bf 01 51 11 15 37 88 f9 3f
       -1.6796115774643885 1.5957556555704857
000760 2f 45 ca fc 8f ee ee bf 1f 1c 64 96 01 95 05 c0
       -0.9666213929469104 -2.6977569340993024
000770 14 4c 2e b9 34 98 ec 3f 48 89 50 89 e7 9b fb bf
       0.8935798279584355 -1.7255626071788175
000780 c0 3a b1 fe 61 37 09 40 f9 f2 ed ed 15 91 09 40
       3.1520423791729115 3.195842608284121
000790 a3 e0 d5 54 90 67 0a 40 eb 65 d4 99 d2 c5 99 bf
       3.3005682590265493 -0.025168696059244693
0007a0 ff 7d b5 00 04 d7 05 c0 2f 5c d6 0e 87 d0 fa 3f
       -2.7299881034266487 1.675910051306129
0007b0 8d a9 9a fd ac c3 8c 3f 2b 14 e7 e6 61 34 09 40
       0.014045096864113283 3.1505773581761978
0007c0 2c 39 1f c6 82 12 09 40 7f e6 48 a1 5f a7 03 40
       3.1340384939459422 2.4567253685352735
0007d0 fc b8 30 91 4d 82 f7 bf d8 04 8c 9f ff d7 e4 bf
       -1.4693122550484636 -0.6513670078421923
0007e0 a4 49 75 bb 99 68 ff 3f cd b3 6c 68 7d 13 f5 bf
       1.963037235506456 -1.3172582701765692
0007f0 42 d9 c4 e2 79 01 ff bf 64 e3 90 0c 16 5b bb bf
       -1.9378603799974177 -0.10685861403261537
