results/vqe_data/with_params/10q7l/sgd_10q_7l_42/parameters/params_ite678.npy (npy, 2448 bytes, 1 tensors)

array f8 [290]
-0.6962284251216487 3.057871229411837 1.8957236195035603 -0.0037049476347411807 -2.5008253703081804 -2.5352181622663847 -2.9530560222090636 2.8550131405649255
0.04495528482212922 1.0778201364188302 -3.2498854626207723 3.4424639176711316 2.8344927121864316 -1.5660327147892719 -2.3396124073038593 -1.2107838392462533
-0.410899562986908 0.09766499577184869 -0.5147387068026963 -0.9841151787943974 0.7199442045135415 -2.099954314434968 -0.8306915536496254 -0.3829166846974055
0.2269444987761107 1.497299597945451 -2.21222226015034 -0.22121743767924254 0.418067626440227 -2.423698519805723 0.5341194379950794 -2.190578138595114
-1.919235108720089 2.845765486988325 2.5672811992039546 1.7882093209989454 -1.619253679983985 -2.4213937416794513 0.9245786873725895 -0.6813837898709775
-2.2508888772210662 -0.1138867826115344 -2.942312141126666 2.2977539704028613 -2.149248956778159 0.571885969262513 -0.6706759981434788 -0.04118604318994693
0.0810749431696456 -1.4902440792103455 3.5751031211743953 1.678779275117124 2.855724524977425 2.9273111435901793 0.7416817054123465 2.8363667112384445
-3.1961258617040103 -1.1902261090304613 -3.09114781691201 -0.9847233289090546 -1.175120416829197 -0.7446457668560914 2.7176587084658212 -0.9451941688908188
-1.2400261253051634 -0.1342128988448529 -2.040273726213402 2.102117987757481 -3.0341667979609745 3.083001272109946 1.082344551556951 -1.2458644318049155
-2.9344648290613202 1.6171952512857724 0.5341907290987346 1.4403521922778608 0.6310946258034505 -2.84270443182151 -0.7743577601444085 -2.695219703898302
1.61359174837812 0.8182208426761788 -0.4540957395859252 -2.8951071690245507 -1.6335632686757289 -2.0450634836384665 0.8521685223758966 0.8935207034886516
2.8490885617131974 -0.05990620491236221 -1.6614438938481428 1.6237354267154842 1.4548322946055587 0.36816957341440837 1.5591373085796834 -0.20732342091623518
0.4287997180306633 -1.080019723939927 -3.057589988419099 -2.8753690094461684 -2.161251957747617 -0.07355972507339863 -1.2146159891362196 0.10888047068593422
2.4066134243092216 -1.3512274294183384 -1.1015490622128352 1.4243297264013624 -1.741247073449948 -3.1471850808984563 -1.4702523367817553 -2.100278346701801
2.279078376613989 1.9052388320773386 1.0094906662858059 2.7500190698548512 1.4255517326050366 -1.7664968196380568 2.2995852935229175 0.5715580510275587
1.499797373900541 2.915064358290324 -1.3950528729973373 -2.5572140606095672 -1.482672499962275 0.12669168779359485 2.5553663063358174 2.798467362509127
-3.354110046662122 -0.34369315595311584 0.2040436298667239 -1.9144782993241687 -1.751895519315785 -0.94438906487069 2.5516250278165282 -1.0099260409149302
-0.7924775902259964 0.793889519751665 -0.7713805812562151 3.7218731216715932 2.9370965589346874 -2.0714239168613626 0.39827668808054245 -0.36760758006379013
-1.525463135207198 -2.788755628834071 0.1220283618112759 0.5494569730992777 -3.247755115977838 -0.7339941734852664 2.107114803115249 -1.81012190943718
-1.9305612906044598 -0.5773940518766223 3.9653423007395627 -1.1028188111866921 0.5546109322903626 1.7889421738565965 -1.8828534380431687 0.6798104495149018
-0.18914046381138572 1.3341423153336478 1.2206123887312563 -0.05086489957680876 -1.9347990916906288 2.8732326030221893 -1.195563490056189 -1.9912069008666078
-3.3150071902962983 0.288335764182728 1.358712652645684 -2.911450957677198 -1.0280057507014522 -1.9161666808249451 1.2037183512198875 -2.23108439000471
1.4770778057270588 -0.5814995549436411 1.7476381530884046 -2.893548782909976 -0.4898642156115447 -2.711956165495097 2.420843768818741 3.0623228739618735
-1.2965095048499935 1.1016383322205232 1.9573711759796812 0.08272212394676 -0.34925509840873403 -1.5776788735317455 -2.330880131607109 2.313491967572153
3.2617452865127348 0.38617564745339916 -0.9913262751739296 -1.5573322656492683 1.8070704870636887 2.181090117586947 1.941053777406382 2.5389824293817966
0.3222130093427275 -3.165671983791581 -1.882259716145279 3.1103489263048534 0.29799873857175574 -3.392853680356139 -3.1060639943738346 1.551479064813423
-2.630733020992868 -2.22583490955355 0.43312456526951393 1.851066842202989 0.7800805878118885 -1.9424629008887206 1.0150023804913713 -1.6244921826586611
-1.411896935648864 1.920848179571609 0.6816100173046118 2.6679452979815017 0.11037330090363838 0.07714259032922932 -2.1790247982969397 -0.03595878910585335
-1.3155723116479703 -1.3528337451784551 3.1611624933950946 -0.1994202459313306 3.024499281942648 0.8533871720524102 2.196182087290161 -0.2722440820609425
0.7633048283226909 -0.6693904747676664 -1.758754628573293 1.582774776793121 -1.0972793685512081 -2.7126124633896733 0.9255909947934069 -1.842316691081762
3.1786022489002654 3.2223819931436197 3.3290883857831064 -0.030266224052226412 -2.7510486113783332 1.6830676081470572 0.027480837571355023 3.1277761189483764
3.1314707477681063 2.582837707383708 -1.4577858385672833 -0.7188932471689196 1.9516369216917013 -1.377870498493448 -1.8759922143186933 -0.002336376098832704
00000000: 992d 8ed5 8047 e6bf 0fa0 ed30 8576 0840
00000010: 525c 404a e254 fe3f 2a5f 969d d659 6ebf
00000020: 86d8 53bb b001 04c0 5646 b975 2048 04c0
00000030: 7526 f5d5 db9f 07c0 4a03 2321 11d7 0640
00000040: 75d3 2f0c 6104 a73f e539 ce53 c03e f13f
00000050: cb9d 0df3 c3ff 09c0 db75 c085 2a8a 0b40
00000060: 80ba dc83 0aad 0640 bbc6 e751 780e f9bf
00000070: bd7c b5b5 86b7 02c0 5d68 01e0 5e5f f3bf
00000080: aa0b 3eae 2d4c dabf 6dd7 cdba 9200 b93f
00000090: 447e f64e bd78 e0bf 8269 8d1d df7d efbf
000000a0: 9b92 aa6d c809 e73f 02bd fcd8 b4cc 00c0
000000b0: 5fa2 ff73 0695 eabf f48e 77fb b481 d8bf
000000c0: a110 2070 840c cd3f a7d5 576c f0f4 f73f
000000d0: 9ea1 9695 a1b2 01c0 e591 115e da50 ccbf
000000e0: 88ef c4b7 9ec1 da3f fa6e af0c bc63 03c0
000000f0: b518 cba5 8117 e13f dfc9 c4d4 4d86 01c0
00000100: c69a 94df 2fb5 febf 5b9a 15b2 20c4 0640
00000110: b1bb b1b9 ca89 0440 427c 8160 819c fc3f
00000120: 8357 f78b 76e8 f9bf be04 9aae 035f 03c0
00000130: 1101 1b0b 2696 ed3f fda6 b060 e5cd e5bf
00000140: d2c1 1407 d201 02c0 3061 c326 af27 bdbf
00000150: 261a a6f2 da89 07c0 5613 69d5 cc61 0240
00000160: 3098 e26f a931 01c0 99c2 e0cd e34c e23f
00000170: f5a0 c782 2d76 e5bf c5dc 1a49 5616 a5bf
00000180: c14d 70d5 53c1 b43f d041 f42c 0ad8 f7bf
00000190: 242c 4aaa cf99 0c40 474a 3da8 47dc fa3f
000001a0: 2f4e 8919 86d8 0640 4c7d d71a 226b 0740
000001b0: 7b33 9945 dbbb e73f 89db c107 e1b0 0640
000001c0: 2d59 8f6f aa91 09c0 3d19 5288 2a0b f3bf
000001d0: 39e9 e5b4 abba 08c0 79b9 a87f da82 efbf
000001e0: ea4a f210 4bcd f2bf 5d0e f85b 23d4 e7bf
000001f0: 0467 54d9 c3bd 0540 e230 78d7 073f eebf
00000200: bef0 65a2 25d7 f3bf 4db8 9e65 e32d c1bf
00000210: 05cc 0708 7b52 00c0 8003 4e3c 23d1 0040
00000220: b8cf fe3d f945 08c0 afe8 2992 fca9 0840
00000230: e30d 3f85 4851 f13f b4a0 dd8a 0fef f3bf
00000240: 12a5 40b2 c879 07c0 644d b820 08e0 f93f
00000250: 55c6 e927 1718 e13f 93e2 88bd ae0b f73f
00000260: cd3a 505b ed31 e43f f1f0 36d2 dbbd 06c0
00000270: 642b e7ec 89c7 e8bf 5e39 1e59 cf8f 05c0
00000280: 6012 c694 45d1 f93f 5864 067a dd2e ea3f
00000290: 1a91 b193 e70f ddbf 3501 8bf2 2d29 07c0
000002a0: be8b ee3c 1323 fabf b3c4 633e 4a5c 00c0
000002b0: b41f c9eb f644 eb3f a60b f9ba b897 ec3f
000002c0: 15ba 9ff1 eeca 0640 e125 daad 06ac aebf
000002d0: 7a77 4331 4695 fabf 0098 b1ff d1fa f93f
000002e0: 9eed 673a fe46 f73f 309e 4c1d 1790 d73f
000002f0: d42b 65f6 39f2 f83f 6ad9 43e8 9289 cabf
00000300: 3472 5e5f 7471 db3f 01b6 15c3 c247 f1bf
00000310: 47b2 66bd f175 08c0 9206 9c77 c100 07c0
00000320: 3189 6777 3e4a 01c0 2335 7e65 cfd4 b2bf
00000330: bd9e e82c 116f f3bf 99e8 c42c 97df bb3f
00000340: 722e fc89 be40 0340 66f5 2ca7 a09e f5bf
00000350: 2c4c d2e8 f19f f1bf e8d4 99f7 0dca f63f
00000360: 6092 2be4 25dc fbbf 0858 275f 6f2d 09c0
00000370: 0286 7550 2786 f7bf 44a6 dcbb 5ecd 00c0
00000380: 729f a471 8d3b 0240 6576 adb6 db7b fe3f
00000390: 5d09 55af df26 f03f 3139 83ff 0900 0640
000003a0: 60b7 6455 0fcf f63f df55 4d2b 9243 fcbf
000003b0: 1259 70f9 8c65 0240 41b9 1d1c 344a e23f
000003c0: dd78 f887 2bff f73f c3bc 2443 0d52 0740
000003d0: 346e 1bf6 2252 f6bf 0084 39a5 2c75 04c0
000003e0: b743 a0cc 06b9 f7bf e8cf dfe7 6e37 c03f
000003f0: ea19 d8e3 6371 0440 5c33 47db 4263 0640
00000400: 71ca eca5 37d5 0ac0 c95e 2b94 11ff d5bf
00000410: e90a 9e06 1a1e ca3f ebfb 47ff b3a1 febf
00000420: 1386 9798 c307 fcbf 753a 8a6a 6f38 eebf
00000430: 4204 f161 ba69 0440 f0bb 5135 a828 f0bf
00000440: 64ac 9af6 f95b e9bf b90e 7ffe 8a67 e93f
00000450: 2e7a 2854 26af e8bf 0287 4b6a 65c6 0d40
00000460: 888c 0e7b 2c7f 0740 ff92 d8b3 4692 00c0
00000470: f92a 8481 5d7d d93f fcae 88f1 e186 d7bf
00000480: 257f 4f08 4c68 f8bf a806 731c 5f4f 06c0
00000490: 63f4 292f 403d bf3f 57a8 40ca 2695 e13f
000004a0: ff54 c408 67fb 09c0 525c 5259 e17c e7bf
000004b0: 3a61 8201 5fdb 0040 67e4 2c64 42f6 fcbf
000004c0: 851d 613c 94e3 febf 72e1 3617 037a e2bf
000004d0: 7cf9 5862 05b9 0f40 f85d 7756 25a5 f1bf
000004e0: 211e 066d 5fbf e13f 3d63 32d4 819f fc3f
000004f0: b8e7 38ed 2a20 febf 72a8 04d8 01c1 e53f
00000500: 3cc8 3535 c135 c8bf 7315 c99c a558 f53f
00000510: 4917 2bdb a087 f33f 34b8 64d0 f60a aabf
00000520: a244 72e4 eff4 febf 0240 fe5f 61fc 0640
00000530: c653 a12e 0721 f3bf 5faa 6cc4 fbdb ffbf
00000540: 9e9e 627d 2285 0ac0 a4a5 5bd9 1774 d23f
00000550: d964 7c7a 49bd f53f 330d b9cc a64a 07c0
00000560: 7bcd 7528 b672 f0bf 873f bd64 9ea8 febf
00000570: f159 812c 6e42 f33f 9f7d cdc5 42d9 01c0
00000580: 2cec 5356 1ca2 f73f 47e3 63f4 a49b e2bf
00000590: c91a 8c6c 53f6 fb3f e4d4 7fe7 fc25 07c0
000005a0: d410 6270 ef59 dfbf 63e5 f712 16b2 05c0
000005b0: 3f6a 7e56 e35d 0340 fcab 8b22 a37f 0840
000005c0: c18a 24c0 80be f4bf 9b83 0e84 4fa0 f13f
000005d0: e273 2f70 6451 ff3f 45ca 01f1 462d b53f
000005e0: 121d 680e 325a d6bf 218b d633 2c3e f9bf
000005f0: 8e30 817b a4a5 02c0 ac3f a213 0882 0240
00000600: 80a2 abe9 0d18 0a40 02bc 1410 1ab7 d83f
00000610: 6633 71e1 f1b8 efbf cf81 df3c d5ea f8bf
00000620: d915 38be c2e9 fc3f 5f51 2560 df72 0140
00000630: 84cd db67 8e0e ff3f f081 1a05 d64f 0440
00000640: a741 5e50 239f d43f 7cfc 41d5 4b53 09c0
00000650: 66c1 365d bc1d febf 4406 2d9e fee1 0840
00000660: 748e 1a4d 6912 d33f 5ef1 6978 9024 0bc0
00000670: 32f3 5814 38d9 08c0 49d6 3cb6 dbd2 f83f
00000680: 8a5f 0dc1 bd0b 05c0 f59e 7688 82ce 01c0
00000690: 5c50 bb18 50b8 db3f 9e8c df43 f89d fd3f
000006a0: 45b0 9c90 6bf6 e83f 5f2a 90fa 5314 ffbf
000006b0: 5229 d922 733d f03f 9606 d283 ebfd f9bf
000006c0: a9f3 be3d 2197 f6bf 8a75 fd4c cbbb fe3f
000006d0: ae60 9ecf bfcf e53f bbc7 52b4 f357 0540
000006e0: d791 bbb5 6c41 bc3f 80bf 97e6 9dbf b33f
000006f0: e8dd ae8d a46e 01c0 ed42 6dbe 3069 a2bf
00000700: 85d1 608d 950c f5bf 7377 47ff 34a5 f5bf
00000710: 3cca b38f 0f4a 0940 49b9 3745 9a86 c9bf
00000720: d5c0 f5ad 2c32 0840 1850 599d f24e eb3f
00000730: 30c7 07ea c791 0140 6ecd 3e71 726c d1bf
00000740: 96cb 503f fe6c e83f 7c31 ac92 a56b e5bf
00000750: 2193 b6e4 db23 fcbf 9829 f4a4 0b53 f93f
00000760: 2a0c a8cf 748e f1bf 5cd8 c729 6eb3 05c0
00000770: 6483 8301 719e ed3f 3d23 1111 217a fdbf
00000780: 4826 1004 c76d 0940 4d2b de35 70c7 0940
00000790: 7a74 7317 f9a1 0a40 b42f e9e9 1bfe 9ebf
000007a0: f79b 3cc6 2502 06c0 472d df4c d8ed fa3f
000007b0: e7e9 8aca ef23 9c3f a2be 607c af05 0940
000007c0: 825b 1089 400d 0940 8bb5 e0d0 a6a9 0440
000007d0: a37e 533e 1753 f7bf f0fb 3c69 2c01 e7bf
000007e0: c04f 05a3 e739 ff3f f470 92ef c10b f6bf
000007f0: 63ca 8069 1004 febf 99c8 f05d bc23 63bf
