results/vqe_data/with_params/10q7l/sgd_10q_7l_42/parameters/params_ite1740.npy (npy, 2448 bytes, 1 tensors)

array f8 [290]
00000000: 3e53 925d af3f e4bf 68b4 7b23 de96 0840
00000010: 61a2 d228 b23e fa3f d81b 1fff 1e31 d2bf
00000020: 9991 4536 24c7 01c0 233e f78e 0f26 02c0
00000030: 0382 81c1 6262 07c0 ca0b c000 8aa7 0640
00000040: e35a 027e 345c 873f 3e1c 3d8f fbbc ef3f
00000050: 2587 5352 eb19 0ac0 ff03 9e85 2189 0a40
00000060: 5b62 4f75 9d73 0540 c220 c2a3 2e2d 02c0
00000070: 91dc 8ea3 85e3 00c0 1ff0 87b8 b4e5 f4bf
00000080: c293 57fc 25ba a43f e807 faa4 efb7 b73f
00000090: 90c5 f64d 234f e6bf c8f8 8af9 3f0e f1bf
000000a0: 56be 8801 3749 e73f b57d 78b6 0a08 fbbf
000000b0: 05d8 b8e6 e0df e0bf 67ea 39c4 0054 e5bf
000000c0: 5ef2 e5a1 9ec2 633f 944e 4506 6538 fc3f
000000d0: d4bd 619c 1af4 00c0 5812 8331 69a9 cfbf
000000e0: d724 7907 3a04 ce3f 6005 664f b3d1 02c0
000000f0: a778 bbd7 7e5e e43f 5b43 785a 2db7 fdbf
00000100: 218d 96a3 8a85 00c0 0e66 99b8 ccf8 0840
00000110: d1b2 d25e ca5a 0440 e4f6 62d7 c58d fa3f
00000120: 3558 24f0 ce42 f7bf b776 82dc 8643 01c0
00000130: e29a 1bff ff04 ec3f 8aa4 01b9 b5f5 e5bf
00000140: f421 6bf0 9cc3 01c0 0e07 1f4e 51db d4bf
00000150: 72e2 0f84 1492 09c0 b826 813e 5346 f83f
00000160: 6cb3 41c3 6f61 01c0 3099 8208 0b05 c43f
00000170: 9061 3331 5913 e6bf b10d 5338 4209 b13f
00000180: b2a1 64de 8315 b5bf 38b4 aab8 7147 f8bf
00000190: 4876 e33e 021a 0e40 8891 344c 7105 0040
000001a0: d2a2 d1df 0d97 0b40 7ad6 3f99 4f27 0c40
000001b0: eaa7 5af6 2e15 cc3f 6de1 79c8 530a 0440
000001c0: ea5e 9cd9 771d 09c0 84b6 e1ba bfb3 e7bf
000001d0: 883f 4477 490e 09c0 6d7e 557c 8b51 efbf
000001e0: 9454 88a3 af6f f8bf f5e4 cdb6 30f8 eebf
000001f0: ffe3 cb4d 522c 0740 cb52 f0ca d816 01c0
00000200: 4aed b98f 3296 f9bf 3262 fd24 8644 e4bf
00000210: a4f6 0957 3aa8 01c0 d169 f0a9 0d86 f83f
00000220: cc1f 73e3 8521 08c0 c41a 29f4 d6d1 0840
00000230: 71ef 32f1 ad78 f83f 1d5c 1469 6b2f f5bf
00000240: a110 1bf0 cbc9 01c0 b1f4 201e 6ee3 f53f
00000250: e865 7c54 830a e73f 9157 bcba e5c9 f13f
00000260: 73a1 0a51 b228 e53f 8ef2 ce00 1ecd 03c0
00000270: e5b7 898a f7ef ebbf 9ec3 a14d 1020 05c0
00000280: f0b2 b434 406f f73f 22dd 9244 20e5 e73f
00000290: df00 72fb 6db2 b4bf 3345 5f6a 09a1 08c0
000002a0: 4c35 a0b4 9000 02c0 e652 a569 5dc5 febf
000002b0: dfb2 0b47 8959 e23f 8bd3 0c9b eae1 e73f
000002c0: 499b 81fd 678e 0640 fbe7 6096 d209 733f
000002d0: 1cdd 7e4e e218 00c0 0e00 966d 15b4 fb3f
000002e0: bb3a cab5 5437 0140 0c40 d13b 3295 f03f
000002f0: 4f8c e058 e89b fc3f 2862 f59c dbc5 cfbf
00000300: 3d2b f5d4 811e e73f f2a5 27ce 2bb1 f4bf
00000310: ad38 8e06 b383 08c0 77e9 ac16 b2e4 06c0
00000320: 40ef 75ca 8f6d 07c0 3e03 973e afd6 863f
00000330: 5101 b024 4fca e9bf 2ab0 e868 1f6f b0bf
00000340: 4035 ea73 111f 0440 4309 343a e63f fabf
00000350: f7dc 1660 f8f2 f5bf b750 d7f8 811f eb3f
00000360: bbef be9c 755b febf 4cdf 6180 77e6 08c0
00000370: a2c5 8db3 d5e3 f5bf cf9b 6fca 98ef febf
00000380: e067 49ae de50 f93f ae30 605b 906b 0440
00000390: 7d22 05a3 4777 fb3f 5319 d2da 9633 0940
000003a0: 4e1f 3a8e 7a46 f53f dcac f432 b7e5 fcbf
000003b0: 70c6 a166 a01a 0340 9ac0 9a60 9c94 d23f
000003c0: d5ca 00de 2dee fb3f 0498 6c6b 2709 0340
000003d0: 1944 669c 9cd1 00c0 4ba5 9c52 21a1 05c0
000003e0: 5fb7 4cc9 5a7b f8bf 8b65 1aba 71d4 ab3f
000003f0: 2d84 a2e0 3e49 0040 9fca 3468 2cb2 0740
00000400: a64e 43b1 c24d 0ac0 4abf e8dc 94ad ddbf
00000410: 0e87 1739 7e74 bdbf 07c0 4a83 662b f9bf
00000420: 2753 bd17 4321 f8bf 74a8 ecd9 09f6 f2bf
00000430: 8a82 114b 185a 0740 a842 86ec a5a9 bfbf
00000440: 2e50 5639 821a e0bf 2c3d 1508 084b 903f
00000450: 2e41 dad1 a6ed f0bf 038c d7cd ac59 0b40
00000460: c7ca b269 78ee 1040 34be 7f23 187f 00c0
00000470: 24f7 0db1 ff19 f23f 5bf2 2c38 1e59 d2bf
00000480: 668d 7e0a 3e80 f9bf 4021 e44c 7627 07c0
00000490: 915f bf6c 34cb 9f3f f611 3bdf a249 ed3f
000004a0: 2c1d 42aa da6e 0ac0 37a1 0b4d fb1a f8bf
000004b0: 6a28 7c44 1550 0340 8547 e696 eb57 fcbf
000004c0: 903c 808f 5861 f0bf ad0b 527a 692d cabf
000004d0: 0186 8297 d259 0f40 9a90 bdfb d6de b83f
000004e0: 8542 9c6e 9e95 d83f eb9b 2a59 7e80 fb3f
000004f0: bd50 e9cb 60d2 01c0 1e8e c37b 38a5 d33f
00000500: e4a5 d52c 8b91 b8bf ad41 0b5d c73a f23f
00000510: f0f6 7e6c 5385 f13f 3193 ffe6 4e00 a5bf
00000520: 157e ea33 560e 05c0 7b14 981d 34c6 0240
00000530: 4ecc d65b 323c fcbf b6b3 d889 de7f fcbf
00000540: 3779 7acf 5f54 09c0 fdd7 32a4 6944 cf3f
00000550: 32d7 bf91 a326 e33f d6dc 79d4 865a 05c0
00000560: c97d 87d2 175d f6bf bdb0 9b68 af2a fcbf
00000570: f00d ebd0 5b99 eb3f 196a 2b9f b20e 02c0
00000580: a1bb 94a7 1caa f93f d147 1c8f 8aa1 e0bf
00000590: 3906 86f5 578d fc3f 9e47 3747 768c 04c0
000005a0: 0e4d 3ee8 2c0a d8bf 6ba3 f55e 0a49 08c0
000005b0: 4d70 6957 5f60 0840 88cb b079 ed65 0940
000005c0: d499 1f18 adb0 f3bf 04fe c52e 8086 f83f
000005d0: 3f88 7bd7 5e6d fc3f 1d8d 65ed 8a95 8dbf
000005e0: ee6f 267c fd21 e5bf f3e3 9a46 50cc f8bf
000005f0: 9d38 b43f 88a0 02c0 4e4d 20f0 6c66 fe3f
00000600: ee04 93a2 272c 0c40 ea32 5e08 a2b0 ed3f
00000610: cf06 9ba5 7369 f2bf bf0e 49fc ad77 01c0
00000620: f4dd c1bf e22a 0040 d745 7f41 7b9f 0040
00000630: c02f 6f56 634e fa3f 4639 a25d 7627 0940
00000640: 4e8b 8fd5 2c59 d43f 5798 e134 7c1e 0bc0
00000650: 7cc4 a398 c9ab f7bf cff5 1b5f a6d2 0840
00000660: 1185 d70a 3d0b b93f a161 b2de 6f8c 0ac0
00000670: eaff 5e13 c93a 09c0 c54e 9968 fb2d f93f
00000680: b70e 25eb 34ea 01c0 a7c6 a20e aa23 00c0
00000690: fbf5 3da3 86c0 de3f 5d64 5850 ce33 ff3f
000006a0: 9331 ce94 7e06 ed3f 7ad4 6fe7 a35f f4bf
000006b0: f499 6389 6f53 f33f a685 b390 39cd 02c0
000006c0: 1a3c 9b3d 7fc5 f7bf 2b54 b78e 167d ff3f
000006d0: 5ee3 bbad 6b25 cb3f 0854 610e 5045 0940
000006e0: a13b 874e fb7b c43f dec2 bf37 609f b33f
000006f0: a577 f3bf f8e3 06c0 2d47 24eb 79bc a6bf
00000700: f5c5 37a3 b85f f1bf abce 3af2 b23d f8bf
00000710: 2c88 d833 3e23 0940 3f1f 7320 2c22 cdbf
00000720: 2afe 673a 712c 0840 7212 c7b3 6206 f93f
00000730: 4102 3405 8e6c 0040 075b a8f4 6cf1 d7bf
00000740: 2fa8 54d1 5d01 eb3f 967f 5029 fe17 e4bf
00000750: 1e42 1e32 71f3 f5bf aefb 660b bdcb f93f
00000760: 840a a9dc c4d4 e5bf 3e93 0a1b 2ec1 04c0
00000770: 7e4f e751 4925 e43f 8ad8 1c9d 56e2 f8bf
00000780: 6b42 8134 9d04 0940 54f9 c883 4c22 0940
00000790: ae11 a4bb 1b70 0d40 86ef 8155 c88b 8b3f
000007a0: 79c6 3205 4eea 06c0 9c1d 609b bd0a f93f
000007b0: 3385 b62e 186e 903f 3caf 161e f019 0940
000007c0: b51f 1a57 db27 0940 0518 eb35 3dac 0240
000007d0: db7d 8338 506a f5bf 8850 0ce1 2386 dfbf
000007e0: aab8 8be9 6fe2 0240 2541 45c7 c32e f0bf
000007f0: 4537 c729 8bda f6bf 2d40 964f 1edf ddbf
-0.6327740504808401 3.0736658832670862 1.6403066248550646 -0.2842481128140526 -2.2222370376568503 -2.268584362907647 -2.9230399243972456 2.831806188450604
0.011406335921760163 0.9918191716796014 -3.262655871557302 3.3169584692809617 2.6814526715136657 -2.272061614381614 -2.111094739720621 -1.306080551933526
0.040482699445227435 0.09265039232016614 -0.6971603892072142 -1.0659789798515238 0.7276873617137862 -1.6894633414993738 -0.5273289209642377 -0.666504271749841
0.0024121378220896402 1.7637682194662476 -2.1191913811996788 -0.24735751073434886 0.23450398793128244 -2.3523927882203424 0.6365350926896739 -1.8572209867454237
-2.0652058391875845 3.121484224492412 2.5443313034105377 1.659612504342868 -1.4538106327577343 -2.1579720713915225 0.8756103499007077 -0.6862438786894398
-2.220514181394032 -0.32588608387969564 -3.1963281934115964 1.5171692315656582 -2.1725764517236055 0.15640390315565744 -0.6898618660880391 0.06654752612217042
-0.0823595445587049 -1.5174424375102387 3.762699595753279 2.0026575044195774 3.4487569318629108 3.519194791088748 0.21939646748552316 2.5050426160998343
-3.1393887520642823 -0.7406920099289924 -3.1319760625555695 -0.9787042072675384 -1.527267111586558 -0.9677966661830896 2.8966413572165943 -2.1361556868163
-1.5991693128879256 -0.6333647463280327 -2.2071425247111893 1.5327278745886483 -3.016368653250515 3.1024607729953875 1.5294627591929066 -1.3240770439786111
-2.223533511949498 1.368024938288084 0.7200333261600322 1.1117913526881902 0.6612178404657655 -2.4751548827319487 -0.8730428415126396 -2.6406560959807868
1.4646608408758617 0.7467194880800074 -0.08084761990358257 -3.0786312399219695 -2.2502760039703045 -1.9231847883976854 0.5734297168360988 0.7463276890108416
2.8195342831781187 0.004648039443106096 -2.012150395628522 1.7314657479000775 2.152017040475895 1.0364248596779388 1.7880633804095571 -0.2482256428145473
0.7224740180330184 -1.2932546666073645 -3.0643063079979442 -2.8616678020018145 -2.9284969155541205 0.011151665780631977 -0.8059459415963294 -0.06419559775594111
2.5151700073098766 -1.6406004212918368 -1.37181890044104 0.8475961551835302 -1.897328960693797 -3.1125326185100786 -1.3681237233944121 -1.9334953220038533
1.5822436149669485 2.5525214327554613 1.7166210525485035 3.1501900763861754 1.3297067218536145 -1.8060829153499105 2.3880012529487473 0.2903204863932928
1.7456492111202142 2.3794697182192994 -2.1023494929036244 -2.703676839261481 -1.5301158774631956 0.05435519596830848 2.0357644605251353 2.9619987622366604
-3.287969002596429 -0.4637195737186529 -0.11505879300923658 -1.5730958107560598 -1.5081206252409147 -1.1850679886506699 2.918991648170338 -0.12368237518809144
-0.5032359237543511 0.015911221974701892 -1.0580204198232184 3.418786628857107 4.23288121370087 -2.0620577596053185 1.1313473621552896 -0.28668933378120237
-1.593809166902099 -2.8942686087722507 0.031048602235244586 0.9152387962317892 -3.304128008024824 -1.506587315520006 2.414103064574239 -1.7714649099839062
-1.0237660985474442 -0.20451086495094498 3.918858703299293 0.09715026517875672 0.38413201143070125 1.718870495134747 -2.2277236872269826 0.30695926748578184
-0.09597081989854633 1.139350284054767 1.095050262272192 -0.0410179764728923 -2.6320003562866625 2.346779090121854 -1.7646964633429607 -1.7812180885914422
-3.1661983689547486 0.2442752887488381 0.5984666678111579 -2.669202480286553 -1.3977277969168986 -1.7604211889511554 0.8624705391343337 -2.257176631462482
1.6040312334186881 -0.5197193904043563 1.7845077124369608 -2.568584972738747 -0.3756210582734675 -3.035664312239921 3.0470568493892984 3.1747693545416418
-1.230633825523559 1.5328370883070201 1.7767017762457866 -0.014445386285564294 -0.6603991913611915 -1.5498812444695858 -2.3283848740457658 1.900006235115899
3.52155997286956 0.9278116382061772 -1.1507450551002198 -2.183437319736043 2.020940301994182 2.077871810623701 1.6441377045002668 3.144268733513999
0.31794281821764947 -3.3898853427263407 -1.479440304039854 3.102856390991952 0.09782773508733934 -3.3185727499187156 -3.1537038339010808 1.5737260900395296
-2.239358746593861 -2.017414202063111 0.48050085012059157 1.950147928093677 0.9070427805286719 -1.2733496704579736 1.2078700415382828 -2.350207453230456
-1.485717049264855 1.9680390906189682 0.2120794866857762 3.158844101281378 0.16003362020861991 0.07665063248692713 -2.8613142963576643 -0.04440670962698188
-1.0858694434831453 -1.5150632345293313 3.142208485646753 -0.22760535797555723 3.021700340555772 1.5640589735568509 2.053005257272418 -0.3741104497179752
0.8439168060770096 -0.6279288107798375 -1.3719341237775846 1.6122408337975958 -0.6822227773448764 -2.5943262207605633 0.6295515632323114 -1.5552583825315502
3.1272529699274876 3.1417475028712634 3.6797403964466957 0.013450207814677883 -2.8644066244240176 1.565122229514464 0.016044977046140118 3.137665019099499
3.144461327061402 2.334101124989504 -1.3384554107250242 -0.492562265180148 2.3605650182499476 -1.0114171775822538 -1.4283553726158555 -0.46674306652221526
