results/vqe_data/with_params/10q7l/sgd_10q_7l_42/parameters/params_ite1764.npy (npy, 2448 bytes, 1 tensors)

array f8 [290]
0	0xbfe42351eff0868c	-0.629311531669559
1	0x40088fc0f5e97c67	3.0701922618750817
2	0x3ffa38013b8fcc0a	1.6386730505589662
3	0xbfd260f580ab1a1a	-0.28716790738363474
4	0xc001b91b6c96b608	-2.2153843387120595
5	0xc00228118d7fe422	-2.269564729180744
6	0xc0075ecbf0a3da2e	-2.9212874221805327
7	0x4006a1db63128e71	2.8290317287481277
8	0x3f85e29cef2dd2cd	0.010686136292613746
9	0x3fefaa87a256efcb	0.9895666285224193
10	0xc00a0ed8593aee37	-3.2572485896214647
11	0x400a9bc6a7ef985e	3.326062499999394
12	0x4005758551101028	2.6823831875826905
13	0xc00213284b209902	-2.259354197437575
14	0xc000d2edcabee984	-2.1029926146995326
15	0xbff4d1be91e33a08	-1.301207132218794
16	0x3fa270d9392ff962	0.03601721594894759
17	0x3fb7f34c78c7ec88	0.09355619381669744
18	0xbfe65c570cf37384	-0.6987719777058463
19	0xbff11c0ea33a2512	-1.0693498970088666
20	0x3fe7550bf96df009	0.729131686369784
21	0xbffb358b46fe48b0	-1.7005722783256196
22	0xbfe09c8b1946625e	-0.5191092961932318
23	0xbfe56e1193abad6e	-0.6696861156646443
24	0xbf83a61ecf6a7366	-0.00959419317705974
25	0x3ffc0a66279de8d8	1.7525388286144814
26	0xc000e985abce7604	-2.114024488676252
27	0xbfcfb47d680a6c57	-0.24769561367142742
28	0x3fcc6ad5991aa1a5	0.22201032615454355
29	0xc002d7314f8f2c04	-2.3550745215957267
30	0x3fe3b4a134973aee	0.615799524990363
31	0xbffdafa03d6467f4	-1.8553774259694338
32	0xc0007c4af6c4f944	-2.060689857374344
33	0x400908a708f930c3	3.129224844078722
34	0x400476410a7d4069	2.55774124331224
35	0x3ffa61f5bfa53f7d	1.6489160047676414
36	0xbff6ffc86b947745	-1.4374469950048063
37	0xc0014b64c7e17996	-2.1618133178410046
38	0x3fec186deb26c858	0.8779821007540347
39	0xbfe5e61d92895c40	-0.6843402730982078
40	0xc001d99f2b4a4cc0	-2.2312606222199918
41	0xbfd48156d3abb20d	-0.3203942362877406
42	0xc00995a3653ec1f4	-3.198065558412276
43	0x3ff80a03ed760f90	1.5024451518847606
44	0xc001655f9002ed20	-2.174498677338889
45	0x3fc3d19a391f2377	0.15483405865804986
46	0xbfe61b2b13bcff85	-0.6908164392007029
47	0x3fb181f1da3d4963	0.06838904932127358
48	0xbfb57ee77867e6e5	-0.08396765412899361
49	0xbff84c13dce4772c	-1.5185736302004882
50	0x400e214cd70d14e4	3.766259842001647
51	0x4000136b36ddb3e2	2.00948183883746
52	0x400b842f3acddc0e	3.4395432085107194
53	0x400c339b318ed2ea	3.5251983520232573
54	0x3fcf7f1053582467	0.24606517858072438
55	0x4003f6508b707ae7	2.4952708142949294
56	0xc00928a0b9dc8f12	-3.1448378105577683
57	0xbfe7f908134b40e3	-0.7491493584475645
58	0xc00905132a1d37a1	-3.127477959648744
59	0xbfef0817197cbc27	-0.9697375772283338
60	0xbff850e890a257ae	-1.5197530412456035
61	0xbfeedb2414dcb2d6	-0.9642506034338918
62	0x400722da7829a9c1	2.8920182597841806
63	0xc001244ac56037c0	-2.1427207393635115
64	0xbff9970a599bfe0b	-1.5993751049389882
65	0xbfe494c4d6a5103e	-0.6431602661400644
66	0xc001b36dd5797e7f	-2.212611835260588
67	0x3ff863c910734ac2	1.5243616716949622
68	0xc00833fd6a34e30e	-3.025385694254857
69	0x4008d129dc700a7c	3.1021306249324976
70	0x3ff874340fb602e8	1.5283699620924214
71	0xbff53acb15e607d9	-1.3268538337147133
72	0xc001df63f9a90e7e	-2.234077406379412
73	0x3ff5c009c5e8a5c8	1.3593843203365044
74	0x3fe78768be64195a	0.7352794378828478
75	0x3ff1865ae0270cbe	1.0953015094717524
76	0x3fe4ff07c76dd137	0.6561316390130177
77	0xc003cd2ffc13a152	-2.4751891797533654
78	0xbfec2e684a11331b	-0.880664963400338
79	0xc005303157b1841a	-2.648531613449916
80	0x3ff75f6aaef21ec6	1.4607951005763637
81	0x3fe80f6db5143c5a	0.7518833672237506
82	0xbfb590b99778bf8a	-0.08423957775153049
83	0xc008a3347d6a5641	-3.079689960296293
84	0xc0020d8b569e6e34	-2.256613423070826
85	0xbffe589e523550ed	-1.8966353617916483
86	0x3fe27dbf2077b9e9	0.5778499254354844
87	0x3fe780e150e34808	0.7344824390258973
88	0x4006990353848132	2.8247133755504814
89	0x3f72d2ff71568065	0.004595754454754884
90	0xc0001e6386ff16e8	-2.0148382708165293
91	0x3ffbb5ba780f090a	1.73186728380148
92	0x400144abbe1eb45d	2.158530698120144
93	0x3ff0bf782aba22e6	1.0467454594638013
94	0x3ffcc14ab75f238e	1.7971903956369917
95	0xbfd06e5c8a463ac2	-0.25673593047478616
96	0x3fe81634e343eb2e	0.7527107657218488
97	0xbff496d05c15156f	-1.2868198010413285
98	0xc00889a7089f8da0	-3.0672131227199344
99	0xc006fa1cbfd076fc	-2.8721251473897365
100	0xc0078c230672ba41	-2.9434261802446433
101	0x3f83f6dfe2deaa23	0.009748219595924706
102	0xbfe9bcd886b98b38	-0.8043024665206309
103	0xbfb0c46d9123d5bb	-0.06549725335556549
104	0x40042b4bab91444e	2.5211404231745638
105	0xbffa67d64e1026bc	-1.6503508614863867
106	0xbff60059190e60c7	-1.3750849703556456
107	0x3feae58b048e330a	0.8405203904127074
108	0xbffe42680bdb611b	-1.8912125075494888
109	0xc008e1e4da604bf2	-3.110299783767453
110	0xbff5bda5c561a59d	-1.3588006696903456
111	0xbffef2e19d8b1ecb	-1.9342971948662349
112	0x3ff952c369675f75	1.582705890401454
113	0x40046cf92e152591	2.553209648151729
114	0x3ffbcdaac67c516d	1.7377116921753342
115	0x4009421d79e94001	3.1572827839190727
116	0x3ff54c7cf739f844	1.3311738641055095
117	0xbffcdbbcd4dc8e2a	-1.80364688061753
118	0x400312525d5806f5	2.383946160553814
119	0x3fd1ebaae55267aa	0.28000900644985427
120	0x3ffbbf459ddf3a65	1.7341972510218053
121	0x4002fe36d7cc4e21	2.374128042147064
122	0xc000cf3ae5485c97	-2.101186553259662
123	0xc005accbc83dd373	-2.709373058687953
124	0xbff8eb39a516e50d	-1.5574280213170966
125	0x3fab55fc2a703b04	0.053390388660878
126	0x4000384fafdb153a	2.0274957407697487
127	0x4007c380ef57f13f	2.9704607676232224
128	0xc00a3f81cc89fc37	-3.281009290657973
129	0xbfde1c96a8983d22	-0.4704949041778993
130	0xbfbc6959e97d5259	-0.11098253202846688
131	0xbff93edaadf11859	-1.5778452677345938
132	0xbff8141b76e66826	-1.5049090046436588
133	0xbff2eb54fcaa5a37	-1.182454096769687
134	0x40075b5da5d6033f	2.919612212747239
135	0xbfbdda78f118c2b2	-0.11661487470770274
136	0xbfdfdcf4171cd555	-0.49786093003361503
137	0x3f7e8e88646c1475	0.007460148603745433
138	0xbff0e689c7047753	-1.0562837385291075
139	0x400b1cc1215d55a7	3.3890402418716863
140	0x4010ee7c15b66707	4.232895221002543
141	0xc0007da38fb8cb6b	-2.0613471248884045
142	0x3ff21ba0630252f6	1.1317447536031842
143	0xbfd2625beed09c8f	-0.2872533638168954
144	0xbff9ac83a74032da	-1.6046177418931422
145	0xc007267afee31767	-2.893789283089905
146	0x3f9fd05dca821028	0.03106829212676146
147	0x3fedc01afaec786c	0.9297003651479492
148	0xc00a6bf3e62511e7	-3.3027112941801877
149	0xbff844bf89826b45	-1.516784226557051
150	0x400352dc798c0a3f	2.415459584795172
151	0xbffc62e5453008d5	-1.7741444304124816
152	0xbff041be14594e3c	-1.0160504145504907
153	0xbfc82be17e53c07e	-0.18883913677519
154	0x400f75b8f79c9779	3.932481703249263
155	0x3fbbaed5689f8221	0.10813649944567107
156	0x3fd86d267e08415f	0.38166200931393307
157	0x3ffb7e941a2cbbe1	1.7184029600573398
158	0xc001d9720b9ba2ed	-2.2311745554801434
159	0x3fd31aefde0bcd66	0.2985191028994535
160	0xbfb8b2fff2d5898b	-0.09648132017676951
161	0x3ff241039dbe77de	1.1408725892902036
162	0x3ff15dc844f89a6a	1.085396069925674
163	0xbfa50e19a20c08d4	-0.04112320044625198
164	0xc0050e50bca78500	-2.6319899309752373
165	0x4002bf8e04cea802	2.343532598072671
166	0xbffc371c8d9bdee1	-1.7634549647900075
167	0xbffc61cfa1f18e55	-1.7738796544953364
168	0xc0094ad4e46cafd9	-3.1615388723057376
169	0x3fcf4224d5339836	0.244206050970378
170	0x3fe2f83f89db08e8	0.5928037350170401
171	0xc00555cdfea5b5f7	-2.666896809990017
172	0xbff677606ea0065a	-1.4041446992199753
173	0xbffc4303540e6e2c	-1.7663605960323236
174	0x3feb5d3496b75b2b	0.8551276153255903
175	0xc00208eb5d43ac33	-2.25435517180224
176	0x3ff993916166fc6c	1.5985273175026817
177	0xbfe0b4145cb4801a	-0.521982365669831
178	0x3ffc8dabe820b32d	1.784587771176301
179	0xc0045e1ed20fe929	-2.5459572230439744
180	0xbfd81d18ddd114f3	-0.3767759481600727
181	0xc0084b962f954ac8	-3.0369075505671823
182	0x40085d5e8b022985	3.0455904827151152
183	0x400966f51bf4f543	3.175272196209933
184	0xbff37b506708d63f	-1.217605974653807
185	0x3ff88ba86fb5db80	1.5340961803137532
186	0x3ffc78480b83f198	1.7793655824490084
187	0xbf8b259e90c44c30	-0.013255347054416416
188	0xbfe56ead32fde83c	-0.6697603221830444
189	0xbff8d02e957d3f5a	-1.5508256759093997
190	0xc002b4e453670fb7	-2.338326121885952
191	0x3ffe3de3bbae5919	1.890109761361208
192	0x400c36f5ab4dcdef	3.526835764228728
193	0x3fedc8cd337187d4	0.9307619099383779
194	0xbff25b7d21c9a4ce	-1.1473361320334337
195	0xc0019d672f1efb09	-2.201856964238122
196	0x40002550bf34fc60	2.01822041874361
197	0x40009ae7a03e7727	2.0756371039450587
198	0x3ffa3a131031b710	1.6391783363901062
199	0x40092ca9a20258ab	3.14680792398129
200	0x3fd43aa13b8450cd	0.3160784798831287
201	0xc00b18f0a9064790	-3.3871777730027546
202	0xbff7ab4f958bc60e	-1.4793239442482249
203	0x4008d452588d4cac	3.10367268735134
204	0x3fb98c8c87ddec10	0.09980085675299244
205	0xc00a8a7fd31c2ab4	-3.317626618668635
206	0xc0093ddcce92a69c	-3.1552063120369223
207	0x3ff935e5c7e3af3f	1.5756585891894728
208	0xc001c23e4d59583d	-2.219845394410213
209	0xc000257345e8acde	-2.018286272204576
210	0x3fdf5abf0da6b3d8	0.4899137147247621
211	0x3fff26ce50e8f110	1.9469741020721507
212	0x3fece2628211f5eb	0.902634862941054
213	0xbff41942ed92f275	-1.2561673431620453
214	0x3ff358ba22be62bf	1.2091618878531987
215	0xc002e30af4b17970	-2.3608607403431776
216	0xbff7e1747f3c67b8	-1.4925427408365817
217	0x3fff73ba5dfee7aa	1.9657539054592044
218	0x3fcbd13ca09052e0	0.21732290115382735
219	0x4009474ab301848c	3.1598104462469276
220	0x3fc4736970c3afca	0.159772090969794
221	0x3fb3a419a1214582	0.07672271903836328
222	0xc006e568a034f6fe	-2.862015964142187
223	0xbfa70f0abb461f5d	-0.045036635742745836
224	0xbff141def1134344	-1.0785817543985141
225	0xbff83e2807eb2b73	-1.5151748952218582
226	0x400922781f1670eb	3.1418306759570576
227	0xbfcd0ebf0fbdcdf5	-0.22701252239822592
228	0x40082bacdd6f7996	3.0213258075375036
229	0x3ff932ebac475fa4	1.5749317865029093
230	0x400067544da9feca	2.0504537646773757
231	0xbfd8029f5975e29c	-0.3751600621831501
232	0x3feafa06bb41f5a0	0.8430207879425105
233	0xbfe4627d356b945a	-0.6370225947727122
234	0xbff59f21bbd48684	-1.3513505303493796
235	0x3ff9c8e2c0cfe34b	1.6115443736764117
236	0xbfe5a06d9c52e868	-0.6758335164261213
237	0xc004bb10da1b3bc5	-2.5913407363472936
238	0x3fe432e6701806aa	0.6312133969624558
239	0xbff8d0a9cb66a7aa	-1.5509431786872292
240	0x400904ac14e4a30d	3.1272813446306658
241	0x400921c9841a1b9b	3.141497642561672
242	0x400d782a7c04bb76	3.6836747826522993
243	0x3f8a6ed7d9ecdbc2	0.012906729066896609
244	0xc006ed7d5bda5961	-2.865961759186732
245	0x3ff91006ab89c1b7	1.5664126110751633
246	0x3f9100861e1ab846	0.016603561007905186
247	0x400919c540817b97	3.137583259536267
248	0x400927b438d8af2c	3.144386715042762
249	0x40029e8a81c82a76	2.3274126185618185
250	0xbff565c88b6b2d46	-1.3373494573632612
251	0xbfdf7459429ab2ba	-0.49147635940861856
252	0x4002f0dce82fa73f	2.367608846620811
253	0xbff0354abcba17dc	-1.0130107280870027
254	0xbff6915ded2a50ac	-1.4104899658459926
255	0xbfde423c931be5a5	-0.47279276243315344
