results/vqe_data/with_params/10q7l/sgd_10q_7l_42/parameters/params_ite1018.npy (npy, 2448 bytes, 1 tensors)

array f8 [290]
000000 f5 19 b4 0b 55 f1 e5 bf 75 c7 81 d8 3a d0 07 40
       -0.685709498270454 2.976674739323182
000010 37 ce 05 12 d3 62 fe 3f 2e a9 d1 d2 74 45 ae bf
       1.8991270736704686 -0.059123659834613526
000020 2c 6d 5d c1 a0 ff 03 c0 47 6f eb d1 64 4b 03 c0
       -2.499818335212373 -2.411813392636677
000030 81 01 cd c7 07 9d 06 c0 85 70 c1 b8 c2 bf 06 40
       -2.8266749963224247 2.8436331209214267
000040 15 c4 e3 7b dc 32 a6 3f 89 2b f4 80 d1 6d f0 3f
       0.04335679066014834 1.0268111264474291
000050 14 ad fb a5 a3 26 0a c0 25 1e ee c6 1f f4 09 40
       -3.268866821997685 3.244201234952714
000060 85 1e 41 40 36 79 06 40 57 7e 76 8c 20 41 fb bf
       2.8091855068085487 -1.7034001814680744
000070 47 28 cf 45 34 c2 01 c0 d9 97 b5 97 ee b5 f2 bf
       -2.2198262647480393 -1.169416992773668
000080 c9 53 c4 18 9f a2 c7 bf 37 9c f6 0b 1f c9 b4 3f
       -0.18465031346627672 0.0811938671309783
000090 b1 57 5a d7 1e c2 e2 bf fd 65 f1 23 4e 33 f0 bf
       -0.5861963468657817 -1.012525692369649
0000a0 ad 42 c2 2c 13 5e e8 3f fc c3 2e ac cf 35 00 c0
       0.7614837526508232 -2.026275010277912
0000b0 87 1d 45 b1 32 5a ec bf 11 f6 0f 6e df 50 e0 bf
       -0.8860105001739819 -0.5098721646933787
0000c0 d9 82 63 f7 9d b4 cf 3f af ac d8 db 9d 78 f9 3f
       0.24769949512030712 1.5919474208592808
0000d0 75 41 5d 1b dc 62 01 c0 29 f3 95 c7 de f9 d1 bf
       -2.1732713830789927 -0.28087586870951725
0000e0 37 55 14 57 5c ce db 3f 27 7e b5 5d 0e 37 03 c0
       0.4344702577958119 -2.40188286981699
0000f0 57 e2 cb 7c d3 e1 e8 3f 35 a7 fa 5c e2 d3 fe bf
       0.7775666654043317 -1.9267295486446987
000100 fb 8e 8a 8c d6 15 ff bf 14 a7 6b 4d b3 66 08 40
       -1.9428315629856445 3.050146679733084
000110 0e 25 b8 ac c4 42 04 40 b9 cf 86 b0 0a 1a fd 3f
       2.5326016896912114 1.818857850606021
000120 6e d6 bc 01 7e 73 f9 bf fd 8c 90 9e 69 57 02 c0
       -1.5906963413121065 -2.2926819217551597
000130 73 22 2b 6b d5 01 ed 3f 94 e5 56 24 47 26 e6 bf
       0.9064738362440735 -0.6921725950007152
000140 26 25 68 0a 69 43 00 c0 d8 1f 2a 28 6d 9e d2 bf
       -2.032915192893273 -0.2909195797187727
000150 77 97 fe 90 1b f4 08 c0 c2 2c b5 1a 48 f3 02 40
       -3.1191932037062844 2.3687898718395397
000160 2b cc d3 a2 88 8d 00 c0 1a 0c b0 07 25 42 df 3f
       -2.0691082688222386 0.488412148959641
000170 94 cf 96 92 f5 6a e4 bf ef 62 32 1b e7 6b 9f bf
       -0.6380565512722449 -0.030685053858721053
000180 77 bf 0b 84 9f 8e b5 3f b9 99 82 a4 04 d0 f7 bf
       0.08420750592972391 -1.4882856775453617
000190 cf cc a5 be af a2 0d 40 d8 00 13 30 df 20 fe 3f
       3.7044367689464717 1.8830253484630273
0001a0 6f 83 fd c0 84 9e 07 40 7f 24 56 ad ab 47 08 40
       2.9524016454092172 3.0349954168237328
0001b0 42 93 10 dd 7e 5a d8 3f 41 9a c4 9f 10 98 07 40
       0.3805234106860561 2.9492504579423273
0001c0 75 a6 9b 19 02 87 09 c0 60 dc 9e 0e 21 3d ee bf
       -3.1909219742417982 -0.9449620519216175
0001d0 fb 36 59 b8 46 e1 08 c0 4e 5f c8 40 ae c5 f0 bf
       -3.109998169157618 -1.0482618837904343
0001e0 21 dc 66 4f 82 ac f6 bf 32 31 f0 61 43 06 ec bf
       -1.4171164609558746 -0.8757645523888071
0001f0 dd ae ec 3d e4 2b 06 40 04 4a 5e 82 65 5a ef bf
       2.7714314306120813 -0.9797847315078916
000200 db 95 6f a9 52 1e f4 bf 98 94 97 0b e8 e4 d3 bf
       -1.2574030512417866 -0.3108463395313463
000210 d6 bb f4 55 ed 8b 00 c0 cf ff c7 06 d5 ca fe 3f
       -2.0683237757980164 1.9245195641415085
000220 dc 95 6a b4 b2 2a 08 c0 28 5e e4 ec 4a 97 08 40
       -3.020848664763191 3.0738733775322267
000230 e4 c8 7e 00 8d b2 f2 3f f5 09 95 ef c8 bc f3 bf
       1.168591501173574 -1.233590064876464
000240 25 d2 fe 67 ed ef 04 c0 07 b0 dd 7f 93 96 f5 3f
       -2.6171520352020416 1.3492617602123589
000250 9f be 34 50 e9 7f e2 3f c5 13 7e 0b eb dd f4 3f
       0.5781141821407408 1.3041792344022138
000260 96 9d bd 9a 9a f7 e3 3f b3 5e a6 d1 b9 43 05 c0
       0.6239750883368511 -2.658069265260417
000270 d9 3b 5e 28 e7 ec e8 bf 98 25 66 64 c2 ce 04 c0
       -0.7789188183249919 -2.60095671116569
000280 22 20 0a c6 02 35 f8 3f 81 91 dd 92 a2 eb f0 3f
       1.5129420982284576 1.0575280892308856
000290 f3 25 85 70 74 db d5 bf aa a4 ed 7f 98 1c 07 c0
       -0.3415194605664446 -2.8889627451322513
0002a0 dc 19 42 e0 15 83 fb bf e8 d4 5a ac d5 e4 01 c0
       -1.7195032844625677 -2.236735674402201
0002b0 db ad 7a 3b 8d c5 e9 3f 23 79 93 ca a7 9a ed 3f
       0.8053651963904785 0.9251288372577487
0002c0 82 a0 b4 39 a7 ea 07 40 79 57 32 5b 4e c6 91 bf
       2.989576769661711 -0.01735804015751039
0002d0 4c 09 6d f8 55 05 fc bf 7e 74 43 7e 79 07 f9 3f
       -1.7513026909005758 1.564324849335463
0002e0 cd f5 dc 37 0e 97 fa 3f f1 93 34 e0 a2 c9 e2 3f
       1.6618787939217896 0.5871137980471969
0002f0 d8 18 46 d1 b9 98 fc 3f 76 55 27 2c 30 0a d3 bf
       1.7872865843542538 -0.2974968367755858
000300 97 26 b1 14 b0 00 cb 3f 25 d8 3b d2 4d 60 f2 bf
       0.210958490470422 -1.1485117161041754
000310 bb 35 e1 e6 dd 5c 08 c0 8d 15 80 bc 39 48 06 c0
       -3.045345119235859 -2.785266373308963
000320 7d 64 49 97 46 5e 02 c0 87 68 58 b5 a2 6e a9 3f
       -2.296033079077971 0.049672207486041
000330 e3 af 30 0b 07 d1 f0 bf 9d cd e8 a8 1c 5e 8a 3f
       -1.051032108031898 0.012874816803651263
000340 7c 32 1b 06 1c 4e 03 40 c3 38 6f 7b cb cd f6 bf
       2.413139388756745 -1.4252428838404263
000350 d3 42 e4 71 5c 51 f5 bf f6 dc 76 b3 02 2a f5 3f
       -1.3323635529415483 1.3227564821552824
000360 f1 72 22 77 66 ca fd bf 4c bc 64 eb 7c da 08 c0
       -1.8619141248411177 -3.106683577548699
000370 4f f1 3a 47 e9 fe f2 bf 13 da 7e f7 5e 64 00 c0
       -1.1872341902190617 -2.0490092597567666
000380 71 64 c8 9d b2 8a 00 40 fb 70 cb cf 57 8d 01 40
       2.0677234961299793 2.1940151437721602
000390 15 67 47 92 e4 15 f1 3f d0 85 a6 4d 89 d7 07 40
       1.0678449358005697 2.98024235405385
0003a0 78 08 b8 ff 17 ea f2 3f 73 4d 1e 25 87 25 fc bf
       1.1821517933863372 -1.7591620874344158
0003b0 2f 7f a4 68 d4 29 03 40 d9 52 5c 8d f7 49 df 3f
       2.3954246688080256 0.4888895874476425
0003c0 b1 88 6e be 6e b1 f9 3f 3e bd 52 20 6d c6 06 40
       1.605818504213442 2.846887829327584
0003d0 f7 62 34 49 14 ea fa bf ac b9 85 f3 1c 54 04 c0
       -1.682148252444845 -2.5410708451447217
0003e0 85 30 51 30 83 bf f7 bf c6 3f 6e 75 06 c8 be 3f
       -1.4842559707058467 0.12023964278182495
0003f0 df c7 31 15 fa cc 03 40 0c 06 ca c3 51 63 06 40
       2.475086370069206 2.7984957977321354
000400 0e dd 64 63 02 56 0a c0 a8 ca 6c 06 51 50 d8 bf
       -3.2919967427402588 -0.3799021303886243
000410 24 ce e7 64 cc e0 ad 3f 6d b7 bc de 1d 5c fe bf
       0.05835570079571209 -1.8974894238158087
000420 65 63 94 77 2f ce f9 bf d4 61 9e b5 95 bd e8 bf
       -1.61283823691175 -0.773142676090226
000430 ee 5f 8b c1 75 85 04 40 e1 89 72 ec a1 0e e9 bf
       2.5651660080584326 -0.7830361955751038
000440 67 d0 47 31 6f ea e6 bf c3 68 1a 56 d2 7d e5 3f
       -0.716117473841689 0.6716090852453579
000450 b9 6f c8 92 9c 04 eb bf 82 87 84 4e ca f5 0d 40
       -0.8443129412512383 3.7450147756762258
000460 2d 1a 87 6b 2f af 0a 40 2e ec e3 77 1d 66 00 c0
       3.335539665279859 -2.0498608938628626
000470 71 f7 a0 a6 51 32 e2 3f 52 83 81 61 9f 78 d1 bf
       0.5686424498050952 -0.2729872181135323
000480 f2 ca e9 4b 0f aa f8 bf ff 72 fe 68 5b 7f 06 c0
       -1.5415184941636508 -2.8121860697414145
000490 34 b6 e1 2a dc 42 b7 3f ad c4 84 26 b6 03 e5 3f
       0.09086395308414624 0.6567030670468249
0004a0 da 1d ff 58 6b e8 09 c0 0f e6 e1 e6 1e 83 ee bf
       -3.238485999379674 -0.9535059461042595
0004b0 c3 63 45 85 67 4b 02 40 02 1a 4e cb 0a 09 fc bf
       2.286818543605905 -1.7522075597386224
0004c0 4f ee f9 30 13 66 fc bf 11 48 7e d7 5e 0e e0 bf
       -1.7749206460129192 -0.5017542084553971
0004d0 2d 68 df e9 fd 61 0f 40 8b 87 3c af 22 91 ea bf
       3.9228475829413783 -0.8302167341791898
0004e0 d3 b3 ee a7 5f b9 d8 3f 01 07 e7 b8 c8 a8 fb 3f
       0.386314310070529 1.7287070486785867
0004f0 4d 4e 14 85 7a 8f ff bf 41 0a 7b 6b a4 0d e3 3f
       -1.9725289534007004 0.5954153155547105
000500 b3 69 7b 28 5c c9 ba bf e9 24 4a 65 cc 8d f6 3f
       -0.10463500965435095 1.4096187550188068
000510 99 4e a6 fd ea ab f3 3f cd 95 df b5 58 97 a4 bf
       1.2294721515835703 -0.04021718235143688
000520 e4 90 9d 6b f6 40 02 c0 24 ca 1a 94 e0 26 07 40
       -2.2817200095615693 2.8939830370593587
000530 31 2c b4 b0 55 78 f5 bf 16 7c d9 56 64 51 ff bf
       -1.3418785955898438 -1.9573710815964254
000540 e2 49 9e be 5d 75 0a c0 f6 09 a9 35 02 20 d3 3f
       -3.3073077098899697 0.29882865181221463
000550 f6 ad a6 97 da 61 f3 3f 2a 2f ad 6d 37 2c 08 c0
       1.211390106570318 -3.0215900963284144
000560 4e fb 95 0b a0 cb f4 bf 50 31 22 b9 ce 2e fc bf
       -1.2997131779263387 -1.7614276153354531
000570 ed 8e 6a 9f 80 b0 ef 3f 43 5d ee b2 48 33 02 c0
       0.9902957070921424 -2.275041005992223
000580 e6 4e 9a 18 d7 b7 f7 3f bb 52 07 d0 65 b9 e6 bf
       1.4823828660054743 -0.7101315558489526
000590 3c 9b f5 a2 7b 18 fa 3f d4 04 4f af 85 f6 08 c0
       1.6309772840119896 -3.12037217101952
0005a0 8b ca 9a e8 12 62 db bf da bd ac f8 7d 78 06 c0
       -0.4278609534768882 -2.808834021350532
0005b0 c3 29 60 73 42 2d 04 40 57 11 39 07 60 a7 08 40
       2.5220994008752498 3.081726128033704
0005c0 91 13 68 fc 7f 6f f4 bf 40 26 91 d7 2b 79 f2 3f
       -1.2772216663008502 1.1545828266702216
0005d0 32 61 8f 0e 1b d2 fd 3f c1 80 df ad 73 41 aa bf
       1.863795334697056 -0.05128060815309388
0005e0 2f 1b 76 4b cd b5 de bf e8 02 58 81 d7 7c f8 bf
       -0.4798463093688267 -1.5304789593212096
0005f0 b9 8e 60 93 b5 9c 01 c0 44 3b 01 f5 fd 6c 02 40
       -2.20151820314808 2.3032187596321894
000600 9c 56 1e 87 ec df 09 40 ce 71 24 84 f6 a8 e5 3f
       3.2343378597386856 0.6768753605752467
000610 3f 55 14 c8 a4 32 f1 bf 6a 73 60 a4 84 85 fc bf
       -1.0748641791918343 -1.782597200485919
000620 9f a7 c0 44 25 b7 fc 3f 42 3d b5 26 f8 6b 00 40
       1.7947132764479432 2.0527194046077577
000630 00 10 40 8e dc 5b ff 3f 33 34 8e 30 9c 3e 06 40
       1.9599271351480638 2.7805713456532657
000640 6c 72 1a 29 99 c9 d3 3f d3 1b 77 83 55 5d 0a c0
       0.3091795827292916 -3.2955732603763663
000650 94 73 28 f4 73 71 ff bf ef a2 80 ba 77 96 08 40
       -1.965198472730866 3.0734705515391094
000660 34 e0 70 7c 02 36 d3 3f af 60 d5 51 09 83 0b c0
       0.3001714911692972 -3.438982619594831
000670 84 4a f0 fb 6c da 08 c0 9e 01 3c d8 ff a9 f9 3f
       -3.1066531832414643 1.604003758111595
000680 fe de ab 3a 20 75 04 c0 3b f5 60 bb 76 ca 01 c0
       -2.557190378542031 -2.2238592757190907
000690 0c 6a 7d b0 53 63 d4 3f 96 c9 66 4e a3 90 fd 3f
       0.31856243357984293 1.8478119909819717
0006a0 9a 85 50 3b 96 f4 ed 3f f9 14 c4 5f 8a 59 fe bf
       0.9361067923056681 -1.89686047943661
0006b0 25 a3 21 59 cc 78 f1 3f ef 58 5d cd d3 78 fe bf
       1.0919917566008703 -1.9044988653236563
0006c0 25 e0 99 19 c1 a7 f6 bf 25 b8 51 2e 7d 49 ff 3f
       -1.415955638889508 1.955441647467077
0006d0 62 cd a9 6b 62 1b d8 3f f9 28 4e 15 69 02 07 40
       0.3766714145087545 2.8761769928433947
0006e0 9c 14 d3 6a b6 da c1 3f 97 ad d1 bf 01 a0 a0 3f
       0.1394870778659979 0.03247075525799941
0006f0 2a 67 c9 8f f2 1e 02 c0 9f 44 9c f5 ef de a1 bf
       -2.2651110871637643 -0.03490400193380449
000700 13 e0 c3 ab 2f 08 f4 bf 50 f9 b8 b5 70 eb f7 bf
       -1.2519985875678727 -1.4949805353677057
000710 66 d2 60 ca 9e 4f 09 40 22 78 bf a3 c7 18 cf bf
       3.163877087669152 -0.242943720774691
000720 a5 cf 5d 7a 34 2b 08 40 9d f4 cc 07 31 3e f0 3f
       3.0210961875800018 1.0151834778510314
000730 26 88 1d 9c 21 bc 01 40 91 75 7b d9 e2 e4 d6 bf
       2.2168609806549453 -0.35772010077001776
000740 03 4c 87 5c f4 8a e9 3f c0 0a 98 34 17 05 e7 bf
       0.79821222373937 -0.7193714167809375
000750 a0 20 fc 22 ec 5b fa bf 78 10 67 49 3e b6 f9 3f
       -1.6474419943424792 1.6069929950035924
000760 c4 c3 71 4e a7 14 ec bf 7f 50 c9 8f 99 89 05 c0
       -0.8775211841694888 -2.692187426882867
000770 fe 60 70 c0 8e 56 ea 3f 6c 76 4d d7 12 0f fb bf
       0.8230661161969974 -1.6911800775773385
000780 81 2f fe 26 60 21 09 40 fb dd 14 73 da 71 09 40
       3.141296677238586 3.1805924406760346
000790 66 ee 5b 1d de 97 0a 40 31 b5 b3 bc ff 5e 93 bf
       3.324154118888873 -0.01891707982297425
0007a0 2f 1b 11 c0 d1 ef 05 c0 0a ce 86 ca a6 ac fa 3f
       -2.742099285623588 1.6671512519068323
0007b0 93 c4 10 04 a2 b2 81 3f 28 9a de c3 b6 4b 09 40
       0.008641496419018934 3.161969690542964
0007c0 ad 21 80 7f f1 1c 09 40 37 b4 dd 56 59 42 03 40
       3.1391324959733624 2.4073969637306862
0007d0 bd fc 95 43 79 21 f7 bf dc ed 93 80 14 06 e3 bf
       -1.445672286994337 -0.5944921981130693
0007e0 e9 a9 63 cd 38 cf ff 3f 51 9a 94 1d 40 86 f3 bf
       1.9880912802715278 -1.220275989102124
0007f0 c1 49 fb 0c bb e6 fd bf b3 37 6d eb a8 8c cd bf
       -1.8688307292073747 -0.23085509772721266
