results/vqe_data/with_params/10q7l/sgd_10q_7l_42/parameters/params_ite1594.npy (npy, 2448 bytes, 1 tensors)

array f8 [290]
00000000: 8342 12b9 ccb9 e4bf 79a3 e185 50b3 0840
00000010: 1f26 72fc 106f fa3f b4d0 30ad b976 d0bf
00000020: 9dfc 1517 0b14 02c0 76b9 5045 2037 02c0
00000030: 40bb 3564 d594 07c0 7199 1891 bdd1 0640
00000040: 7e05 6c0c 7780 8d3f e294 9bd6 5ff7 ef3f
00000050: 4d6a 14e3 824f 0ac0 ec06 7b61 8e00 0a40
00000060: ab80 d561 cb69 0540 9e77 1330 13a3 02c0
00000070: 786a 87f3 ee53 01c0 144e 1bb5 af5c f5bf
00000080: 0a63 3dae f530 b83f b705 9377 3950 b53f
00000090: 0db8 5978 8ae3 e5bf d56c 6368 b3c7 f0bf
000000a0: 0159 d68b 2f41 e73f c9af 36db 261c fabf
000000b0: 3058 71dd d2b5 e2bf aa66 c268 b0ee e3bf
000000c0: 95d9 6770 1e28 b23f 485d 1fe1 29d5 fc3f
000000d0: 00e3 4811 f82e 01c0 d139 ac77 8251 cfbf
000000e0: a09f 1341 9a85 d33f 7d18 8e2d 1dc5 02c0
000000f0: 1f06 24b3 00ca e83f 580b d1bf 08f8 fdbf
00000100: 6791 fea7 67bd 00c0 e9f0 5997 337d 0840
00000110: 6ece ef22 67b8 0340 0582 f63d c69e fb3f
00000120: 92b6 2080 52e3 f8bf 1c5c 66e4 6ef3 00c0
00000130: c89d 1d3d daf2 eb3f d46e b836 a549 e6bf
00000140: ef05 37d9 4a24 01c0 3111 9d16 fafa d5bf
00000150: 997d 0e4f 4896 09c0 4669 1fb5 d08f f93f
00000160: 9bb7 3e90 6675 01c0 df28 9bec db21 c63f
00000170: c9ee 0525 70c8 e5bf 334f 679b 9fec a83f
00000180: 5b1b 5eba 265d afbf 7f1a 7940 b53b f8bf
00000190: eca9 d7ac eafb 0d40 78ff 1fd2 e4a3 ff3f
000001a0: 27ca f767 d40b 0c40 68e5 4322 f2af 0b40
000001b0: 3f0e 3bee 727e 9c3f b029 4616 99e3 0440
000001c0: 7d5e 4d4d 57df 08c0 e016 595d 6569 e5bf
000001d0: 921e 436f 4427 09c0 28da 944d 9e9b f0bf
000001e0: 0fd2 a821 8de4 f8bf 6bdc b23f 1abb efbf
000001f0: b96e 6d1f bf6d 0740 06b7 d466 5495 00c0
00000200: 1d45 3478 5d6b f9bf 0a10 bec4 5c51 e2bf
00000210: 51b4 ebb5 0373 01c0 4314 0073 125a f93f
00000220: 148d 199a 65da 07c0 a1cb 1a1b f0db 0840
00000230: 11f9 3ca2 33c8 f83f c9ba 7a55 d3f7 f4bf
00000240: c27f c506 9b5f 01c0 76f1 83bd 3175 f63f
00000250: 83b3 402e f4a6 e43f 0800 ec24 dce3 f23f
00000260: f8b6 b52f ff86 e53f ecc2 b29a 0dc9 03c0
00000270: 6ed7 7c01 f4df eabf f314 e663 ecb3 04c0
00000280: c327 9283 60c8 f73f 9a4d 4fa7 e237 e73f
00000290: e882 5921 4903 b1bf c40e 4e0b ba6c 08c0
000002a0: ccad 81ab c3c0 01c0 34f6 becf 4a9e 00c0
000002b0: 4c7a 5f12 d838 e23f 674d c7e0 8946 ea3f
000002c0: 128e 3b82 9f5e 0640 392b 3e21 161d 7e3f
000002d0: 5466 2b68 2c00 00c0 63d6 9d08 91a3 fb3f
000002e0: da8d 8a8b 2edd 0040 b6dc f321 cad1 ee3f
000002f0: fafd c9c3 77f2 fb3f 2c23 2963 c2da c4bf
00000300: 080b 0bf6 0c5f e03f 9079 e71e 93d1 f5bf
00000310: 0b4d 81f3 2447 08c0 e5d2 b5ce c04f 06c0
00000320: 6c3b 874c 17c6 06c0 1ca5 f47d dee4 8e3f
00000330: 341a 1e6b e292 eabf 24bb 7804 2f99 b0bf
00000340: 6e43 cb0b 61bd 0340 a8aa 5cad 1b65 f9bf
00000350: 62aa f5fa 9a9d f5bf f906 50ba 7eec ec3f
00000360: 585a 4f16 a5e2 febf 8e88 4a15 96f7 08c0
00000370: 7b8d 83fa 51ad f6bf de97 35ec 8dd9 febf
00000380: cffa fab4 365b f93f ebab 67e5 fa3d 0440
00000390: a7de 0a81 e45c f93f bdfc f145 58a2 0840
000003a0: 3d53 f90d a883 f53f 2b28 bdbe 62fb fcbf
000003b0: 5d63 d119 9e37 0340 f8bd f9e3 c977 d53f
000003c0: a68f ee00 85ea fc3f 7cb5 e75c 996a 0340
000003d0: e2ac ba28 07d8 00c0 a17a 6165 e05e 05c0
000003e0: 4491 5636 2da1 f5bf 6152 7aba 575d b23f
000003f0: 094c 7d63 63ae 0040 ff07 2be4 4c3b 0740
00000400: 9c99 ade3 2da5 0ac0 2652 2dc7 2417 dbbf
00000410: cfa4 0af3 e4d8 c0bf d969 9329 3ab4 f8bf
00000420: 1101 800c df74 f8bf 6a7a 9d80 b9fa f2bf
00000430: 0bdc 0866 8c28 0740 d6d8 d388 fe93 c3bf
00000440: 236d d8e0 166c e1bf fd4a 92d9 e0c4 b63f
00000450: 5a5d 974b 38bb f0bf 16c3 967a 35c8 0c40
00000460: 7b3c ec52 96ec 1040 506d 6176 b78e 00c0
00000470: 4dc0 5c09 02d7 f13f 5ceb 3887 cc36 d1bf
00000480: 2dcf 7258 c49a f8bf ea6a 835f 752f 07c0
00000490: 692d c6b0 2c99 a03f 47a1 3e48 821a eb3f
000004a0: efcd 09bd 3987 0ac0 9215 d013 a802 f7bf
000004b0: 7660 2328 a014 0340 0476 da09 1715 fcbf
000004c0: 0f43 c883 4577 f1bf 70b8 c789 f361 d4bf
000004d0: f4a2 455f e4c5 0e40 ae4c 4ecd 874d 863f
000004e0: 2fb9 33b7 a059 d93f bfd0 bda3 378b fb3f
000004f0: 9db0 0093 b98d 01c0 8ac6 b049 1851 d93f
00000500: a1a1 4a0c c34c b8bf 5e82 8bda 6853 f23f
00000510: 9225 1247 c269 f23f 3c02 ef89 39a2 a3bf
00000520: a5b5 53af bfea 04c0 22d5 6ebc 6d34 0340
00000530: 383e 2b69 86f2 fbbf bec5 074c 1b30 fdbf
00000540: 7a0e 91b3 798b 09c0 4280 76b0 7d19 d03f
00000550: 8364 8718 7df4 e43f c96f a9c4 cf87 05c0
00000560: d5f2 b5fe cda7 f5bf 60da bb97 d790 fbbf
00000570: 7f08 d02e ce6b ec3f 462e 1dfc 0710 02c0
00000580: 9647 5275 8719 fa3f 96aa 3b07 fdb1 e0bf
00000590: edbb 5886 857e fc3f 07cf 5f5c 52d1 05c0
000005a0: 581e 280b afcd d7bf aaf1 fe1f ca3a 08c0
000005b0: 44cb 5476 d455 0840 612f a87e 015c 0940
000005c0: 88fe 612a 01e8 f4bf 2e49 494f 4d42 f83f
000005d0: 607e acd5 e044 fc3f 37e5 cf2b 03cd 99bf
000005e0: 769c 2095 7538 e3bf 383d 4d03 548b f8bf
000005f0: 7adc a417 4c39 02c0 e6cf 5b18 4e91 ff3f
00000600: 8d68 aca2 4fd1 0b40 9941 8480 c3c4 ec3f
00000610: 98ed 43bd 2da8 f2bf 79f4 5bdd 3b83 00c0
00000620: b8c4 6bbf 3620 0040 e980 6e76 82a4 0040
00000630: f305 e0dc dcd4 fa3f b398 863c 380c 0940
00000640: 5b49 0480 59ed d43f e5fd b966 fb46 0bc0
00000650: 0c9b 2cd5 73ee f7bf f860 4b07 a9c8 0840
00000660: d333 d46b ce20 b73f f501 fbe2 6b87 0ac0
00000670: 7677 6636 9931 09c0 3896 55c2 c125 f93f
00000680: 9979 db5b e3b3 02c0 0337 8641 2e24 00c0
00000690: d0a6 4259 21ba dc3f 2c0b ac72 a4a2 ff3f
000006a0: e028 2d89 6110 ee3f 3b41 c72f 613b f6bf
000006b0: dbe2 479a f43f f33f 16ca 1a20 7f4e 02c0
000006c0: 5e9e cd5c 1226 f7bf e2ab 98c4 d97f ff3f
000006d0: a291 5db0 29ce c73f 214a bb74 c336 0940
000006e0: 8177 2a26 688e c43f 833c 65cb 67ff b33f
000006f0: c27c 4450 51bf 06c0 6dc4 3dbc bca0 a5bf
00000700: abec 4fdc c21e f2bf d52c 41e3 4641 f8bf
00000710: 996f 4909 7925 0940 677e e023 534e cebf
00000720: 3d16 cac9 662f 0840 39a7 0892 d607 f83f
00000730: 097d d47c 3b83 0040 2732 3d78 4650 d7bf
00000740: d610 bd10 3aa1 eb3f bffc 0fc8 2255 e2bf
00000750: 3a6a 84e5 0084 f7bf 656d 371c 83e3 f93f
00000760: 6769 6c09 ceec e6bf bd94 11d9 5fdb 04c0
00000770: e502 2175 84bf e33f 56f2 9ced 5e30 f9bf
00000780: 55ef 3162 5c01 0940 8de1 0342 8129 0940
00000790: b61f 1c10 8d1c 0d40 9053 6c82 070f 913f
000007a0: e9b9 f4aa a5bb 06c0 aa2c 14b8 d4eb f83f
000007b0: 59f9 e001 8897 8d3f 1e8f bab1 5d1d 0940
000007c0: 5a89 61b3 a129 0940 0abd ba6d 06ef 0240
000007d0: 19ee 45d2 7e6f f5bf 2243 7f1e 750b e0bf
000007e0: f50d 6b1e ae6f 0240 bad6 5969 5911 f0bf
000007f0: fcf0 05a9 2b23 f8bf b683 6b0e 2e34 dcbf
-0.6476806273149837 3.087555929134791 1.652115808598303 -0.25724641717102803 -2.259786777838214 -2.276917020345702 -2.9476726368806396 2.8524123511917243
0.014405183855617617 0.9989470664555962 -3.2888238659482227 3.2502715697927353 2.6766574519425226 -2.3296264415684638 -2.1659831071568156 -1.335128505180255
0.094497065581333 0.08325537843031482 -0.6840259886355412 -1.0487550809546538 0.7267072421261959 -1.6318729937583945 -0.5846952748349903 -0.6228868528443929
0.07092466587332631 1.8020418924187016 -2.1479340887420904 -0.24467497676273678 0.305029452849789 -2.3462470587720063 0.7746585368005902 -1.8730552189669734
-2.0924828648150426 3.061133558685573 2.465040467208204 1.7262632770945185 -1.5554986004821427 -2.118863853811048 0.8733950799623296 -0.6964899128683677
-2.142720887176203 -0.343443414767779 -3.198380105619162 1.59761114836745 -2.182324530519464 0.1729082970908342 -0.6807175372227557 0.04868029376998919
-0.061257562875701686 -1.5145771521071365 3.7480062011065822 1.9775131423957344 3.505776226281586 3.460911052414918 0.027826114454695846 2.611131834045601
-3.1090532340274977 -0.6691157172396878 -3.1441734974249096 -1.0379927664304294 -1.5557986559698553 -0.9915896648516428 2.928587193991771 -2.0729148896851965
-1.5887121863818898 -0.5724319307923917 -2.1811594212108862 1.5844902507972314 -2.9816391028449605 3.1073915593674006 1.5488773667744378 -1.3105042780913883
-2.1716824082395485 1.4036118891663967 0.6453801062940417 1.180629867769314 0.6727291042168124 -2.4731704793742804 -0.8398380307250883 -2.5878532223310855
1.486420167874244 0.725571944024 -0.06645638527107744 -3.053089226073867 -2.219123210806833 -2.0772911291267295 0.5694389685484764 0.8211106672483027
2.7962026762413723 0.007351957745309439 -2.000084699463324 1.7274332367500385 2.1079989339502676 0.9631090796600776 1.7466962478646324 -0.16292600480871877
0.5116028600244542 -1.3636656958766231 -3.034738447555019 -2.788941969798872 -2.8467241266984527 0.015084970682965486 -0.8304302303448083 -0.06483739718599374
2.467470256939513 -1.5871845981552415 -1.3509778788672056 0.9038690222662061 -1.9303332206233303 -3.1208917296763223 -1.4173145089815467 -1.9281138636520079
1.5847689694925753 2.530263702608399 1.5851788559647646 3.079269930312505 1.3446426912170886 -1.8113734675157598 2.402157022192496 0.3354363180469302
1.8072557484056033 2.4270503290378524 -2.1054824048966205 -2.671326438939403 -1.3518497583946365 0.0717367964046587 2.0851505062687505 2.9039552522308436
-3.330653933272698 -0.42328757716066645 -0.13161908976807132 -1.544000780492402 -1.528533028438748 -1.1862120651273025 2.8947990390256613 -0.15295392685920345
-0.5444445029747026 0.088941624753982 -1.0457079842361368 3.597758252836125 4.231042190235821 -2.069685864303814 1.1149921766009527 -0.26896966176325576
-1.5377849059122568 -2.8981730901699523 0.03241862924468359 0.8469859515217103 -3.3160280960671495 -1.4381485723436964 2.3850710998340743 -1.755148924340916
-1.091619028830056 -0.3184784741887432 3.846626991570128 0.010890065148294017 0.39609544649910594 1.7214886089468988 -2.1942016110024967 0.39557463833180206
-0.09492129373632575 1.145363668147318 1.150820043202064 -0.038347051704026275 -2.61462342237674 2.4005999299357805 -1.7467102153931489 -1.8242447824417094
-3.1931032208101984 0.251555845572515 0.65484480658337 -2.691314255162045 -1.3534679364812991 -1.7228618552304837 0.8881598390874074 -2.257827729836012
1.631232698714006 -0.5217270985861713 1.780889057914233 -2.7272078720797057 -0.37192894067309146 -3.0287058353116736 3.041909145796497 3.169924726016618
-1.3066417365625131 1.5161870095367465 1.7668159815438216 -0.02519612269313606 -0.6006420052189145 -1.5340156678174264 -2.277977165907541 1.9729748679646888
3.4772026738037938 0.8990190038767195 -1.1660592454125887 -2.0640790265738898 2.01572942302354 2.080326962706853 1.6769684436734422 3.1309666374755465
0.32698667050967395 -3.40965919737913 -1.495715935432318 3.097978646266821 0.0903443349126996 -3.3161237461902098 -3.1492180109043444 1.571717986219836
-2.3378359962800457 -2.0176663512310156 0.44886049000579664 1.9772076110245491 0.939499633715311 -1.3894969812718745 1.2031141306489903 -2.2883284099746204
-1.4467948556065475 1.9687135390802202 0.18597909080120895 3.1517399902015915 0.16059591163223888 0.07811592784604397 -2.8434168120289494 -0.0422419528757779
-1.1325100522943028 -1.515936744416469 3.1432972646270625 -0.23676528217127954 3.023145271758749 1.5019136146970153 2.064078307375557 -0.3642746137818755
0.8634310080456327 -0.5728925616712316 -1.4697274175183694 1.6180449583251513 -0.7164068397571953 -2.6071164091577814 0.6171285903620541 -1.574309280563417
3.125664488934414 3.145266071074906 3.6389409311850285 0.016658894858739226 -2.8416245799955857 1.5575759115770702 0.014449179227196284 3.1393388638552002
3.1453279508724963 2.3667114803898857 -1.3397205556674463 -0.5013986201903189 2.304531324045224 -1.0042356601019677 -1.5085865595311239 -0.4406848088092902
