results/vqe_data/with_params/10q7l/sgd_10q_7l_42/parameters/params_ite193.npy (npy, 2448 bytes, 1 tensors)

array f8 [290]
0	0xbfe644444984e4b1	-0.6958333431167799
1	0x4007fc64e67ac58e	2.9982393270699452
2	0x3ffe9664f64b0fba	1.9117173786953416
3	0x3fac42510161d612	0.05519345418808198
4	0xc002267e3cf38010	-2.26879546754936
5	0xc004ed3fa5c7df58	-2.615844054376719
6	0xc007aa6f94d72fbd	-2.9582206371469213
7	0x4006aee65f5b05d4	2.8354003381398147
8	0x3f9c774986d4088f	0.02779879460741391
9	0x3fef99bca0ca5aa8	0.9875167026937861
10	0xc0091dd3c5260cd7	-3.1395640756833063
11	0x400c1c40a9f0a11c	3.513795211463856
12	0x400659de0b78f6ed	2.793880548123403
13	0xbffa190eb6ecc32e	-1.6311175485136107
14	0xc003d98091459c0d	-2.4812022542350918
15	0xbff77fdc2d029f7b	-1.468715835400842
16	0xbfe707a65eb03df9	-0.7196838235267357
17	0xbfaee99b5b4a08a6	-0.060376028913212296
18	0xbfde836b8476a67c	-0.4767712396229411
19	0xbfeff63c07cba74e	-0.9988079216247827
20	0x3fe72e7a97039205	0.7244236897936963
21	0xc003de7725d40bd6	-2.4836256938301444
22	0xbfed733ed0a43417	-0.9203180384662372
23	0xbfcf69af52b4212c	-0.24541274584067574
24	0x3fb7cd770b0bd95d	0.09297889728245452
25	0x3ff6e7e2107fc272	1.4316120762342988
26	0xc001a079904793fa	-2.203356864151371
27	0xbfca078656676589	-0.20335463732662287
28	0x3fce767676e05796	0.23799019627102486
29	0xc00441274d9ec693	-2.531813246162366
30	0x3fdf865e191969f3	0.492576145659455
31	0xc0041cf5912d7daa	-2.5141402570731843
32	0xc00077cd335936ac	-2.0584968577957934
33	0x40046347ee779a20	2.5484770422219896
34	0x4005961e4b4016b3	2.698299968617755
35	0x3ffadbd691028ae1	1.6786714233828024
36	0xbff7fa29913e2dda	-1.498574797968891
37	0xc0054f8d4b35b79d	-2.6638437152641488
38	0x3fef209989d4853d	0.9727294628138804
39	0xbfe5e03f42d046f7	-0.6836239151909628
40	0xc003da38df13d27c	-2.4815537860798127
41	0xbfa7f3ad6a68f438	-0.04678098606061848
42	0xc005ae8eb8241737	-2.7102331529630663
43	0x40033b43ab243ab5	2.4039376612120926
44	0xbfffd088ca07bce9	-1.9884117023282732
45	0x3fe6cb3930b1f453	0.7123075438572734
46	0xbfe58e9d4f2fbf90	-0.6736589953052192
47	0x3f80e43ff50c68dc	0.008247852006708127
48	0x3fb135b9fdfce620	0.06722605181575902
49	0xbff8973ca23794e6	-1.536923059139832
50	0x400ade28fffdd4f3	3.3584766387308433
51	0x3ff66b2543f60064	1.4011585859989504
52	0x4005c436e171fe45	2.720807801524446
53	0x4006f25424cedafb	2.868324554026342
54	0x3fe98a68fd14bbcf	0.7981457655895329
55	0x40069912bba271f8	2.8247427615117395
56	0xc0083a326965c76a	-3.028416465204761
57	0xbff87e54ea4e9742	-1.5308427002541554
58	0xc0084a316f019d7d	-3.0362270996444622
59	0xbfeeeeea1d666daf	-0.9666643690319939
60	0xbff05613d89dfb38	-1.021015020523647
61	0xbfecab975de89445	-0.8959462007666238
62	0x4005f9c9a6f9eec6	2.7469666523955736
63	0xbfe06092d8523678	-0.5117887711546265
64	0xbff16d673121337b	-1.089209739601954
65	0x3fcfaf56a9620eb1	0.24753840704589927
66	0xc000443ebf246732	-2.0333228047355982
67	0x4001134b212fada6	2.134420642154242
68	0xc007e600753b0e40	-2.987305560936676
69	0x40082e17002f8018	3.0225048079009973
70	0x3ff657de5dee88f8	1.3964522999963815
71	0xbff66905346c5d26	-1.4006397292885793
72	0xc0083b4f314345bc	-3.028959641328326
73	0x4001915d95e780ad	2.195979281546974
74	0x3fef1d01564fef02	0.9722906766687347
75	0x3ff796aa4583be4c	1.4742834773459377
76	0x3ff385030d7e943c	1.2199736144186906
77	0xc0080a2741f8c34f	-3.0049576906243725
78	0xbfe96a03fa3a9db0	-0.7941913497242492
79	0xc005948b9bd0fe87	-2.6975319073824866
80	0x3ffd4833d9bee35f	1.83012757355592
81	0x3fe94d803c251113	0.7907105612471547
82	0xbfdb9b9e0d9f62cb	-0.4313731320412841
83	0xc007cebf1e292e25	-2.975950465804788
84	0xbff8267a3158ebdc	-1.5093938758498018
85	0xbffd781cda74e04b	-1.8418243916949162
86	0x3ff1e9781d46826b	1.1194993156024349
87	0x3fecd4d08e585504	0.900978353517218
88	0x4002d706aeac94fe	2.354993214265618
89	0x3f68170493e19262	0.0029406632811961745
90	0xbfff44d8d952fc28	-1.954308365747929
91	0x3ffa85225d16c826	1.6575034748352748
92	0x3ff380133e36fb1e	1.218768351580088
93	0x3fe174d617ddea4f	0.54551224385734
94	0x3ffa2373823a1b5f	1.6336550795546925
95	0xbfd82afceb15c429	-0.3776237769844238
96	0x3fd2984286cc2b47	0.2905432049162084
97	0xbfeceba69bb54461	-0.9037659684346516
98	0xc0081a4a06d3bead	-3.0128365071648973
99	0xc0069e74e1dee1f0	-2.827371372808777
100	0xc002cb5c692a8d96	-2.3492973533736388
101	0x3fcb755e2e915502	0.21451928399861947
102	0xbff225d5c6e3140e	-1.1342370766662984
103	0x3fb9f38150270d53	0.10137184340333265
104	0x4004852f915e096b	2.5650321347067595
105	0xbff02bb7c45eb034	-1.0106733008096969
106	0xbfefed007b3679d2	-0.9976808935642174
107	0x3ff6bdc8aa20bbcf	1.421333946763969
108	0xbff7667a86b3d1df	-1.4625191938222242
109	0xc009421367f3b852	-3.1572635766270105
110	0xbff6ae96546ba1d5	-1.4176238343881
111	0xc000ddf9bd9dd4f7	-2.108386498812816
112	0x4001fab4674ba9cb	2.2474144048657982
113	0x4000e3d5991dcce0	2.111247249814923
114	0x3ff1af0bcb6cf235	1.1052358576117858
115	0x4004c717d9cdb862	2.5972134605317914
116	0x3ffee8f790a88075	1.931876721449979
117	0xbffd7101c3bc9e37	-1.8400895734756781
118	0x400247faebe081c6	2.285146563328655
119	0x3fe242157de69e75	0.5705668887139398
120	0x3ff6a711b6343516	1.4157883756009304
121	0x40073f1cc2524918	2.9058165723191784
122	0xbfea83fa6f6c942c	-0.8286106277706771
123	0xc0058a33823ba911	-2.6924810575920977
124	0xbff0fd3d6b8f01e0	-1.0618261529453932
125	0xbfcc78df0b6e4aac	-0.2224386983694634
126	0x40040d49cfda29d3	2.506488441319769
127	0x400689a68497f2c7	2.8172121390219647
128	0xc009ac6e6e544999	-3.209195005366564
129	0xbfb0c4e0c41f4029	-0.06550411975990812
130	0x3fb70ddb14c91657	0.09005517251451899
131	0xbff98a1775dd8fe0	-1.5962137798423939
132	0xbffe473c553aa543	-1.8923915223370649
133	0xbff0371e19151a94	-1.0134564380438507
134	0x4004dc97547a80a5	2.6077105140576173
135	0xbff2a084ff61bcbe	-1.1641893363810563
136	0xbfe4ec93b2ac1bbb	-0.6538790216153453
137	0x3fefe45d6efab88c	0.9966265838209138
138	0xbfe7a424d71fc88e	-0.7387870980876572
139	0x400a2b867165f099	3.271252523349244
140	0x400720ec8abaacad	2.8910761678904096
141	0xc00114dd30becc51	-2.135187512228676
142	0x3fd15c63c90ff71c	0.27126402506824987
143	0xbfde1f5390b2c49f	-0.47066201334662056
144	0xbff7f780cb38f2bd	-1.497925561750136
145	0xc004558fd70fb0ae	-2.541778259435964
146	0x3fc52c5f252d17e0	0.16541661563149912
147	0x3fdb80b009d41e58	0.42972947082350776
148	0xc008b6f0fd3d7d0f	-3.089326837958317
149	0xbfe6fffa42029d83	-0.7187472619306593
150	0x40012d5902c08391	2.1471424307823743
151	0xbffeadf2345402ff	-1.917467312247197
152	0xc0005abbdda9c25d	-2.0443036382132918
153	0xbfe1bed00a8dcd3b	-0.5545425611621008
154	0x400d7d4ca061c1de	3.686181309684101
155	0xbff28e1a31b05c27	-1.1596929493878265
156	0x3fedc2a67812aebb	0.930011019246613
157	0x3ff93da6dc925e9e	1.577551709755347
158	0xbffeffb5ddd3411d	-1.9374293007895809
159	0x3ff06898c370a099	1.0255363115666454
160	0xbfe236d3c1b23695	-0.5691927703025664
161	0x3ff1f468cd3846d1	1.1221702591323501
162	0x3ff71c707ad2e29a	1.444443206577637
163	0xbfb37feb19875282	-0.07617062924630072
164	0xbffd0a328d6d6b98	-1.8149896168240272
165	0x4003331ceaebc01f	2.3999574998088202
166	0xbff2048bcae166e2	-1.12610987901865
167	0xc000d9523364ac7d	-2.1061138167474938
168	0xc00a9dad7e3e6c95	-3.3269910681534136
169	0x3fcaeaf2a864628d	0.21029504034301674
170	0x3ff0a05bf3892876	1.0391501916042478
171	0xc0051ab62b1d6025	-2.638042771181079
172	0xbfe750bb24e40868	-0.7286048622629666
173	0xc000a3df00f0ca55	-2.080015189503039
174	0x3fed5d82868d6d0b	0.9176647785165256
175	0xbffe74b2cdfed0d0	-1.9034908339208876
176	0x3ff5e75911a50dbe	1.3689814271209424
177	0xbfd84cde8b2461d0	-0.37969173038575565
178	0x4000d0844c1c2c19	2.101814837083577
179	0xc0042d7126646f2f	-2.5221884726905937
180	0xbfe89e05be3d3076	-0.7692898479085801
181	0xc00503612948e878	-2.6266501641630917
182	0x40032374f0f3b3cf	2.392312891423422
183	0x4008310243c06179	3.0239301007351824
184	0xbff99a43d4bff992	-1.6001623449843447
185	0x3fed30e45ebbd6aa	0.9122182703274195
186	0x3fff9fde328138dc	1.9765302632181863
187	0x3fcd918b41ef482b	0.23100414962260749
188	0x3fc33901fd40927a	0.15017723909217634
189	0xbffae42e3202f598	-1.6807081178261338
190	0xc00493bc25ee9550	-2.5721362079081374
191	0x4002921d76bd66a3	2.3213452602911544
192	0x400b210f8a408f1b	3.391142921538529
193	0x3fdd5726fa64f198	0.45844435169763065
194	0xbfebbfc0fb1af8d1	-0.8671574501420541
195	0xbff759561491c1b1	-1.4593106082430547
196	0x3ff6ff37e0a312a8	1.4373091483004519
197	0x4003efac394de937	2.492027709665446
198	0x3ffedac95d0717ec	1.9284146913428186
199	0x3fff1a69ac196f18	1.9439484331732668
200	0x3fe450d36d6f0f44	0.6348664414767673
201	0xc008fc13d1407047	-3.123084673670778
202	0xbffc745da1cccdda	-1.7784096069634558
203	0x4008558816022d3e	3.0417634696401867
204	0x3fe1f1acc400d185	0.5607513263881151
205	0xc00c0b26eafb0eb7	-3.505445323740641
206	0xc008b9e5fd8c5ef4	-3.0907707031691363
207	0x3ff7cc24a86a80ac	1.487339647173978
208	0xc00819903320c755	-3.0124820703867194
209	0xc0031e82ac4c257b	-2.3898976765382804
210	0x3fe9708dfb0ce87a	0.794989576657158
211	0x3ffd948ee515bbb9	1.848769087660669
212	0x3ff038324a2041ad	1.013719834856697
213	0xc0000b5ce9bda457	-2.005548311328805
214	0x3feb3550f4b47ae1	0.8502583293337375
215	0xbfe8026d2aca9945	-0.75029619558044
216	0xbff15c45ff8bca0e	-1.0850276930110598
217	0x3fff3c4814d53de3	1.952217179659663
218	0x3ff1510016c3650a	1.0822754754247534
219	0x4000010daf93f1a3	2.000514384939565
220	0x3fbddb2900fd54ff	0.11662536882552742
221	0x3fd28ac2ea547c2a	0.28971932300368286
222	0xc001c738bf99afb1	-2.2222762078071914
223	0xbfb42897dcf9896c	-0.07874440331355509
224	0xbff3045dceb83854	-1.1885660243019815
225	0xbff248cf3b5b8367	-1.1427757567073173
226	0x40092dc4e195acd9	3.147348177318787
227	0xbfd2c7aa3bddb200	-0.293436583006752
228	0x40089742fc888db6	3.0738582352803077
229	0x3fe1a4d762ad4477	0.5513722350389249
230	0x3fff422d0038b8d3	1.9536561974196516
231	0xbfbfcb486d9daa78	-0.12419560123604778
232	0x3fe7bf7daff90a4f	0.7421253621071829
233	0xbfdee8fee1a47e24	-0.4829709247150922
234	0xbffeb21856371be1	-1.9184802406104995
235	0x3ff82ff1ffb4e0eb	1.5117053974664099
236	0xbff7d75da37b2e86	-1.4900795351012746
237	0xc005c9587e2bf6f5	-2.723313317982383
238	0x3ff05962ab6cd438	1.021822614316319
239	0xc002aa54e90aeae5	-2.333169766088178
240	0x400865be4746dfde	3.0496793335441756
241	0x4009f815d86347f8	3.246135416536159
242	0x400aaecafcf2a3df	3.3353481065318955
243	0x3f6f2e4182c7ebe5	0.0038062362202686433
244	0xc006ed59f3d0775f	-2.865894226836573
245	0x3ffe9dc70eec2ac1	1.9135199149047113
246	0xbf976f8f232c2e8a	-0.022886501809849004
247	0x40080d5df1c56093	3.0065268410072092
248	0x400918de1880a7ee	3.1371423639548004
249	0x4005f10d4c9ac3a7	2.742701147530585
250	0xbff4683437c08165	-1.2754404237567425
251	0xbfebbe0582bb572f	-0.8669459870677424
252	0x3ffff05c3f3fbd83	1.9961817236579413
253	0xbff88f83d571bcf4	-1.53503783585239
254	0xc00217905f806c90	-2.261505838495914
255	0x3fd444d94a171fd6	0.3167021964586615
