results/vqe_data/with_params/10q7l/sgd_10q_7l_42/parameters/params_ite149.npy (npy, 2448 bytes, 1 tensors)

array f8 [290]
-0.7058245912231311 2.9956333951403717 1.9185272117543453 0.056012030205106283 -2.2473226765207754 -2.5884265348966795 -2.916304500036872 2.821774180505647
0.02496664547833806 0.9832368170772451 -3.099199416578311 3.4699104235202904 2.7871158003292473 -1.6315949408661297 -2.504692025032318 -1.4816047372773298
-0.7170848416573017 -0.052297174600417835 -0.4817841305770222 -1.0168700548056944 0.7209652119011963 -2.5165881080569683 -0.9419143225622861 -0.2359584012976249
0.08254794174348448 1.4381844574081788 -2.2155749914485323 -0.200927349508606 0.24850964038236723 -2.5450651268649227 0.5735892489189974 -2.5160634847411876
-2.079515635981928 2.526177286540212 2.6604477587946262 1.6650664685151138 -1.4356289303590717 -2.6642194962872114 0.9927284025076546 -0.6669597047098625
-2.4498856227526593 -0.01792259555844161 -2.7105380855770793 2.4150944194914015 -1.9630892026142495 0.7119764508826242 -0.6640968198323097 0.021178742688725223
0.12943228356414327 -1.551259457014986 3.3709606151769074 1.399690704217627 2.711371761763139 2.8800100827051254 0.8400747985429128 2.8134740665614593
-3.0066405392938833 -1.5355366457343136 -3.020284718300207 -0.9875908302751045 -1.0141132261190156 -0.9060348717536405 2.749355656768599 -0.47381578898757465
-1.0744590913236376 0.26234853806168634 -2.006540992606836 2.130433688351592 -3.0059047717946434 2.996233877342298 1.4075122164325335 -1.4147276275368634
-3.0341016149978435 2.281090993238695 1.0362699272996305 1.4598037625633977 1.256422651995632 -3.0170069650519906 -0.7970662180525775 -2.6569380014607757
1.837430388205424 0.7770369771121035 -0.4483095726249468 -3.0025195852339763 -1.5264662332151695 -1.8378296127965152 1.1564791230202145 0.8881889536009681
2.3213948790495826 0.030153899628385734 -1.994899270874048 1.6858376922415141 1.1904020453957227 0.5289264671645914 1.637414732043047 -0.3687852475781756
0.29943147287634553 -0.9409551816480657 -2.9823504260590443 -2.785802622629619 -2.3689466725374477 0.2356992331979122 -1.133068168531216 0.08731867984768607
2.5819147098039292 -1.0270764174077862 -0.9980243499022652 1.3977020551327242 -1.4666363731485796 -3.132992494164587 -1.4551714119291073 -2.104315404046168
2.2423436130317382 2.1071378395714455 1.1068658611679192 2.57217614037362 1.931542246935659 -1.8385102060350988 2.262089603746106 0.526024102919699
1.4130559820932076 2.862562771867764 -0.7807616344401757 -2.7098915335606515 -1.0601195045844605 -0.22323071133059963 2.492129178264647 2.7746062027487155
-3.212512412356467 -0.026881252053666125 0.05225979288847127 -1.5523358126282303 -1.8757613294353488 -1.0438240671630743 2.623189052607429 -1.173357311222315
-0.6250576181537857 0.9725813549946373 -0.7109216439978174 3.22699462371839 2.9137664999749187 -2.1229593246361076 0.2661425583492163 -0.5113038163616515
-1.507245396369559 -2.591435363579342 0.19371760820693593 0.44558802547272447 -3.0592020153926223 -0.7592491299710127 2.1866462938109428 -1.9277711394855415
-2.0621240800793794 -0.5413632396259966 3.624351161621572 -1.2011488671389672 0.915878729224963 1.5440283538716644 -1.9579985420115593 1.1089900028662185
-0.6113259018596732 1.1326231839494962 1.465504621827613 -0.09502808159261757 -1.8717304270775892 2.33590844597405 -1.1073659059508887 -2.1483453871624074
-3.251693481580547 0.23981838032410227 1.0132386879011126 -2.6099377808731297 -0.677837404936166 -2.1115446185009006 0.9091924842284503 -1.8599791602420768
1.3474598071898618 -0.396452494952656 2.124489595148287 -2.4721668270675554 -0.8341598433999532 -2.6262825244753194 2.445123051957862 2.991163071139859
-1.6324551178288276 0.8453919925802512 2.0235508229581667 0.27957695672287675 0.08852895044777298 -1.6995372441760614 -2.540855341134061 2.327508764872775
3.3342026613216746 0.43563923764176155 -0.85914971756471 -1.4999955957828441 1.3950965738224548 2.505892578945512 1.8897955954904848 1.8848769321359176
0.7340487237310473 -3.099271318490787 -1.6938423178943676 2.9959096913037486 0.5900537931705613 -3.50972741953646 -3.041034825665376 1.4111225764136504
-3.0191650890134722 -2.3783780842185727 0.8253741989363353 1.829634133841596 1.0719665332023505 -1.9960068199098444 0.8450765482958367 -0.722439246078375
-1.0520293603589745 1.9299765660548598 1.115738535055404 1.9351970775298526 0.15301521103069804 0.3030198144922018 -2.2406301556844466 -0.11249434525972729
-1.1885976358362031 -1.15784072642511 3.1421634124467293 -0.30299945848655263 3.0769960045208005 0.47423784259622687 1.899796864760105 -0.11777105658442252
0.7235602732793137 -0.4147835255127856 -1.9590882310657205 1.520428737770935 -1.5221463921790401 -2.7138663460691226 1.1015291167762464 -2.319000393768229
3.00909464591385 3.244423635448691 3.3354126446196832 -0.013790755775634779 -2.8659287456589406 1.9880283090098367 -0.029998772799858308 3.0058888194700817
3.139832185945898 2.7233935979800425 -1.2315669154078537 -0.8805967935028157 1.9734266350784169 -1.4791863668295215 -2.285029596997734 0.30414973733178247
00000000: 6482 0074 1d96 e6bf 7c77 37a4 0ef7 0740
00000010: 2289 ef96 49b2 fe3f b4b5 d3db 9bad ac3f
00000020: 33ba b94f 84fa 01c0 b7d6 9bf8 18b5 04c0
00000030: 1fb0 2674 9754 07c0 6bc0 6f57 fe92 0640
00000040: a4f9 4737 db90 993f a33c b20e ad76 ef3f
00000050: 96e3 4f10 29cb 08c0 a28d 6865 60c2 0b40
00000060: c2a1 645e 034c 0640 e06c f54b 031b fabf
00000070: cc86 f0f8 9b09 04c0 e046 432b a7b4 f7bf
00000080: ae03 ece8 5bf2 e6bf 71fb 29fd b1c6 aabf
00000090: bed8 231b 8dd5 debf 45c1 da88 1945 f0bf
000000a0: 4d6b d5a2 2512 e73f 88db 2cf2 f821 04c0
000000b0: 9a3f 6181 2924 eebf 4c16 6588 e233 cebf
000000c0: e2ef 23a6 dc21 b53f 29f0 a2b4 cd02 f73f
000000d0: fcda 9061 7fb9 01c0 5b76 81c5 fcb7 c9bf
000000e0: 286c 17f5 29cf cf3f 7799 f01a 4b5c 04c0
000000f0: af37 2ed7 d75a e23f 4efc 6ce4 e520 04c0
00000100: 1181 0018 d9a2 00c0 b3b4 ec6f 9c35 0440
00000110: 53ea a5d5 9848 0540 9e04 bfbc 1ca4 fa3f
00000120: bb56 910a 56f8 f6bf 745a af4f 5250 05c0
00000130: 1a95 d25a 6ec4 ef3f 5251 efe0 bb57 e5bf
00000140: 5e4e 25a2 5d99 03c0 6fbb 2107 4d5a 92bf
00000150: 94ed 8097 2eaf 05c0 ccbd e305 1d52 0340
00000160: 22be 4539 d068 ffbf 4504 82d6 82c8 e63f
00000170: 03d6 51f9 4740 e5bf a2b7 df5c e1af 953f
00000180: 2030 7ab0 3c91 c03f 61d7 b76f f5d1 f8bf
00000190: 954f f232 baf7 0a40 2414 7214 2265 f63f
000001a0: 8f90 a0ad e3b0 0540 3df3 eab9 420a 0740
000001b0: 6df0 3d8b e4e1 ea3f 6b34 00b1 fe81 0640
000001c0: a0c2 188e 990d 08c0 8cd0 b3df 8e91 f8bf
000001d0: e8a9 cd08 8b29 08c0 cf8d bb15 589a efbf
000001e0: a2f4 49ca ce39 f0bf 45f5 e6d7 3cfe ecbf
000001f0: 5e26 b72d aefe 0540 abec 8175 ff52 debf
00000200: 98ff 2104 fc30 f1bf f436 c885 51ca d03f
00000210: 4ea3 2a5d 650d 00c0 4b22 4ed1 200b 0140
00000220: 98fc 0dcd 170c 08c0 cfd1 9277 49f8 0740
00000230: 73c5 a487 2b85 f63f c44b d06f b9a2 f6bf
00000240: 8e40 4911 d745 08c0 6748 79a2 ac3f 0240
00000250: 8b48 79c6 8f94 f03f c699 ac30 5b5b f73f
00000260: b365 84a3 4e1a f43f c09e 358c d422 08c0
00000270: fd07 6903 9181 e9bf 6630 feb5 6841 05c0
00000280: 554d 2068 1d66 fd3f 7c55 8fa6 7cdd e83f
00000290: c31a 3aa2 1ab1 dcbf 706f 01fd 2805 08c0
000002a0: 2ab8 61db 676c f8bf 514d 2906 c067 fdbf
000002b0: ac0e be40 f080 f23f cd4e 8c3d 0b6c ec3f
000002c0: 6bf5 747a 3792 0240 55cd 00f3 a9e0 9e3f
000002d0: 157e 737f 1beb ffbf a4a9 a8f1 30f9 fa3f
000002e0: e50e e103 e30b f33f 5dbe ce32 f7ec e03f
000002f0: dbd0 41ca d932 fa3f 1f1d 6670 2d9a d7bf
00000300: b268 d99f e229 d33f 0cc4 850a 4e1c eebf
00000310: 0415 498a dadb 07c0 2371 aae2 5249 06c0
00000320: 8121 2450 9af3 02c0 e87e 2379 642b ce3f
00000330: dbae 7f16 0c21 f2bf aa94 465a 845a b63f
00000340: 895a 3de6 c2a7 0440 0a26 74ae e76e f0bf
00000350: f623 eec2 d0ef efbf 798d 85d4 fc5c f63f
00000360: 57c1 9cb3 5777 f7bf 2967 685e 5e10 09c0
00000370: 5ef4 84d1 6148 f7bf 4ec7 8650 a3d5 00c0
00000380: 26ed 22d9 51f0 0140 d5fc 6815 6bdb 0040
00000390: c466 2cfa b8b5 f13f 4ea6 9315 d193 0440
000003a0: 6ce5 d6d7 98e7 fe3f 0d87 84ad 896a fdbf
000003b0: 62b0 256f c218 0240 c054 de7f 30d5 e03f
000003c0: ac1e e896 e09b f63f 6e5a 7f4f 87e6 0640
000003d0: c58b bcd2 fffb e8bf 62cd c29c dbad 05c0
000003e0: f3ab a0de 3ff6 f0bf da59 50ee d292 ccbf
000003f0: 9e6e 306c e1ef 0340 03ad a0bc 6432 0640
00000400: 4f85 28b5 39b3 09c0 c9bb c849 c286 9bbf
00000410: 5014 b4aa cbc1 aa3f 865d ba13 5ed6 f8bf
00000420: bf6b d04f 1e03 febf c9e3 73dd 80b3 f0bf
00000430: 9f64 c18a 4afc 0440 b18e e350 12c6 f2bf
00000440: dec1 82d5 7800 e4bf b9d7 0cef 621f ef3f
00000450: 5ea7 5fbf debf e6bf 10e8 a98e e2d0 0940
00000460: cf94 8ccf 644f 0740 1367 3019 d2fb 00c0
00000470: 04c1 0bcc 7a08 d13f 2cfc 32d2 995c e0bf
00000480: d142 4759 ad1d f8bf 4d2b c276 42bb 04c0
00000490: a33d f413 bdcb c83f 9440 39a3 8384 dc3f
000004a0: b2bf ffe7 3e79 08c0 14be d7d4 c44b e8bf
000004b0: 6bb3 7e69 407e 0140 7935 e48c 26d8 febf
000004c0: 52e1 e1e8 3a7f 00c0 9668 2e00 d952 e1bf
000004d0: f812 63d2 abfe 0c40 3ad4 dfdf e737 f3bf
000004e0: b6f1 a3e8 e04e ed3f b49b 3f13 57b4 f83f
000004f0: a1e2 7847 f653 ffbf f36b 1e4d 6cbe f13f
00000500: 89eb 7556 fb8f e3bf 5812 dc7c 391f f23f
00000510: e22e 6ef9 b472 f73f 5954 a4a6 c253 b8bf
00000520: 2a9f b39a 9bf2 fdbf 1345 6fc4 f0af 0240
00000530: 4e3b ec4f c5b7 f1bf ffff d2b4 cf2f 01c0
00000540: e309 40df 7703 0ac0 f760 3c62 5eb2 ce3f
00000550: 553c 39c5 3936 f03f 2b8f 2b0f 27e1 04c0
00000560: 5a9a c611 d8b0 e5bf a00c 4481 71e4 00c0
00000570: 51f7 30d6 1a18 ed3f 41b3 0782 79c2 fdbf
00000580: f6e0 c803 328f f53f 1450 0f49 7a5f d9bf
00000590: 59d5 9e66 f4fe 0040 0417 c466 ffc6 03c0
000005a0: c941 e1fb 6fb1 eabf 2b6c 8569 a002 05c0
000005b0: 7bd6 b6ac 9c8f 0340 9163 7ce7 e6ed 0740
000005c0: c733 f441 891e fabf a9d6 0d82 730d eb3f
000005d0: 9631 f369 3b30 0040 f4c1 75bf 96e4 d13f
000005e0: b821 ec52 d5a9 b63f 561f 21f7 4d31 fbbf
000005f0: 3e4d 10f7 ab53 04c0 6041 52ea bc9e 0240
00000600: ede6 e471 72ac 0a40 b1a5 a165 83e1 db3f
00000610: aedb 698c 277e ebbf 6a80 c061 fbff f7bf
00000620: f743 f5c8 5052 f63f 6ee1 8e68 110c 0440
00000630: 881a 6c4e 9a3c fe3f 2223 c8b6 7428 fe3f
00000640: 6a0d c3bf 537d e73f 33ca d2c2 4ecb 08c0
00000650: 8bfe fe66 fa19 fbbf 3a5a 0f80 9ff7 0740
00000660: bf8b 117e b8e1 e23f bf44 26f8 eb13 0cc0
00000670: bcd6 1111 0a54 08c0 9280 4544 f593 f63f
00000680: 664d b406 4027 08c0 6bef c916 eb06 03c0
00000690: ab99 ec26 7769 ea3f 48eb 0771 2e46 fd3f
000006a0: 642b 2861 c626 f13f 20b1 e1d8 a4ef ffbf
000006b0: 8682 31f9 dd0a eb3f cf1c e8e8 381e e7bf
000006c0: 0bc7 12bd 1cd5 f0bf 3808 941b 2fe1 fe3f
000006d0: d532 6fa6 10da f13f 4de3 f435 91f6 fe3f
000006e0: ec6c 959f 0096 c33f f32c 5238 ad64 d33f
000006f0: c9c4 c880 cfec 01c0 3c1e e0ed 6dcc bcbf
00000700: 814f 60f4 7e04 f3bf 4e90 5fff 8386 f2bf
00000710: f42b 3992 2623 0940 f2f2 39d7 5764 d3bf
00000720: 4fb7 ca14 b09d 0840 2d7d 1eae e959 de3f
00000730: fd01 b365 9165 fe3f ae09 7274 3e26 bebf
00000740: 576c cddf 6727 e73f c7ce 3f33 d08b dabf
00000750: ff7d a6e6 6c58 ffbf e0fe 8915 ad53 f83f
00000760: 4622 e22c b65a f8bf bba7 108f ffb5 05c0
00000770: f754 c2fe dc9f f13f 532a 1514 508d 02c0
00000780: 4526 b636 a012 0840 f1f8 0461 94f4 0940
00000790: 8773 1ad3 ecae 0a40 2709 59e8 533e 8cbf
000007a0: ef2b da0c 6ced 06c0 ca82 abc5 f6ce ff3f
000007b0: 83d1 6190 ffb7 9ebf d449 f86f 0f0c 0840
000007c0: ce86 4c56 601e 0940 31ae 2b95 82c9 0540
000007d0: 8132 8882 7fb4 f3bf 6dd3 a153 d92d ecbf
000007e0: 5a79 abce 2793 ff3f b78c e352 bfaa f7bf
000007f0: 87fa eb98 bd47 02c0 e753 bb75 3077 d33f
