results/vqe_data/with_params/10q7l/sgd_10q_7l_42/parameters/params_ite180.npy (npy, 2448 bytes, 1 tensors)

array f8 [290]
000000 b5 16 d7 11 97 58 e6 bf 28 87 d5 63 1d f9 07 40
       -0.6983142231408325 2.996638088182312
000010 84 4a 0f 74 b7 9e fe 3f cb 5c 63 fc cb 76 ac 3f
       1.9137491735060914 0.055593847807978124
000020 bd b6 e0 ba c8 19 02 c0 c6 8f c9 97 71 de 04 c0
       -2.2625898933245865 -2.608615098799393
000030 f9 ad 8c 83 6a 8e 07 c0 53 98 6a bf 8a a6 06 40
       -2.944539096575451 2.8313193277745454
000040 80 5e 4d d4 d4 c1 9c 3f 1e 7f 0c 28 bb 7d ef 3f
       0.02808315797605454 0.9840980322078143
000050 89 d4 8a 3d 0c 08 09 c0 f3 bb 8e a1 fe 03 0c 40
       -3.128929596709501 3.5019505140003218
000060 ea a7 1a 12 8a 57 06 40 51 87 39 22 78 1a fa bf
       2.792743817747568 -1.63146222466499
000070 b6 31 e1 fe 9d eb 03 c0 a6 78 d9 ed 48 90 f7 bf
       -2.4900474464868365 -1.4727258006092057
000080 79 e1 eb 10 74 00 e7 bf c0 3b 34 de 69 b4 af bf
       -0.7188053446289323 -0.06192332112743015
000090 5f 37 ef bd 70 a3 de bf 8f 6e 06 88 02 11 f0 bf
       -0.4787256102398398 -1.0041528047067094
0000a0 93 5c c1 10 d2 29 e7 3f f8 12 54 a6 27 f5 03 c0
       0.723855049824936 -2.494704532089937
0000b0 b4 bb d3 36 d0 9f ed bf 7c 0d 1c 52 54 ef ce bf
       -0.9257584639398062 -0.24167875298745034
0000c0 05 f6 16 73 1e 6f b7 3f 43 ec 57 79 56 f1 f6 3f
       0.0915392905216877 1.4339203586557836
0000d0 09 94 f3 8b 7b a8 01 c0 29 35 7a 1c 1f f8 c9 bf
       -2.2072668966015994 -0.20288456812378655
0000e0 ba 6a 62 7f 33 9b ce 3f b3 29 7e e6 c2 4a 04 c0
       0.23911136360114488 -2.536504555440126
0000f0 9a 80 0e f4 28 7a e0 3f 05 7d 6d 62 c8 1f 04 c0
       0.514912106202263 -2.5155189218199916
000100 20 d6 33 97 df 7f 00 c0 c5 f7 7f 1f ec 57 04 40
       -2.062438184041426 2.542930837719697
000110 51 b1 9b b0 8e 79 05 40 2d e5 a6 89 e8 d0 fa 3f
       2.6843541905892967 1.6760030152348222
000120 fa 16 d6 1e bf b3 f7 bf d4 9b ff 0d 00 54 05 c0
       -1.4813834385435585 -2.66601572929674
000130 38 94 67 c0 6c 48 ef 3f c3 2b db 4f bb be e5 bf
       0.9775909192945909 -0.6795326766672293
000140 cb af 5d 3c b1 c9 03 c0 06 32 d3 3f 44 2c a4 bf
       -2.473482581719485 -0.03940022734750319
000150 fb 40 7f d4 b7 aa 05 c0 2c cc c1 03 b9 40 03 40
       -2.708358440526465 2.406602887489063
000160 3d 17 d8 94 d4 b0 ff bf 43 5e 65 45 73 cf e6 3f
       -1.980671483442577 0.7128235202207595
000170 eb 96 dd 36 2e 77 e5 bf 8f d7 5d 35 0b 42 86 3f
       -0.6707984038918914 0.010868156019323809
000180 e0 a8 64 61 e0 51 b5 3f 50 a9 66 f7 91 aa f8 bf
       0.08328058603061406 -1.5416431106665023
000190 fa 42 67 7d d4 e1 0a 40 bb ac 71 72 f0 65 f6 3f
       3.3602685734880398 1.3998875112982165
0001a0 dc 8e 4f 9d c4 ba 05 40 17 c6 24 a8 eb fb 06 40
       2.716195324888629 2.8730080734465093
0001b0 dc 71 21 d3 41 f8 e9 3f 6b 6f fe b4 b1 91 06 40
       0.8115548251767524 2.821139730467555
0001c0 21 f3 91 bd 94 2b 08 c0 fb 80 8d 1d ba 8b f8 bf
       -3.021279793755085 -1.534113040390422
0001d0 05 9f 0f f6 2f 41 08 c0 22 8b 2a 1e 8a 15 ef bf
       -3.031829759933205 -0.9713793362792311
0001e0 f7 36 2a 2b 86 4e f0 bf 58 03 dc a7 68 be ec bf
       -1.019170921910186 -0.8982432631019988
0001f0 eb 65 c0 5b 5a fd 05 40 10 b3 33 26 5a 0c e0 bf
       2.7487075012293096 -0.501507830250917
000200 48 16 bf 26 d1 5e f1 bf 84 fb ba f1 6f 16 d0 3f
       -1.0856486810238426 0.25136946302875907
000210 7d e0 be d9 3a 34 00 c0 d9 33 54 2d 96 12 01 40
       -2.025502873551942 2.134075502521665
000220 34 44 c1 43 6e f1 07 c0 56 b9 16 07 b8 1d 08 40
       -2.9928860944133024 3.014511161213856
000230 e2 49 96 93 57 5f f6 3f 7e 7c 53 02 69 81 f6 bf
       1.3982768788451883 -1.4065942850936888
000240 22 9e 02 5e 18 3d 08 c0 44 e6 34 fd c0 c9 01 40
       -3.029831633047949 2.2235126287239684
000250 ba 41 e6 58 44 bd ef 3f 5e 8f c5 94 67 85 f7 3f
       0.9918538795773693 1.4700694857974308
000260 80 8d a6 1f 7e b2 f3 3f 78 28 f2 3a 8e 19 08 c0
       1.2310773121215277 -3.0124783139372617
000270 6d ef 36 60 bd 6b e9 bf 1c b6 75 20 ad 7e 05 c0
       -0.7944018248740413 -2.6868536506579073
000280 a0 00 bd 89 34 51 fd 3f 5c 96 a8 a9 cf 24 e9 3f
       1.8323254948045715 0.7857435525554126
000290 c0 54 d4 ec 6e d8 db bf 62 db da a1 a7 df 07 c0
       -0.43508504035828466 -2.9842064518847318
0002a0 28 75 29 c1 22 38 f8 bf 4f 9c 22 57 0e 70 fd bf
       -1.5137050195110735 -1.8398574260443359
0002b0 28 95 2f 18 d5 13 f2 3f 60 86 7b 50 48 b9 ec 3f
       1.1298418946037803 0.8976174899982645
0002c0 f4 f7 8d b7 b8 c2 02 40 3b 91 91 1f a5 00 86 3f
       2.345078882236516 0.010743417764566323
0002d0 db f4 a4 ed 03 74 ff bf a5 88 2e 07 94 af fa 3f
       -1.9658240588171825 1.6678657799280157
0002e0 92 9f c8 25 c8 5e f3 3f 87 9c 14 10 53 53 e1 3f
       1.2106400943684759 0.5414214433739212
0002f0 ff 28 e4 29 a1 2c fa 3f 0a a6 90 78 f6 06 d8 bf
       1.6358958851220107 -0.37542497419289644
000300 23 34 34 83 2a ad d2 3f 2c af 14 0e 2c 68 ed bf
       0.29181921780474535 -0.9189663195624909
000310 06 f3 b8 70 ea 09 08 c0 51 f3 a9 2f 3b 87 06 c0
       -3.0048416906778384 -2.816030857442833
000320 6b 1f 31 41 68 d4 02 c0 42 9a 5d d7 83 50 cc 3f
       -2.353714474975211 0.22120712295437
000330 25 2a 4d c0 51 18 f2 bf b6 47 e5 70 ba e8 b8 3f
       -1.1309373389982593 0.09730115181198937
000340 d2 e1 e1 46 45 8f 04 40 54 05 ac 08 95 35 f0 bf
       2.5699563539203405 -1.0130815829036992
000350 fe 51 17 4f 6b f3 ef bf ae ef 92 ec 9a a6 f6 3f
       -0.9984642548320719 1.4156750909014408
000360 ee 9d 5a b9 51 6b f7 bf b7 79 48 0d 22 34 09 c0
       -1.4637009849919838 -3.1504555738203766
000370 f7 ef 87 28 07 d6 f6 bf bb 7f cf 66 81 d8 00 c0
       -1.4272529204599758 -2.105715563971868
000380 50 d1 60 8c 17 fc 01 40 45 80 f5 0a e1 e2 00 40
       2.248091789917602 2.11078079759321
000390 bb ed 19 48 ed b8 f1 3f 51 4c 46 b0 9c bb 04 40
       1.107648164411201 2.591607453484848
0003a0 64 f6 f6 fe 1b f5 fe 3f 8b 1e b7 dd ce 70 fd bf
       1.9348411521490556 -1.8400410328630723
0003b0 d9 6c bf e4 a7 3d 02 40 1d e0 9a 38 6e df e1 3f
       2.280105387775262 0.5585242372098979
0003c0 7f b5 ee e5 7d 9f f6 3f 51 ef 30 fd 21 2c 07 40
       1.4139384252297018 2.896549203925965
0003d0 bc 45 3e 0a f5 06 ea bf c0 0b b8 61 51 97 05 c0
       -0.8133492660583026 -2.6988856920520163
0003e0 6e 64 1c 65 06 f5 f0 bf 75 c0 57 5e 76 ea cc bf
       -1.059820551838381 -0.22590522390919757
0003f0 9c 32 0b f2 c4 06 04 40 98 83 95 96 da 72 06 40
       2.5033053311984315 2.806080986440474
000400 2c 11 f0 9e c3 ac 09 c0 ef 9a de 1b 8e 39 aa bf
       -3.2093574921620043 -0.05122036066250312
000410 56 9a 14 14 75 9b b4 3f eb b8 6a d7 ac 55 f9 bf
       0.0804970907234773 -1.5834167875978504
000420 4d 6f e3 e6 c3 36 fe bf 5d 1a b2 bf 24 60 f0 bf
       -1.8883704203680793 -1.0234725463975771
000430 eb 23 2a c5 65 e4 04 40 8d cc fa a8 bc a6 f2 bf
       2.611522236202736 -1.1657072640198607
000440 7b 7c c9 66 5d b8 e4 bf 06 e2 94 cd aa b4 ef 3f
       -0.6475054748115235 0.9908041014924158
000450 35 b9 cd 2b 52 6e e7 bf 90 27 de 3a f4 11 0a 40
       -0.7322169166125493 3.258766612915629
000460 a6 39 e7 7d 68 2c 07 40 28 63 95 e1 34 11 01 c0
       2.896683677309926 -2.133401644107284
000470 22 21 5a 49 cf 29 d1 3f 34 92 6c 1b 4c de de bf
       0.2681768623665609 -0.4823179500402006
000480 f7 c1 d0 08 29 08 f8 bf 62 5a d2 6a 9e 6d 04 c0
       -1.501992258487119 -2.5535248132176074
000490 b9 30 f6 fa 22 dd c5 3f a9 0c 64 a8 2f c3 db 3f
       0.17081105474460914 0.4337882179681381
0004a0 fe 13 de 16 ad a5 08 c0 c9 05 42 2d 06 6e e7 bf
       -3.080896547939573 -0.7321806796973586
0004b0 a4 3a c9 cf b1 41 01 40 79 c9 55 ff 22 c7 fe bf
       2.157077430084728 -1.923617360499149
0004c0 f9 db 7d 66 45 62 00 c0 6a c1 68 69 cd a6 e1 bf
       -2.0479839331778718 -0.5516116198323691
0004d0 b6 40 38 39 25 57 0d 40 6a d1 cd 5d 24 ba f2 bf
       3.6675514669696794 -1.1704448379724348
0004e0 84 07 9d 78 75 ad ed 3f 94 f5 38 dd 19 12 f9 3f
       0.9274241786699666 1.5669191972259329
0004f0 43 40 ba 7c 83 15 ff bf d5 c2 60 51 ea ca f0 3f
       -1.9427523491067553 1.049539869196612
000500 93 6a e6 41 19 ab e2 bf 62 f4 d2 ed 52 06 f2 3f
       -0.583386067114889 1.1265439310075398
000510 8a c1 c2 76 db 36 f7 3f 1e 03 48 ef 42 d2 b4 bf
       1.4508928908436212 -0.0813333353216987
000520 bc be 70 0e ab 44 fd bf a0 cb 7d e8 e6 0f 03 40
       -1.8292646946028261 2.3827646411313737
000530 59 4e 0d 82 5f ea f1 bf 94 ee e2 33 5d f6 00 c0
       -1.1197199897914258 -2.120294957507051
000540 59 fe 85 e4 09 7c 0a c0 6a 8e c9 dd 84 f8 cb 3f
       -3.310565743769797 0.21852169827899398
000550 24 be 53 95 a1 79 f0 3f 76 95 8d e2 b0 09 05 c0
       1.029695113476813 -2.6297319125612217
000560 c3 16 6e 7e 68 e2 e6 bf 08 47 2b 6b a2 b7 00 c0
       -0.7151377171837442 -2.0896652577001795
000570 25 a6 14 34 57 3b ed 3f f1 2b b4 ff 92 42 fe bf
       0.9134937302780527 -1.891253470271064
000580 19 a5 38 da 47 cd f5 3f 24 61 7d 83 af 84 d8 bf
       1.3626173519390419 -0.38309848633572785
000590 78 73 3e 80 fc dc 00 40 5c a9 22 09 0f 0f 04 c0
       2.10790348234735 -2.5073528970435017
0005a0 ff 49 96 58 17 4e e9 bf a2 bf 4c fd 03 fd 04 c0
       -0.7907826166359085 -2.6235427655264667
0005b0 44 63 09 03 b3 3b 03 40 ef bc 99 ba 15 20 08 40
       2.404150031780235 3.0156664446036454
0005c0 ea 22 c6 32 ff c1 f9 bf 19 70 a4 92 63 85 ec 3f
       -1.6098625167234624 0.891282831583797
0005d0 29 f1 90 e8 74 cf ff 3f 8c 0c 34 0e eb ab ce 3f
       1.9881486019722365 0.23962152665635406
0005e0 f1 db 04 13 32 5b c1 3f 35 ba 2f f8 0a f8 fa bf
       0.13559556893025573 -1.6855573363096827
0005f0 79 f9 44 01 da 86 04 c0 da e0 61 30 2f 97 02 40
       -2.565845498959956 2.323820474612245
000600 51 0c 82 0b fc 01 0b 40 87 4a 9a f1 f8 1a dd 3f
       3.3759690188467535 0.4547712668801655
000610 ff 0d 8a 68 f0 b5 eb bf ac f5 b1 e2 69 8a f7 bf
       -0.8659593622000442 -1.471292386558484
000620 95 1e 4f 69 47 c1 f6 3f fc cb 16 ba 1d f5 03 40
       1.4221872438082859 2.494685605831817
000630 a8 53 39 8b 95 a3 fe 3f da 44 c6 3b 21 e2 fe 3f
       1.9149375379977105 1.930207475179762
000640 e8 d9 29 8d e1 33 e5 3f ae 2a ee c2 b5 f1 08 c0
       0.6625831372355693 -3.1180224636967386
000650 18 9c 97 ae 09 1e fc bf 21 e1 ce 7b e5 3d 08 40
       -1.7573334522255717 3.0302228615293108
000660 0b 04 dc 57 84 2e e2 3f 2f e8 75 bc 3a 09 0c c0
       0.5681783405308364 -3.5045065616113997
000670 34 d0 80 00 d5 a1 08 c0 a7 08 dc 65 3b 8c f7 3f
       -3.0790195502577493 1.4717363337409013
000680 07 3f 70 04 64 22 08 c0 a9 2d 06 75 90 1c 03 c0
       -3.016792330432398 -2.388947405100869
000690 6b bc f6 61 65 d0 e9 3f a0 63 d1 55 d1 7e fd 3f
       0.8066889680247987 1.8434613563788176
0006a0 d9 83 ca ec a7 72 f0 3f da 65 97 db 94 0a 00 c0
       1.0279921769763318 -2.0051667361810646
0006b0 ad ab 20 e5 b9 25 eb 3f a6 2d 09 a8 c1 83 e7 bf
       0.8483552432202167 -0.7348335535001993
0006c0 d6 39 95 ca 63 34 f1 bf ff d8 d3 54 11 21 ff 3f
       -1.0752904809374875 1.945573169095553
0006d0 76 16 e6 00 65 85 f1 3f b0 8d e1 a6 1e ac ff 3f
       1.0950670275791743 1.9795214194099167
0006e0 1b 3d 7d f9 4e 09 c0 3f cd b5 7f f3 d2 ae d2 3f
       0.12528407270517836 0.2919204118651038
0006f0 e4 4f e4 45 e6 cf 01 c0 ed d0 30 12 02 ea b5 bf
       -2.226513429670364 -0.08560193008526414
000700 35 e3 a2 1c f8 07 f3 bf 78 53 6d f7 a7 50 f2 bf
       -1.1894456022839226 -1.144691435348447
000710 e9 d0 2a bd 31 2a 09 40 03 85 5e 72 5a e3 d2 bf
       3.145602681988852 -0.29512654465550286
000720 b5 6b b7 5e a5 9a 08 40 d7 ea f7 21 cd fe e0 3f
       3.075510730717236 0.5311036742635576
000730 5e 98 9c 13 7d 0e ff 3f 51 83 7f 94 72 69 bf bf
       1.9410372510988263 -0.12270275235597451
000740 30 ba a1 40 db a9 e7 3f 71 bf d7 71 37 e9 dd bf
       0.739484430536157 -0.4673594104524375
000750 fa 06 ab 36 45 e1 fe bf 0d 38 52 4f 87 32 f8 3f
       -1.9299976478072822 1.5123360727770916
000760 ef 00 ff ef 36 fe f7 bf bb bf b7 3f 87 c2 05 c0
       -1.4995641112182587 -2.7199845292998055
000770 5e cf df eb bd bb f0 3f ba 18 79 65 1d a1 02 c0
       1.0458354200208855 -2.3286693503933664
000780 25 47 df 9f 7b 54 08 40 0a cb fc 93 09 f8 09 40
       3.0412514200223932 3.246112018730291
000790 0a bb 1e 2e 3d aa 0a 40 ff 47 76 6a 66 66 6e 3f
       3.333124504387688 0.0037109375295552023
0007a0 44 cc 77 a5 2d ee 06 c0 38 27 a5 b5 c8 f0 fe 3f
       -2.866298001020853 1.9337851615441206
0007b0 68 24 a3 74 ca 3b 9a bf 56 74 c1 8f fb 0e 08 40
       -0.025618708962415943 3.0073157530701264
0007c0 75 87 eb b0 ca 1c 09 40 00 b4 0b 6a ff e4 05 40
       3.139058477580813 2.7368152890035162
0007d0 e2 05 cd d4 df 3b f4 bf 21 d8 61 92 d4 e8 eb bf
       -1.2646177589925789 -0.8721716746356415
0007e0 84 a3 f1 66 7d da ff 3f f5 f2 43 13 11 52 f8 bf
       1.9908422490354676 -1.5200358154826834
0007f0 a8 69 5b 7f a0 29 02 c0 72 cb bd 07 ac 2f d4 3f
       -2.270325655915446 0.3154096675490826
