results/vqe_data/with_params/10q7l/sgd_10q_7l_42/parameters/params_ite961.npy (npy, 2448 bytes, 1 tensors)

array f8 [290]
00000000: 0662 f83d 2120 e6bf 2607 2b3d 66da 0740
00000010: a94b b302 459b fe3f f7c9 b536 35da aabf
00000020: 7d1b ef01 5507 04c0 8220 a710 d857 03c0
00000030: 5731 8af1 f493 06c0 57a5 133d 83bd 0640
00000040: bff8 6a9c cf44 a63f 4125 6b9c 3c91 f03f
00000050: 2f7b 564d 603a 0ac0 abc2 ac75 d832 0a40
00000060: 1e44 a757 6f9b 0640 cbc7 2e1e e44f fabf
00000070: 74f7 20a4 04ea 01c0 709d 9a3a d5d3 f2bf
00000080: 97cb f072 d14f cabf a098 c1ec 6209 b63f
00000090: 97a9 2e72 ac21 e2bf bbfa 6475 d513 f0bf
000000a0: 9380 aaf9 3630 e83f 4044 48d6 2741 00c0
000000b0: 87f0 dadc 7e6c ecbf 7aba dfcd 3b50 e0bf
000000c0: 5c19 2b33 4065 cf3f e3d1 c835 1b79 f93f
000000d0: 69c3 021a 086e 01c0 e748 ca3d c9d3 d1bf
000000e0: 5a10 8ed0 5c79 db3f 4680 1ff6 214a 03c0
000000f0: f509 1abc 2ce4 e73f 614c 9f96 5777 ffbf
00000100: 0e52 9dd0 e5b3 febf 3284 d673 2944 0840
00000110: 84ba 0163 db0a 0440 2a9c dfbe 8014 fd3f
00000120: 212a 4fd8 aca2 f9bf 2287 41ad 3d6e 02c0
00000130: b33b 4703 0607 ed3f e21b f762 951a e6bf
00000140: e232 2f29 da95 00c0 c6db 703e 8bd8 cebf
00000150: 1cc3 040b b2ca 08c0 c9bc 3204 f8f4 0240
00000160: 5d05 9267 61a6 00c0 4c5f 66dc 8576 e03f
00000170: d92e 7bff 2991 e4bf dd8b f48d 8a74 a0bf
00000180: ec8f af94 90cb b33f 0ce4 bbe3 52d2 f7bf
00000190: 6c71 2773 62a5 0d40 af20 c6d1 9286 fd3f
000001a0: dff7 b13d 152e 0740 96f7 1923 2a17 0840
000001b0: 6d0d 6810 8d11 dd3f 33c5 3f3e e281 0740
000001c0: 215e 1184 628e 09c0 923d 5cc2 7c1b efbf
000001d0: b70e ec2c fee0 08c0 8ede a364 8ead f0bf
000001e0: f68c df9e b0e0 f5bf 35c1 e47c a4ef eabf
000001f0: d8e2 38ff 330b 0640 0ed7 79f8 8886 efbf
00000200: 0c0d a72e cdea f3bf 2a7a a93b 04f8 d1bf
00000210: 0a26 f126 fe8f 00c0 f827 4b2b 926c ff3f
00000220: 1b05 e16a 3f27 08c0 eba9 4703 019b 0840
00000230: f225 6131 0faf f13f f85e d98e 88b7 f3bf
00000240: 0ac0 0550 8d98 05c0 d57b 1df2 82ca f53f
00000250: 9333 a931 44e4 e13f 88bf 0171 3459 f53f
00000260: b8f1 125d 82c2 e33f 9dcf 1455 c371 05c0
00000270: 4019 3c1e 78ce e8bf ccf9 c0b6 9fe8 04c0
00000280: 6704 9729 744d f83f d184 561b 4b21 f03f
00000290: 854e 6d7e adbb d8bf 830b ae1e 7a31 07c0
000002a0: 101b 97a3 ce80 fbbf daa2 f055 c7b4 01c0
000002b0: 53e0 2134 5979 e93f c909 4a07 4d93 ed3f
000002c0: 05c2 e082 d2eb 0740 2b88 41f5 3ff5 96bf
000002d0: 3adf 3375 6530 fbbf bce9 c234 792e f93f
000002e0: e69b 07d2 280e fa3f 7c9e d519 fce8 e03f
000002f0: 3ba0 807e 221f fc3f 4501 0c35 d670 d3bf
00000300: e6d8 d7fb 125f c83f b360 9967 64e5 f1bf
00000310: 50aa 9799 2a68 08c0 549f a996 c768 06c0
00000320: 6348 d203 24ec 01c0 b24e e2a3 3897 92bf
00000330: 4673 8428 cd9d f1bf 5688 a07c 010c a33f
00000340: dbd3 e07a d101 0340 56c3 d88f 1894 f6bf
00000350: dc06 6f9f c7da f4bf 04f5 6c8b 24cd f53f
00000360: 9786 9ed4 f4b1 fdbf 6e50 3700 95d0 08c0
00000370: da63 6178 5a89 f3bf 9c7e 1983 385a 00c0
00000380: badf f969 cc1d 0140 6df3 1aed 70fb 0040
00000390: 1ef9 2be4 f7fb f03f 47bb 2fc6 589a 0740
000003a0: e15f 2554 d6df f23f 4e92 cef4 9637 fcbf
000003b0: 207a a908 f209 0340 4066 6bce ad2d e03f
000003c0: 36e9 abdc 4c3e f93f 77c6 b105 3dfc 0640
000003d0: ee77 3e8e 17ef f9bf d860 fb59 2a40 04c0
000003e0: e1a3 ed4b 7c1e f8bf 1597 59ce ec26 bb3f
000003f0: 3807 aa8e 6d23 0440 2f00 a9ea 7053 0640
00000400: c6e4 17ab 7452 0ac0 e07a 80c5 387e d8bf
00000410: 261d 1380 f077 b83f 3262 bb1c 2770 febf
00000420: f461 786f 2354 fabf 4c44 bddd d908 e9bf
00000430: 03d4 c1a0 3d68 0440 3b2b 0dd4 3e43 eabf
00000440: ce4f 7b6e f1b7 e7bf 69b4 f587 756e e63f
00000450: e20a 5f8b 0b88 eabf 98c0 4be6 8316 0e40
00000460: ecf1 89b2 21e4 0940 79a2 e9e6 b455 00c0
00000470: a987 a3f1 c4ae e13f 0e1e 583f 14f9 d2bf
00000480: 1094 cb83 34ee f8bf 1c67 27ef 6968 06c0
00000490: f17b 29ee e4e7 b63f 7416 5d2f 3a7c e43f
000004a0: f33a b83c c8df 09c0 04e1 bb2b 5058 edbf
000004b0: 8494 96f3 a231 0240 4fcd a632 a04a fcbf
000004c0: 1ab2 d009 4320 fdbf 2755 e091 5942 e0bf
000004d0: 5766 7389 da6e 0f40 b591 a54e 958a ebbf
000004e0: 29c6 2641 a0c6 d83f d3de 0568 85c2 fb3f
000004f0: 412f 4b5f 2f59 ffbf b0a9 4384 0d1a e33f
00000500: eb13 65e0 d377 bdbf d4bf f270 89a9 f63f
00000510: ac2c e460 7882 f33f bacd 4910 0c6a a5bf
00000520: 0e65 6519 ddd5 01c0 b1a6 f83f c84b 0740
00000530: de43 89e4 c116 f5bf feca bd5e fc20 ffbf
00000540: d94b a6f3 3980 0ac0 55fb 6089 9b7a d33f
00000550: baaf a9b7 8325 f43f 8862 d439 6826 08c0
00000560: 7db8 b496 75d0 f3bf 2511 7ac6 4d97 fcbf
00000570: 4d5d cf5f faa4 f03f acd8 1047 6f48 02c0
00000580: f1a6 4550 74c7 f73f 21b3 4653 4c55 e6bf
00000590: 316e 2143 e037 fa3f bc1b 9787 84b2 08c0
000005a0: 23d0 80c0 5039 dcbf db52 41ef 9046 06c0
000005b0: 772d 8375 3214 0440 fdd2 3693 7095 0840
000005c0: 9cfc 9f69 9ba7 f4bf 9639 70fd 2b1e f23f
000005d0: c39c 9c02 64f1 fd3f feb8 57fe 6dad a5bf
000005e0: 5d7c 3636 226a debf 47db ca5a 0a61 f8bf
000005f0: f016 ecf7 96c4 01c0 3ef2 5710 207e 0240
00000600: a44c ce49 91f3 0940 219a a70b ca75 e33f
00000610: a38c 5aca 8e14 f1bf 6261 a65f 5f26 fcbf
00000620: 31ac 8441 ee9a fc3f ee3b 37a3 ae86 0040
00000630: 3c54 be03 c66c ff3f d150 3ff8 5af4 0540
00000640: d24a cd06 5e85 d33f 91a0 e20f f318 0ac0
00000650: 77ae 11f6 ba55 ffbf c177 efb0 1ca9 0840
00000660: 1015 7f3e 2f73 d43f d0bd b6de c06a 0bc0
00000670: cb45 d520 7bd8 08c0 7df4 474a e895 f93f
00000680: a76f d149 9084 04c0 9733 68e0 f6cb 01c0
00000690: c2f8 ef9e 2278 d43f b2ee 3c03 6680 fd3f
000006a0: 1035 687f 571d ed3f 124f 3c69 7dd6 febf
000006b0: d253 11c5 2d43 f13f 9aba 5f0d 7e4e febf
000006c0: 8105 1f20 35e9 f6bf fec0 bfa7 d043 ff3f
000006d0: c938 b3e1 24c9 da3f 167f bddf c7c5 0640
000006e0: 0e90 53d4 8e8b c03f 765e 0863 accd a13f
000006f0: 875b d2a4 dfe0 01c0 2c12 c4a9 4ce4 a0bf
00000700: 2ec8 64db b099 f4bf 9370 9013 1dde f7bf
00000710: 443f e540 844f 0940 3ec2 8429 55fc cdbf
00000720: c49a bd2e 7d2d 0840 1cf8 9ce8 225b ef3f
00000730: e143 049e ccd6 0140 abd1 9a92 9952 d6bf
00000740: b2f3 9de9 f3f0 e83f d5dd 58f6 204f e7bf
00000750: 4160 15a4 1e47 fabf 1f46 418c fdae f93f
00000760: 9b48 1354 97ec ecbf 2d8e 83a3 a08f 05c0
00000770: 1ccc 30d7 d837 eb3f 1f1a 541f a631 fbbf
00000780: fb61 583e 7d27 0940 3c0c 6268 8377 0940
00000790: a1e9 8595 9a7c 0a40 7559 fdbe c0d3 92bf
000007a0: 8dc9 a6d9 aacc 05c0 4480 e9c1 2bce fa3f
000007b0: 531d 1232 6170 833f 3d91 d6b8 7545 0940
000007c0: 664a 1077 8b19 0940 1d7b a923 7c5b 0340
000007d0: e211 c6aa fe53 f7bf 372d b3ca 567f e3bf
000007e0: 166f 0110 e38a ff3f 2f21 c8bb 9c13 f4bf
000007f0: d141 c957 9462 febf 269a 4dd1 81ce c8bf
-0.6914221010547983 2.9816403177982407 1.9129076104625062 -0.05244604389999446 -2.50358010779331 -2.4178925801280124 -2.822244536428268 2.8425354739780846
0.04349373611829454 1.0354581937884435 -3.2785039941803897 3.2748269265506074 2.825895962516838 -1.6445046595585946 -2.239266664749204 -1.176717022821176
-0.20556085693678192 0.0860807254808571 -0.566610548984772 -1.0048422418328034 0.7558855892457522 -2.0318142643741623 -0.8882440866068614 -0.5097941418624281
0.24527742861227864 1.5920669651942425 -2.1787263900845812 -0.2785513976497342 0.4292823826474482 -2.4111975887645114 0.7466033624517069 -1.9666362651521683
-1.918920340443154 3.0332821893539625 2.5053012595083732 1.8175055938716107 -1.6022156190471224 -2.3038285766241566 0.9071073593166744 -0.6907450611987509
-2.0731700150994223 -0.24098339604253577 -3.098972402651624 2.369613678739914 -2.0812404719769533 0.51446812674383 -0.6427202215067737 -0.03213913901188168
0.0773249018671433 -1.4888485809190142 3.7057541843807282 1.8453548616690048 2.897501451486263 3.011310838918642 0.4541962299556051 2.938419805832973
-3.1945238416481208 -0.9721053882694142 -3.1098598012484575 -1.0423721247915725 -1.3673559385286445 -0.8417532386138534 2.7554702700839293 -0.9851727345510157
-1.2448245832791285 -0.2807627279889028 -2.0703089754431447 1.9640065852313437 -3.0191639280243527 3.075685525536064 1.1052390984426634 -1.2323079662364176
-2.699488282371026 1.3619412858604296 0.5591145486774728 1.334278527672696 0.6174938028194026 -2.6805483481384287 -0.775203761150614 -2.61358588005462
1.5189096092801948 1.008128268040583 -0.3864549383772345 -2.8991587063659963 -1.7189470663303759 -2.213270827680714 0.7960630434236101 0.9242310659758967
2.9901476120796837 -0.02241992887901049 -1.6993155077197586 1.5738460598937385 1.6284568981443441 0.5284405235842793 1.7576012555600886 -0.303762008479698
0.1904014329626939 -1.118503956493481 -3.05086250299545 -2.80116193490168 -2.240303068022557 -0.018154988291441305 -1.1010257322988806 0.03720097204519905
2.375887832628434 -1.4111562365544237 -1.3034130313757748 1.3625836798012765 -1.8559463792265996 -3.1018466965561435 -1.221033544765524 -2.0440531007914853
2.139550044954345 2.1227739833688504 1.0615157044372334 2.9503646357838167 1.179647759146967 -1.7635716974993048 2.3798561741562168 0.5055760413772035
1.5777100200635465 2.8731632656934454 -1.6208720737845357 -2.5313307790603226 -1.507442757220126 0.10606269872513636 2.517298807681893 2.790742715151303
-3.290261589686085 -0.38270396506588433 0.09558013083288994 -1.902381050333258 -1.6455416063600952 -0.7823304491850052 2.5508987960006393 -0.8207086698178964
-0.7412039907308043 0.7009837775673421 -0.8291070673079413 3.7609937660091184 3.236392397722957 -2.041848949437107 0.5525841445453256 -0.29645258127172347
-1.5581555507899374 -2.8009833034419795 0.08947592558386909 0.6401644635268 -3.234268640873205 -0.9170304159333971 2.2742365866020595 -1.7682191828324283
-1.8203764327437342 -0.5080993508478614 3.92912776359007 -0.8606668983525682 0.3871231685871828 1.7349905074496987 -1.9592736933145292 0.5969302733695283
-0.11510967472447901 1.4163908397713287 1.2193530831162134 -0.0418247003443883 -2.229425619513342 2.9120030400998407 -1.3180560042567246 -1.9455531788668732
-3.312610534203014 0.3043583718862711 1.2591588186578364 -3.0187534826221203 -1.238393391318396 -1.7869394066811506 1.04027783799923 -2.2853684951797586
1.4861949096324987 -0.697912371300479 1.6386416075028019 -3.0871668427457433 -0.44099825667513154 -2.784456128293056 2.509861867967341 3.072968626127816
-1.290919697377638 1.1323661708771389 1.8714332677862309 -0.042338788316429884 -0.47522788328382665 -1.5236915155962423 -2.220991074459441 2.3115845944251125
3.2439294591982435 0.6081285693770192 -1.0675189880792366 -1.7593682991337904 1.7878248748118148 2.0657627822142706 1.9640560289601714 2.7443141359636702
0.3050150934624699 -3.2621823540722024 -1.9584302532265647 3.0825742552833337 0.31953030684629 -3.427125682784869 -3.1057035985074655 1.5990984822849719
-2.5647283331909025 -2.224591973476389 0.31983247300366824 1.8438472868428275 0.9098317612094053 -1.9273656950726417 1.0789010713535743 -1.89416318153568
-1.4319354300244813 1.9540564110466785 0.4185268596746821 2.8465726356224748 0.1292589699506838 0.03477228840727957 -2.234801566762545 -0.032991786692978614
-1.2875221796098333 -1.4917269481875663 3.163826472278659 -0.23426308181071137 3.022211423074028 0.9798750441766546 2.2298824639369603 -0.34879149739142673
0.7794131815750147 -0.7284092723338583 -1.6423632058631628 1.605222270842553 -0.903880752763388 -2.6951306128046526 0.8505672648374261 -1.6996213172693684
3.1442818518373747 3.183356109134847 3.310841720723332 -0.01838589826305666 -2.724935245897717 1.6753346991245204 0.00949169096044381 3.1589159431916003
3.1374730398031714 2.4196703706833333 -1.4580065413330137 -0.6092943152411071 1.9714079499453354 -1.2547881446099145 -1.8990672520777603 -0.19380209655646857
