results/vqe_data/with_params/10q7l/sgd_10q_7l_42/parameters/params_ite1879.npy (npy, 2448 bytes, 1 tensors)

array f8 [290]
0	0xbfe367cf82736b6f	-0.606422190462906
1	0x4008673cd7145fd6	3.050409012135769
2	0x3ffa198262b3faea	1.6312278609836377
3	0xbfd34ed45a54f751	-0.30168637105440604
4	0xc0017f6afecf2f87	-2.187215796182446
5	0xc0023e25dc81acc0	-2.280345652301179
6	0xc007689f0c678f7e	-2.926084610853592
7	0x40068daf34c76bc1	2.8191818354948457
8	0x3f7a6a9e18fe4015	0.006449334687104642
9	0x3fef378f69760077	0.9755322513374399
10	0xc009d92e4df745c4	-3.231045350178393
11	0x400ad35d8b3669b7	3.3532057643871798
12	0x40057fcdb2aef1ff	2.687404056514651
13	0xc001971b0e1d6ebe	-2.1987820723278153
14	0xc0008f6a946025a3	-2.070027503189253
15	0xbff473ca54a2aec0	-1.2782691293786428
16	0x3f83bf71136e0ae3	0.009642489819957805
17	0x3fb9940f3a46ec2e	0.09991545841960267
18	0xbfe67d82daac97d3	-0.7028211852054888
19	0xbff171e5d3914704	-1.0903070701937745
20	0x3fe7d04f7b705c19	0.7441785250583762
21	0xbffc03ed1cd1dae5	-1.7509585500499096
22	0xbfdf038576ca31bd	-0.48458992577141285
23	0xbfe5f6dd9b66806c	-0.6863849673427587
24	0xbfb10ca5e3ac9dcd	-0.06659924324468776
25	0x3ffb0d393f4504c5	1.6907284232586772
26	0xc000b4ef9b10d501	-2.0883476366531117
27	0xbfcff48f093b3e1d	-0.24965084028961906
28	0x3fc6168cb1316bc4	0.17256315853123116
29	0xc003071e55c1850f	-2.3784758281405014
30	0x3fe14a8c0062ff2d	0.5403499610474448
31	0xbffd82fbc9931c88	-1.8444784044275213
32	0xc000474a0a07c600	-2.034809187280871
33	0x400937da072d94c3	3.152271324232602
34	0x4004e6a9403f9c07	2.612627508107383
35	0x3ff9931c1da95ad4	1.5984154852537147
36	0xbff5f0308a415633	-1.371140041408023
37	0xc00171d68416994b	-2.1805849379917723
38	0x3fec6797c26bab9b	0.8876456067349524
39	0xbfe573426e621e2a	-0.670319762794809
40	0xc0023cd6b52a925a	-2.279706397401509
41	0xbfd0bcf6498bbdc4	-0.2615333288403827
42	0xc009b45713e0bb63	-3.2130567124326475
43	0x3ff7044e9de0e423	1.4385515372398536
44	0xc00194d0f4236428	-2.197664172487311
45	0x3fc2b7c080d9b2de	0.14623266498110515
46	0xbfe6268b65207407	-0.6922051406032786
47	0x3fb2fb80f8e36859	0.07415014339804439
48	0xbfb379ea47d98631	-0.07607902769225273
49	0xbff8750fd3acd5bc	-1.5285795467910779
50	0x400e5101e7ed341d	3.789554416586283
51	0x40006578180319f7	2.049545466990135
52	0x400b20bc82fce8ef	3.390984557479093
53	0x400c566de237ebc5	3.542201773959706
54	0x3fd6c69ae44d12a8	0.35587189002061814
55	0x4003bf84dc516235	2.4685151302658377
56	0xc00953dff3d7020d	-3.165954499243759
57	0xbfe92fc9a52042b8	-0.7870834565274754
58	0xc008e36d51eaaada	-3.111048355077725
59	0xbfee0081472d2a15	-0.9375616445698279
60	0xbff7e0ffac10ce3d	-1.4924313279451689
61	0xbfee8432f0f5ed03	-0.9536375719320919
62	0x4006f696d6252250	2.8704048852999122
63	0xc0015b5ea4be38d6	-2.1696141119528916
64	0xbff9a1568dd1558e	-1.6018891849283565
65	0xbfe56fbaaa605bf0	-0.6698888137497061
66	0xc001f56d129421f8	-2.244836945672656
67	0x3ff7e46ac8f3e9ee	1.4932659005850115
68	0xc0089a63b75d0297	-3.0753855061778483
69	0x4008d77968c94d8b	3.105212038653638
70	0x3ff8877bd7fedd65	1.5330770909621034
71	0xbff58c1bdd2cec9a	-1.3467062606494324
72	0xc0024bcb4b837af1	-2.2870088481425843
73	0x3ff52131c8fba08a	1.32060411938622
74	0x3fe9fc72928bf0cd	0.812066351150429
75	0x3ff02b3ebe988563	1.0105578847072472
76	0x3fe44fcaa3fbcdb4	0.6347401812367282
77	0xc003cfacf230db03	-2.476404087177231
78	0xbfed4fed8360ab1c	-0.9160068098038638
79	0xc0056b6c21caf4e2	-2.677452339178317
80	0x3ff7145447f4bce1	1.4424631891995932
81	0x3fe8f1a9cc1edf98	0.7794999109964804
82	0xbfbaeeb883696afe	-0.10520508964820505
83	0xc008a1a093cbf2d4	-3.0789195582022817
84	0xc0025fc909671491	-2.2967701658804534
85	0xbffc6dbc57afc900	-1.776790945554751
86	0x3fe3851f80dedcef	0.6100003735545253
87	0x3fe5d8d1143940ba	0.6827168841355367
88	0x4006d5dab64dda24	2.8544210665234164
89	0x3f779612b3ef0f08	0.00575835519606805
90	0xc0002acf119acc68	-2.0209027648320905
91	0x3ffbaed1dd1b4c88	1.7301806103685369
92	0x4001823d0147877d	2.1885929202989574
93	0x3ff17a0539f140b8	1.0922901404738194
94	0x3ffd713123486f37	1.840134752105724
95	0xbfd19ee4c169045d	-0.27532309425084184
96	0x3febf492069562e0	0.8736047867378964
97	0xbff459d472e753bc	-1.2719311226294243
98	0xc0089f972fddf9e7	-3.0779250850312
99	0xc0074781469f8aa3	-2.909914542907545
100	0xc0082b8caa812507	-3.021264392915899
101	0xbf7ada05be2735c0	-0.006555578644520776
102	0xbfe9a9d2fa83c3d4	-0.8019804852357262
103	0xbfb27d6e4188c3fe	-0.07222642040211721
104	0x400462baf47fa1ef	2.548208151001965
105	0xbffb24947b24b31f	-1.6964306650435856
106	0xbff6235eaff4a28c	-1.3836352227464515
107	0x3fea11cd91d107bb	0.8146732185343731
108	0xbffdb42be9c66b4a	-1.856487191375623
109	0xc008c960735800ef	-3.098328496096762
110	0xbff528f59e6bb0ec	-1.3224998653704985
111	0xbffefed3dc16a269	-1.9372137639240015
112	0x3ff95b290d2eada9	1.584755946630006
113	0x40047fd541c84173	2.5624184741247347
114	0x3ffd69aaaee2c6c2	1.838297541759332
115	0x400967c3294baf03	3.1756652094098867
116	0x3ff590a2c8a33e21	1.3478114926728113
117	0xbffc8250bf595637	-1.7818152880257807
118	0x4002cc24f5ea4807	2.3496798717615124
119	0x3fcd5a13635b83f3	0.2293113932746845
120	0x3ffae1f7955ceaaa	1.6801677546015221
121	0x4002db054ea7e516	2.3569437165248344
122	0xc000c44ff3b015e0	-2.0958556211578383
123	0xc005db4b321ce553	-2.732077018267469
124	0xbffad2a88822e4bb	-1.6764302556824038
125	0x3faa261667ff2bf8	0.051071834750096856
126	0x3fffed8d77a2c0ca	1.9954962418815279
127	0x40080450da8934ea	3.0021073411104355
128	0xc009fdeef5a3f7ad	-3.2489909353889375
129	0xbfdf434e89cba5a5	-0.4884830804499763
130	0xbfb6a0adcb23c2ce	-0.0883892651506912
131	0xbff9a993164eac18	-1.60390003885073
132	0xbff7c8e9fcdd7cde	-1.486551273111949
133	0xbff2b8f87409b091	-1.1701588185051472
134	0x40075282f7bbae5c	2.9152888635779117
135	0xbfb1e68e0ebe6c7b	-0.06992423877675151
136	0xbfde69811724ecb0	-0.4751894689577041
137	0xbf949f99ba90d848	-0.02014007760245587
138	0xbff0711e0ed60d20	-1.0276165561234123
139	0x400a31a776d6ec6f	3.2742451938952892
140	0x4010f4ed28ad643b	4.239185939391116
141	0xc0007bb01172183a	-2.060394417089836
142	0x3ff2158e4ab8a5c4	1.1302626532363869
143	0xbfd24fd8fcca2685	-0.28612351118554386
144	0xbffa81a71e63d1e5	-1.6566535174471195
145	0xc007292174b79801	-2.895083343365514
146	0x3fa08a4c2d313c21	0.03230512668289288
147	0x3ff0398d6da9fe38	1.0140508922339802
148	0xc00a62f2e7785eb8	-3.2983148654564864
149	0xbff912975bc64445	-1.5670388779583544
150	0x40033ab59a4836fe	2.4036666920936787
151	0xbffc955f92b7572f	-1.7864680987453985
152	0xbfef98b6c903c8cd	-0.9873918462820029
153	0xbfc0db1284e560a0	-0.13168555726111197
154	0x400ff5dc7795f576	3.995049413932686
155	0x3fc3f3400ed5df64	0.1558609077871963
156	0x3fd78b2982e5c528	0.36786878378832677
157	0x3ffb7918f0b52101	1.717064800514038
158	0xc001e3dc62c7c069	-2.236260196419654
159	0x3fd270c8d7f9fde5	0.28813382235963864
160	0xbfb9b58bd009e172	-0.10042642430369655
161	0x3ff27a1ea07ffd8a	1.1548143643884452
162	0x3ff0a2c52728ee05	1.0397388009722601
163	0xbfa4d571deba4d98	-0.04069095462650835
164	0xc00504d98b14cf09	-2.627368055889637
165	0x4002a6a3fcaff903	2.3313674679949385
166	0xbffc1b97ea175710	-1.7567366737543502
167	0xbffbe2cc373f6fe8	-1.742870536624645
168	0xc0092083ec87aeb3	-3.1408766249567974
169	0x3fcf72ee24695766	0.24569489267258432
170	0x3fe24e49f485c94e	0.572056748946389
171	0xc0054ca7db6436ba	-2.662429536815435
172	0xbff6eccc1e11d935	-1.4328118490789852
173	0xbffcaeaff8134d54	-1.792648285908247
174	0x3fea3a572cd8c7b5	0.8196216464914331
175	0xc001f955c69ff3a0	-2.2467456357539533
176	0x3ff937fc3b8dda8a	1.5761682821591045
177	0xbfe1101d7f922e0b	-0.5332171908971203
178	0x3ffc7e0f3058229b	1.780776203961216
179	0xc003ac287796255f	-2.4590615599342267
180	0xbfd88b223eb4b8b4	-0.38349205134990005
181	0xc0085790eb7c28f9	-3.0427568814530983
182	0x400849c2766c3ad4	3.0360154392031777
183	0x4009685da4de849a	3.175959861794195
184	0xbff275d34d47fe5a	-1.153765966300759
185	0x3ff8a678de68fd28	1.5406426132102045
186	0x3ffc92a207ef34af	1.7857990560471924
187	0xbf8298e3a2b51af8	-0.00908067550939283
188	0xbfe65c3476270ea5	-0.6987554843585327
189	0xbff8bf484c4a8fa2	-1.5466998081328502
190	0xc00326931fe5e0f0	-2.3938353054073715
191	0x3ffd9b333330f863	1.850390624967553
192	0x400c5d07c2622e8f	3.545424955960534
193	0x3fedd49e78bdeaa8	0.9322044714202393
194	0xbff207bd04478a03	-1.126889244762993
195	0xc00259e8e199b1ba	-2.293901216986538
196	0x3fffd6d425d98fba	1.9899484137067547
197	0x400085d54b671152	2.0653482333019975
198	0x3ff9d8f64a64b3da	1.615469256018733
199	0x4009526607f5baa1	3.1652336713662668
200	0x3fd39e94ec5a03d7	0.3065540607568073
201	0xc00afa62c48c083c	-3.372258697055285
202	0xbff7cb3a6b040e96	-1.4871162586504503
203	0x4008db379aeca9ca	3.1070396522020234
204	0x3fbcdc64691dfde0	0.11273791853272241
205	0xc00a7638f4887e53	-3.3077258209375855
206	0xc009502a3449333c	-3.1641429982031735
207	0x3ff96411fb051326	1.5869312100850919
208	0xc000ea2171506c61	-2.114321599261118
209	0xc00036e32535b4f8	-2.0268004328742073
210	0x3fe1a2ed3e03d4f0	0.5511385165433733
211	0x3fff02e3f109d349	1.9382056632577636
212	0x3fec6bc760c2bcb1	0.8881565942628155
213	0xbff2cb3a55bd478f	-1.1746161793894065
214	0x3ff3660787907ca6	1.2124095244869664
215	0xc003542260b9a28f	-2.4160811955119423
216	0xbff87eee3f6aa82b	-1.5309889294826557
217	0x3fff286e7ddcfcae	1.9473709980518765
218	0x3fcf2b04d17a6545	0.24350033024237852
219	0x4009571b4f96902d	3.1675325601409186
220	0x3fc422750eabdf61	0.15730155197501985
221	0x3fb3f45c6712ea0a	0.07794740215732801
222	0xc006e343e8c761d3	-2.8609693704458805
223	0xbfa8b8169e68e25b	-0.04827948268615919
224	0xbff0b22cb8160bb2	-1.0434996786941437
225	0xbff84ac2d40bec7a	-1.5182522090024393
226	0x40091df20c8f17dd	3.1396218281906685
227	0xbfcd0fd03d9e2ae3	-0.22704508789714514
228	0x400823d6832d7c8f	3.017498993707313
229	0x3ffa0ef4cb523eae	1.6286514227139537
230	0x40004637f0807ffc	2.0342863835539884
231	0xbfd825093418b133	-0.37726049506706544
232	0x3feb1d3e9ad39a29	0.8473198913532701
233	0xbfe59b97fe21192d	-0.6752433742010787
234	0xbff3e25683f2b116	-1.2427582887858697
235	0x3ff9bc5ff8d21161	1.6084899634889427
236	0xbfe46641848a35ac	-0.6374824131650505
237	0xc004979bea48207d	-2.574027853323115
238	0x3fe4678ae82bb6b3	0.6376394781670655
239	0xbff8769c86b823f7	-1.5289578688118561
240	0x400904da7ba8af91	3.1273698483327697
241	0x4009213dd77da825	3.1412312350485245
242	0x400d916793541146	3.695998335841213
243	0x3f85f8b43a8ab64a	0.010728271519236849
244	0xc006fb04d73e1214	-2.8725678268258523
245	0x3ff921e38817535c	1.5707736316737373
246	0x3f94a947ca3b441b	0.02017700359175843
247	0x4009192552fb5692	3.1372782214119264
248	0x400927d486d46102	3.144448331218997
249	0x4002523635fad79f	2.2901424615074144
250	0xbff542ed21342883	-1.3288394257565705
251	0xbfdf4cc92c77f6e3	-0.48906163542402065
252	0x40032a442c33dcf7	2.3956378415419937
253	0xbff04ab393f631ad	-1.0182376651529055
254	0xbff4f8820b125a64	-1.3106708939063987
255	0xbfe01141783c4aed	-0.5021064136838881
