results/vqe_data/with_params/10q7l/sgd_10q_7l_42/parameters/params_ite1098.npy (npy, 2448 bytes, 1 tensors)

array f8 [290]
0	0xbfe5c59314e517d8	-0.6803679855445308
1	0x4007de51461d5ca7	2.983553455134444
2	0x3ffdd2cf576f3967	1.8639672675522776
3	0xbfb397a10982b96f	-0.07653242571061523
4	0xc003e5c44ff223e1	-2.4871908422251043
5	0xc0032571d38d2c77	-2.393283512826709
6	0xc006d91f6226b2c2	-2.8560168903407837
7	0x4006c9a8b8b4a663	2.848466341984748
8	0x3fa54c4658bf73b6	0.04159755547855275
9	0x3ff034b22c566297	1.0128652316981623
10	0xc00a187c63c60c66	-3.261956004601916
11	0x4009b8a2382bae8f	3.2151531589823388
12	0x40062f3b3c9a4c36	2.773062203844826
13	0xbffdd1c42e6a3c9c	-1.8637124837003176
14	0xc001796e02ec65e1	-2.184291861380857
15	0xbff29e44bec8eace	-1.1636397793324025
16	0xbfc282e375181a30	-0.14461940019119046
17	0x3fb174d5809ec2a2	0.06818899526730118
18	0xbfe376f0d0566315	-0.6082691258517082
19	0xbff0430234a54490	-1.0163595253436917
20	0x3fe85d311b02d30c	0.7613759543952212
21	0xc00009d6d46fabe7	-2.0048042866305766
22	0xbfec0c9714bfc52e	-0.8765368848091037
23	0xbfdf2faae390ded4	-0.48728439543945723
24	0x3fd043f6b58c94f3	0.2541481755200287
25	0x3ff9ee0b2be28173	1.6206161226510545
26	0xc00152fea44b35e3	-2.1655247531368658
27	0xbfd18fb87dea3ad3	-0.2743970136297495
28	0x3fdc443acd40e254	0.44166441005976265
29	0xc0031cf7ee19a7ac	-2.3891447640971446
30	0x3fea17bbd2aebd04	0.8153971781629541
31	0xbffe6d0ed96ec5d6	-1.9016254895653808
32	0xbfffc5ff9623074d	-1.9858394493789604
33	0x40089e5eda8cebc3	3.0773293565993938
34	0x4004578ed1d3542e	2.5427528755776825
35	0x3ffd19b30c818ba0	1.8187742699162541
36	0xbff970e262199633	-1.5900596458462928
37	0xc0022670c8df5330	-2.268769807162606
38	0x3fed2cf5a08f8493	0.9117382179212136
39	0xbfe66d15b5b344ba	-0.700816016085944
40	0xbfffc44bead2ffca	-1.9854239628621024
41	0xbfd87c7aa3344b17	-0.38259759843747204
42	0xc009194acf000030	-3.137349717319033
43	0x400289a09d2e1b99	2.3172008781143174
44	0xc00093bd50e88980	-2.07213843545577
45	0x3fdb9fa1abea2852	0.43161813534300564
46	0xbfe481b72a014f32	-0.6408344097530743
47	0xbf9c2760f2b0b27a	-0.02749396783126421
48	0x3fb672f8b2db8d63	0.08769182554856551
49	0xbff7d8585f73ec7d	-1.4903186539293352
50	0x400d843adf78d72e	3.689565416217099
51	0x3ffec16e8bae363b	1.922224565150272
52	0x40087c6a16fb6911	3.0607492251848574
53	0x4008833e8d645f22	3.064084152818297
54	0x3fd1e0780be65a85	0.279325496312062
55	0x40077d475f095cd5	2.9361712860805746
56	0xc00981e4be3a1e40	-3.188424574040056
57	0xbfeca9f5e467a428	-0.895747133353443
58	0xc008d2bb3a1b04d6	-3.1028961696143638
59	0xbff1020f26c76551	-1.0630027308273677
60	0xbff792c7dff7fa90	-1.4733351467872673
61	0xbfed5a9c58e54cce	-0.91731088030283
62	0x400662a264c62c10	2.798161303804143
63	0xbff08329fa25be3d	-1.032022454393782
64	0xbff4b23689fc0a75	-1.2935090436955339
65	0xbfd69b47bbb69e94	-0.35322755175955334
66	0xc00093586f5de0fd	-2.071946020176368
67	0x3ffdcdf0bb257fb0	1.8627784071359024
68	0xc0082ca39fad2b07	-3.0217964625093177
69	0x40089a1611fb9272	3.0752374081515024
70	0x3ff48061a420bc23	1.281343117832656
71	0xbff4009800dfd703	-1.2501449617533928
72	0xc00400f224fba1f1	-2.500461853913514
73	0x3ff5abc7f729468c	1.3544387488113072
74	0x3fe3481bfe6f73ac	0.6025524110260583
75	0x3ff3ca2ea9ce0666	1.2368609078406734
76	0x3fe403db10401073	0.6254706685435977
77	0xc004ffb90dcfa9f4	-2.6248646811484324
78	0xbfe94d35df99859a	-0.7906751029187717
79	0xc004a7840784d979	-2.581794794790025
80	0x3ff82a96f24e400f	1.5103978600564039
81	0x3ff1806198ea147d	1.0938430760591296
82	0xbfd16262d64a75f4	-0.27163000990716957
83	0xc006f2f10fd8dbae	-2.868623851590619
84	0xbffb7663e900d981	-1.7164038755123274
85	0xc0024072104c76de	-2.281467559178835
86	0x3fea09e9c4b120c2	0.8137101022375861
87	0x3fed9d47a3ad41b2	0.9254491993724996
88	0x4007b9a8b0b1b94c	2.9656537822949414
89	0xbf8746354000a516	-0.011364379897786974
90	0xbffcebce69849648	-1.8075698968690563
91	0x3ff8c794e396dad2	1.5487259760099517
92	0x3ffb2dc288ce8124	1.6986718505868987
93	0x3fe4fc82063b398e	0.6558237191873546
94	0x3ffcc93d54e75ae5	1.799130756049345
95	0xbfd103cfa746407a	-0.26585761390106877
96	0x3fd088e58f05cc37	0.2583555123048344
97	0xbff372c2ce60cf4f	-1.2155178128859523
98	0xc0083c1e844e9ac8	-3.0293550812233185
99	0xc0060e1db2ab88f5	-2.756892581806023
100	0xc003287f8b1e54e5	-2.3947745197898365
101	0x3fc206abe52d0a3f	0.1408285969756253
102	0xbfefd5f3494f379f	-0.9948669845414208
103	0xbf9575374fae5dc8	-0.020954956281995313
104	0x4003c89109da4b57	2.4729328889601834
105	0xbff76f2e2dc06e68	-1.4646436488318617
106	0xbff63a5ea470df90	-1.3892504142258737
107	0x3ff41e25aa98cb66	1.2573601402225107
108	0xbffdfe7f32f7b8c0	-1.8746330252575234
109	0xc008e664fe7fa1fc	-3.112497318525355
110	0xbff2b6904eb038b0	-1.1695712159885652
111	0xc0005c5f3baa61ca	-2.045103517663141
112	0x3fff476f3d21c170	1.9549400699580382
113	0x400212e791028820	2.2592307404420495
114	0x3ff1262b1496ba8d	1.071818428444803
115	0x4008343ca2f6a154	3.0255062800899086
116	0x3ff36debe724279a	1.2143363026575344
117	0xbffc1c1004c4a453	-1.7568512140517398
118	0x4003520df3374259	2.415065670131565
119	0x3fdca8a2e9cc7c4c	0.4477927478018884
120	0x3ffa67995719f11b	1.6502927210231693
121	0x400679d5d4b6473e	2.809489881336872
122	0xbffc4aa86d0c76d1	-1.7682270297731757
123	0xc0047e144c332b5b	-2.561562152206006
124	0xbff7039485032cad	-1.438374061183633
125	0x3fc2b2f4820c410b	0.14608627653115777
126	0x400309ed8c781267	2.379847619451812
127	0x40067909f2bbe27a	2.8091010058963635
128	0xc00a77b77a2e80ed	-3.308455423874071
129	0xbfd7d37805567345	-0.3722820331693593
130	0xbf871a964b8a66ae	-0.01128117960006433
131	0xbffe336e4abf3d23	-1.8875563545041778
132	0xbff9405514d0aa5b	-1.5782061398591825
133	0xbfe94638a4b98e02	-0.7898219315797521
134	0x400504a0993a9250	2.6272594424247373
135	0xbfe676dd2670cf70	-0.7020097494882815
136	0xbfe5c54376f96233	-0.6803300212587317
137	0x3fe3658eaec6668c	0.606147137982775
138	0xbfec09a61cdd90e7	-0.8761778415469309
139	0x400dbd1655e54932	3.717327757892371
140	0x400c19955452aec7	3.512491854451443
141	0xc000796648a0868b	-2.0592771219242585
142	0x3fe2ce46415dc1d8	0.5876799847301823
143	0xbfcec28afd975a4a	-0.24031197912582264
144	0xbff88685cdf2d388	-1.5328424496521809
145	0xc006aa1bfe25289a	-2.833061204442015
146	0x3fb77b26d5b99973	0.09172289579291774
147	0x3fe5d0e5e33ea312	0.6817502439854215
148	0xc00a068f8259443a	-3.253203409527967
149	0xbff0583410aad418	-1.0215340281549796
150	0x4002477f116e3e56	2.2849103318947455
151	0xbffbc401682b4d30	-1.7353529042346274
152	0xbffb29e51c1a1613	-1.69772826173119
153	0xbfdfd89b7abca839	-0.49759566293744545
154	0x400ef87f4da92d75	3.8713365618947884
155	0xbfe85756a9cf83f6	-0.7606614414800095
156	0x3fda09b3a45c99a6	0.40684214640568894
157	0x3ffb7748daf21d81	1.716622214562307
158	0xbffff38c22cd2eba	-1.9969598159249657
159	0x3fe305c72c755177	0.5944553249669714
160	0xbfb84c6e745f8d98	-0.094916251574935
161	0x3ff63c63b6bd259d	1.3897435320126086
162	0x3ff3b06e8609cdd8	1.2305741535063728
163	0xbfa565a2de13d59b	-0.04179104767710414
164	0xc0029a837951bb72	-2.325446079069871
165	0x4006dd6394ff1cd5	2.8581000938753314
166	0xbff63061b597faf5	-1.3868119328978399
167	0xbfff9e9eaadece4b	-1.9762255358335945
168	0xc00a5c61bd349685	-3.295108297507627
169	0x3fd259f2f1199673	0.28674005074422054
170	0x3ff1fbb8e20c0532	1.1239556150397445
171	0xc007f1cb38b1b92a	-2.993063395427403
172	0xbff5e3d8bb294d5a	-1.368126612757655
173	0xbffb930d0894acb9	-1.7234011016069373
174	0x3fecf8dc4c661eeb	0.9053784839788624
175	0xc00220209dc00a0e	-2.2656872104864823
176	0x3ff7b53ad5f30388	1.4817455632585013
177	0xbfe73f9baaf26aa8	-0.72651465786051
178	0x3ffa1bc85ab6d777	1.6317828696751044
179	0xc00941c5d1c798d9	-3.157115591911048
180	0xbfda542c050605e8	-0.41138744822100515
181	0xc006d764801ecdec	-2.855172158184123
182	0x40044682a16eb05f	2.534428845587214
183	0x4008c14402d8c9e7	3.0943680021675735
184	0xbff3eeca3a187dc5	-1.2457983273851465
185	0x3ff37a3db92f6270	1.2173440202515415
186	0x3ffdc385329333b5	1.8602344489656677
187	0xbfb0c905827f3777	-0.06556734500847293
188	0xbfde6807da0e4063	-0.47509952826022167
189	0xbff8b87df4aa3db9	-1.5450419957377177
190	0xc001663f51bbabd4	-2.1749254594228464
191	0x4002367422fe30aa	2.276588700659052
192	0x4009cb4efb95ec67	3.2242717414024358
193	0x3fe8bff920f8e9bc	0.773434223555618
194	0xbff1667c20266731	-1.0875207191333625
195	0xbffd32de8e045b57	-1.8249192760028643
196	0x3ffd3184923f7c03	1.824589320450969
197	0x400044872334e45a	2.0334608793751103
198	0x3fff1a90efc17983	1.9439858785113706
199	0x4006bfd417473da0	2.843666250096888
200	0x3fd4ae604f10d38f	0.32314307900679123
201	0xc00ac119fe503bee	-3.3442878597484116
202	0xbfff167fb657a860	-1.9429928896666055
203	0x4008882c2767e2fd	3.066490466935987
204	0x3fd08b8f2fd5e7d7	0.25851802512590666
205	0xc00b9c62ea7ee7d9	-3.451360542295316
206	0xc008dfc84d72e9d4	-3.1092687655156883
207	0x3ff9d2c7c41cb600	1.6139600430136625
208	0xc00465d662738a06	-2.5497253123769523
209	0xc001b06b934f8e0d	-2.2111426838544106
210	0x3fd4cc68bcb45965	0.32497614315197715
211	0x3ffdc1fae525a848	1.8598584128435665
212	0x3fee9df76ed4b32d	0.9567830242791381
213	0xbffd7c25d8f8b013	-1.8428095317312951
214	0x3ff1ea3abc388781	1.1196849205375374
215	0xbffee94590f82b89	-1.9319511092059847
216	0xbff6462b9edeb8e2	-1.3921314435825072
217	0x3fff4befa81c222b	1.956039101294787
218	0x3fd3c4a1cfbf3652	0.3088764694956342
219	0x40076238e59cf822	2.922960084774801
220	0x3fc3640736307352	0.15149011751136726
221	0x3fa4b94d90bacc50	0.040476249615857385
222	0xc0025a19d183a7ea	-2.2939945572188565
223	0xbfa3efd0ba9599e4	-0.03893902089730597
224	0xbff2d80cffa09da4	-1.1777467713780903
225	0xbff7f085feeac426	-1.4962215383241158
226	0x40094bea36aaa0f1	3.1620678206273785
227	0xbfd02d1e8b523564	-0.2527538643415339
228	0x400826ec54dc279e	3.0190054540334605
229	0x3ff16ff586f2d2e8	1.0898337623049716
230	0x4001836ce56c7361	2.189172546741631
231	0xbfd7689337a06fe6	-0.3657577555875363
232	0x3feaf1ab31b1f52d	0.8420005770309779
233	0xbfe6406ef98796c4	-0.6953654168725838
234	0xbffad585cd7cf8f1	-1.6771295573121814
235	0x3ff9b98a590af8e0	1.6077979543911667
236	0xbfeae9b8d8960175	-0.8410305242723967
237	0xc00578373bbc4578	-2.6836990992384777
238	0x3fe8c2962557ac69	0.7737532357545095
239	0xbffae1370e5bb385	-1.6799841462008953
240	0x400914ad4fff99c5	3.135096192348302
241	0x40096732f7bab80f	3.1753901819092856
242	0x400ae2e3bc39003d	3.360785933007746
243	0xbf9677eb3d738ed9	-0.021941829324432092
244	0xc0062ca479e7247a	-2.771798088423165
245	0x3ffa3ba6df702ef9	1.6395634391837446
246	0x3f82328bef3c5287	0.008885472525016936
247	0x400953f941fe4975	3.166002765248033
248	0x400920d3189653d5	3.141027633750563
249	0x40031ee83a73d978	2.390091377888151
250	0xbff6c23bf35febba	-1.422420454676042
251	0xbfe28438e8320f52	-0.5786404166287673
252	0x40003f9cbe87d1d2	2.031060684699903
253	0xbff2a27fa4f87356	-1.1646725124512236
254	0xbffd418430f63a76	-1.8284952080317942
255	0xbfd18a2f0010aad2	-0.27405905729635294
