results/vqe_data/with_params/10q7l/sgd_10q_7l_42/parameters/params_ite1436.npy (npy, 2448 bytes, 1 tensors)

array f8 [290]
000000 30 53 1c 66 6a 54 e5 bf 68 e3 79 8e 42 ae 08 40
       -0.6665546411846659 3.085087884039627
000010 bf 3c b8 b9 62 d1 fa 3f cc 25 f6 71 fd 8d ca bf
       1.6761195425677184 -0.20745819153334677
000020 ef 0d 0a db a0 36 02 c0 e4 58 c8 12 6f 65 02 c0
       -2.276673995251023 -2.2995282618895647
000030 c2 5b 56 55 0e 74 07 c0 31 a5 72 e1 eb e7 06 40
       -2.931667963693571 2.863242875395962
000040 7a f2 3c ca 2a d5 90 3f 5f f0 5d b8 89 ef ef 3f
       0.016438168138153554 0.9979904747883771
000050 c7 99 6a 84 8d 84 0a c0 fe b7 84 6e 84 8d 09 40
       -3.314723047736354 3.19410024969602
000060 af 0f 71 dc 9a 68 05 40 23 c9 09 44 d8 df 02 c0
       2.6760766241077003 -2.359299212978969
000070 d7 16 41 dd f2 bb 01 c0 e9 18 85 61 9d 71 f5 bf
       -2.216771820591798 -1.3402379807826554
000080 9c 2e 58 62 82 b7 c9 3f a2 66 55 24 fb 7c ae 3f
       0.200912759799725 0.059547279534581735
000090 5b b6 4b 46 72 39 e5 bf 3f ed f2 75 b6 79 f0 bf
       -0.6632624981845753 -1.0297150237446002
0000a0 9c 2c 2f 22 20 62 e7 3f a5 57 b7 e5 8e 83 fa bf
       0.7307282130872355 -1.6571186993873905
0000b0 43 1b 1f 31 c6 53 e5 bf 0b 61 86 06 08 31 e0 bf
       -0.666476341190766 -0.505985272163373
0000c0 5c 3e e6 4e dc 14 c4 3f a6 62 c5 fc e9 fa fc 3f
       0.15688661434659223 1.8112583040112127
0000d0 0c 92 95 34 1f 33 01 c0 1e ff 9f d6 de 41 d0 bf
       -2.1499618633408826 -0.2540204139659056
0000e0 aa af 34 4f 0d 54 d5 3f 17 12 be 6c f4 ce 02 c0
       0.33325512633268295 -2.351052140760895
0000f0 ea e5 d0 27 88 8d ec 3f 29 dd 1e 72 81 85 fe bf
       0.8922768380791102 -1.9075941522440394
000100 ea b7 fc 0a d6 d4 00 c0 ec ee e7 c1 a1 1c 08 40
       -2.1039238794683017 3.013980402842085
000110 62 6e 8f 89 aa 58 03 40 ca 55 d5 42 a7 97 fc 3f
       2.4182940241715167 1.787024746959434
000120 3c 1f 0c 7a b8 b8 f9 bf 6f ff 61 b9 9d 6a 00 c0
       -1.6075978057360336 -2.052058647444873
000130 d3 a1 ba 61 26 41 ed 3f d4 e4 5f 20 e4 bf e6 bf
       0.9142028721590186 -0.7109242088619347
000140 1b b3 80 ef c5 56 00 c0 a0 d2 1f 03 6d 37 db bf
       -2.042369719615079 -0.4252579241286103
000150 b7 61 36 98 af c9 09 c0 56 ac 0c 9e 10 ab fa 3f
       -3.2234794513317087 1.6667638944443488
000160 cf 15 be c3 6e ab 01 c0 7d a7 a9 52 37 fb cd 3f
       -2.208707360495033 0.23422900711312514
000170 1f 79 6e ad e4 ba e5 bf ac e1 3f 10 52 10 96 3f
       -0.6790641200384789 0.02154663299731545
000180 03 e5 88 88 0c 3f a5 bf ab 81 c6 aa a4 2f f8 bf
       -0.04149665037807362 -1.5116316481508913
000190 e7 43 4b 7b 43 f8 0d 40 62 21 d1 73 ae cd ff 3f
       3.7462224609703187 1.9877151989076869
0001a0 fb 27 8f 45 c3 f7 0b 40 d0 17 8d 35 4b 8f 0a 40
       3.4959779199898526 3.31996766888458
0001b0 05 f2 4d 13 67 3e be bf d0 6e 11 e6 ab 0f 06 40
       -0.11813968869496001 2.7576520895071113
0001c0 e9 a8 c7 2c ae f4 08 c0 63 42 20 e0 07 54 e2 bf
       -3.1194728372985208 -0.5727576615773383
0001d0 4f 7c 4a 44 4a cf 08 c0 75 4a 97 aa 4d 7e f1 bf
       -3.1012158713561244 -1.0933357871732856
0001e0 e5 db 63 02 75 9e f8 bf 81 fc 19 81 29 36 f0 bf
       -1.5386858075487393 -1.0132231753375722
0001f0 e7 f7 1a 6c 0e dd 07 40 a7 75 31 56 13 de fe bf
       2.9829376645784467 -1.929217659656709
000200 9e 6c 2a d9 30 cc f8 bf af 7b b7 01 33 9f e1 bf
       -1.5498512728725369 -0.550683501580229
000210 d9 f3 06 ca dc 3f 01 c0 0b b2 2d c1 55 0d fa 3f
       -2.1561828406688446 1.628255610087879
000220 e6 01 0d 2a 34 e3 07 c0 a6 19 9e 4c 9f e8 08 40
       -2.985939339181857 3.1135850892780637
000230 89 d7 79 c1 cd 30 f9 3f 0d cd ba 3a 4a 62 f4 bf
       1.5744149739889244 -1.2739965719345634
000240 c0 fe e6 d5 e9 fa 01 c0 84 1c bc 7f 5b d8 f5 3f
       -2.247516318427955 1.3653216352120419
000250 5c ac d4 46 50 38 e4 3f 45 d1 18 93 60 14 f3 3f
       0.6318742164052185 1.1924749132131904
000260 5a f9 b9 f7 ca 36 e4 3f e3 df d7 4f 89 c4 03 c0
       0.631688579407448 -2.470965026641339
000270 b3 de c4 b7 97 bb ea bf 9a 56 c3 2b 89 52 04 c0
       -0.8353994931448682 -2.5403006953227534
000280 4b e2 29 4d a7 1e f8 3f 7f 86 71 17 81 e9 e8 3f
       1.5074837698176846 0.7785039384727525
000290 9f 2a a3 f5 99 f3 b8 bf 86 dd c5 e1 53 d5 07 c0
       -0.09746706244474489 -2.9791638983257966
0002a0 c8 86 b1 ea 74 f5 00 c0 c0 10 e0 21 93 ab 01 c0
       -2.1198519072939668 -2.2087767263893454
0002b0 68 d6 a1 d9 4a a3 e3 3f 49 51 a3 fa de 8a ec 3f
       0.6136831522587274 0.8919520278236998
0002c0 48 e3 86 94 c6 63 06 40 ae 08 08 45 b5 a0 88 3f
       2.7987186053909774 0.012025276345415694
0002d0 88 00 aa 8f 0f f6 ff bf 3f e4 7f 21 e9 b7 fb 3f
       -1.9975734340551146 1.73240006528637
0002e0 6c 18 0a a5 55 13 00 40 83 bb 4e 46 3b be eb 3f
       2.0094406980234023 0.8669716237253485
0002f0 03 20 56 07 f4 ad fc 3f f7 ff c6 7a d9 c4 b4 bf
       1.7924690519885196 -0.0811286854504941
000300 5c bb 55 b3 8c 18 d5 3f 79 d4 dd 9b 7c 36 f7 bf
       0.3296233893697058 -1.4508024300132816
000310 d8 94 06 b3 1a 01 08 c0 4b 21 86 54 8e bf 05 c0
       -3.0005392061599245 -2.7185331920083278
000320 1c 52 6e 26 0b dc 05 c0 64 a5 22 95 5c 86 b2 3f
       -2.7324431421677797 0.07236269608497065
000330 0f ed 13 bc e9 7a ed bf b0 ef 49 51 b9 9c b8 bf
       -0.9212540315051302 -0.09614141687956024
000340 a4 4c 4b cd 16 88 03 40 5f f5 76 9a 13 f2 f8 bf
       2.4414497412304446 -1.5591007264877914
000350 9b dc 35 ff 68 f9 f5 bf 97 6b 21 d4 1a ba ef 3f
       -1.3733911484867238 0.9914678710150494
000360 01 20 8c 2a 58 3b ff bf 98 48 60 84 9e f0 08 c0
       -1.9519883787161236 -3.117489847362844
000370 4c 1c 78 96 e6 7f f6 bf 3f 81 90 82 33 8d fe bf
       -1.4062257650091565 -1.909472951905698
000380 6d c0 0b 85 41 64 fa 3f 26 10 7a 50 91 72 03 40
       1.6494765469651853 2.4309412276507087
000390 19 9b 7f ce 79 c9 f6 3f 7e f6 c2 cf 4b f9 07 40
       1.4241884294839962 2.9967266303418105
0003a0 95 cc ec 82 df 91 f5 3f 20 f5 b1 1f 05 fd fc bf
       1.3481135477311785 -1.811772464570204
0003b0 ab b5 bf 48 af 66 03 40 95 f7 82 a2 4b 92 d7 3f
       2.42513901553203 0.3683041655566453
0003c0 10 2a b7 7e 14 66 fd 3f 72 04 c6 28 dd 40 04 40
       1.8374218892882972 2.5316718278341392
0003d0 6b 72 e9 cd 81 54 00 c0 0f 1b ca 82 4d 0a 05 c0
       -2.0412632071368555 -2.630030652802254
0003e0 5b 9e a5 d5 b5 9b f2 bf 84 66 82 75 bd 4b c1 3f
       -1.1630152078231706 0.13512390363466775
0003f0 9d 37 93 d5 82 2f 01 40 46 42 7d 45 69 d8 06 40
       2.1481987653305183 2.8556695393420197
000400 a3 6e 29 90 1e 1e 0b c0 db 69 bd ae da 71 d9 bf
       -3.3897067320484253 -0.3975741106457044
000410 d6 a5 d0 5a e7 90 c0 bf b7 72 16 38 19 8a f7 bf
       -0.12942211088493022 -1.4712154570508298
000420 91 7f d4 5b 8e 0f f9 bf b4 1e eb b1 bd a6 f1 bf
       -1.5662978732216042 -1.103208250993629
000430 d1 74 b6 e6 12 c4 06 40 f2 fe 05 16 19 cb c7 bf
       2.8457391762191055 -0.18588555884706853
000440 0e 35 93 de 24 79 e3 bf a7 ef 83 b8 e0 39 cc 3f
       -0.6085380885284921 0.22051629075565168
000450 2b 3b f2 f6 d6 06 f0 bf 05 83 37 6c 94 e1 0d 40
       -1.0016698500000512 3.7351463751259666
000460 d5 cb a8 da de c7 10 40 e4 17 60 13 b7 8d 00 c0
       4.195186058571342 -2.06919684540752
000470 7d 7e 01 96 50 a2 f0 3f a1 b0 08 0d e6 a7 c9 bf
       1.0396276340105992 -0.20043635975287535
000480 4d d9 8f 45 87 49 f8 bf 60 08 9f 41 6b f3 06 c0
       -1.5179512707960214 -2.868856918969911
000490 d7 cd 8f 3c 3a b5 a4 3f ff ca 62 db cd 3b e9 3f
       0.04044515599516856 0.7885503086930327
0004a0 cc dc 5a 67 c8 9d 0a c0 91 37 07 f5 90 a2 f5 bf
       -3.3270423960308104 -1.3521890231527076
0004b0 48 73 d0 b3 fd 96 02 40 e0 a5 a0 73 cc f9 fb bf
       2.323726086424731 -1.7484859959316665
0004c0 bd 0e e0 9d 28 d4 f3 bf 88 ef dc 27 dc a6 db bf
       -1.2392965476037 -0.43205932515024204
0004d0 77 8b 48 3e 2d 69 0e 40 8f 2c 7f 7f 42 53 c2 bf
       3.8013558259858047 -0.1431658861677971
0004e0 97 f7 d9 3c 89 d1 d9 3f 0e 3b 1d 68 72 76 fb 3f
       0.40341406767390126 1.7164177004776238
0004f0 51 96 58 2e d3 29 01 c0 ac 7a fb 46 21 86 e0 3f
       -2.145422327116457 0.516373289716133
000500 c9 01 ba 90 e7 54 b8 bf 71 1e 74 71 fc 44 f3 3f
       -0.09504554065097816 1.2043423110752907
000510 e1 8f f5 ba 8e e6 f2 3f 82 54 16 f9 ef be 9b bf
       1.181288461980323 -0.027095555856778926
000520 1c 6f d6 e0 0e 1e 04 c0 c1 02 7a f8 47 b4 04 40
       -2.5146768155517645 2.588027898047898
000530 2c 3e 53 9a 56 5e fa bf 90 d3 8e 88 0f b0 fd bf
       -1.64803180964726 -1.8554835638326246
000540 73 44 5f 4f 8a c5 09 c0 0a 04 ec e1 f6 7f d1 3f
       -3.221455211729841 0.27343532622040867
000550 5d d0 e5 f1 0e c2 e8 3f 8c 8d d4 60 b5 c2 05 c0
       0.7736887669148121 -2.7200725140443804
000560 db 46 3d 47 01 0a f5 bf 9a ff 59 1a 68 16 fb bf
       -1.314942625311622 -1.6929703740461037
000570 6e ac 02 d3 4e a1 eb 3f e0 8f 61 6b 68 e8 01 c0
       0.863440906648419 -2.2384804143093646
000580 55 c5 a2 54 0f 92 f9 3f 6c a0 a6 e9 23 6a e3 bf
       1.5981591516577585 -0.6067065776342253
000590 d0 de 76 32 e5 fb fb 3f ea 2b 58 77 06 6c 07 c0
       1.7489978762877634 -2.9277467082770174
0005a0 6f 25 fc 66 a1 f2 d7 bf 2d de 09 41 95 3d 08 c0
       -0.3741839891159406 -3.030069835771221
0005b0 cb 4e 18 33 98 5e 07 40 56 26 7b 67 65 5b 09 40
       2.9211887351792476 3.169627006955845
0005c0 2b db 0c dc 61 18 f5 bf 64 d9 c7 77 18 7e f7 3f
       -1.3184527011596383 1.4682850531513276
0005d0 5f 7a 7d 2d 00 83 fc 3f 1b 70 d2 40 b8 5f ad bf
       1.7819825913390088 -0.057370908654064766
0005e0 89 43 d3 8c 13 8c e1 bf 9d be 33 61 a6 44 f8 bf
       -0.5483491659634733 -1.5167602345426652
0005f0 2f ca 69 14 db b4 01 c0 71 27 00 98 12 6f 00 40
       -2.2133084864410857 2.0542346835181253
000600 33 e6 d7 3c b9 47 0b 40 b0 46 91 b8 42 ee eb 3f
       3.4100212815654003 0.8728345494111718
000610 8c 36 2a 62 05 a2 f2 bf 9c ba 56 c1 19 ad fe bf
       -1.1645559153143124 -1.91726089022601
000620 ba c4 f3 76 5a b7 ff 3f 70 98 1e 6d 8a 34 00 40
       1.9822640081950298 2.0256546521150582
000630 48 20 e9 f7 15 cb fb 3f ff 85 30 55 98 bc 08 40
       1.7370814975747795 3.0920874267037557
000640 00 c4 f7 5b 85 4a d5 3f c8 41 f4 48 c7 b0 0b c0
       0.3326733968852409 -3.4613176059285458
000650 b4 84 24 f3 e8 4f f9 bf e4 e4 f5 6a b4 d0 08 40
       -1.582009267593361 3.10190661967191
000660 8c 5b 74 c2 20 84 b2 3f 6f 81 c7 49 98 a5 0a c0
       0.0723286127798543 -3.3308568729409482
000670 4c 28 df 9f 6a 33 09 c0 6e a6 0d 34 fa a7 f9 3f
       -3.1501057138421285 1.6035100968678324
000680 0d c6 53 5d b9 6d 03 c0 10 91 eb ad 87 3b 00 c0
       -2.4285762110891995 -2.029067381621765
000690 a9 43 54 9c d5 8d dc 3f 14 68 41 b9 ed f6 ff 3f
       0.446156885781472 1.9977853046934841
0006a0 90 a3 da 79 62 58 ef 3f a0 2d 8a 3a b1 a0 f8 bf
       0.9795391445123744 -1.539231518431599
0006b0 7c 8a eb d4 c2 49 f3 3f 7c 18 66 22 b5 7b 01 c0
       1.205508071631498 -2.1854040801436536
0006c0 c3 95 7b 94 22 58 f6 bf 07 55 76 7f 96 2e ff 3f
       -1.3965173530681205 1.948873994731288
0006d0 f3 26 1c 30 57 46 c5 3f 31 41 6f 55 02 fc 08 40
       0.16620912407989116 3.123051326234553
0006e0 de 76 bd 12 d2 9f c4 3f ea 77 c7 af a8 54 b5 3f
       0.16112733759921744 0.08332304278835037
0006f0 f3 d5 76 32 89 97 05 c0 41 ab 7d ce 41 9d a6 bf
       -2.6989921515003004 -0.04416852613106537
000700 ec 95 f2 8a 50 9d f2 bf bc da de 35 4a 35 f8 bf
       -1.1634068896904592 -1.5130102257077587
000710 d5 a3 57 43 09 26 09 40 d3 27 d2 f7 8c 18 d0 bf
       3.143572355377254 -0.25149845315229163
000720 d2 75 49 36 fe 33 08 40 6a 01 a1 c8 0c ea f6 3f
       3.025387214772061 1.4321410977427953
000730 3c e8 bf 11 1c 92 00 40 12 df f8 4f 7e b2 d7 bf
       2.0713426005068225 -0.37026937303333896
000740 60 93 91 29 2f 11 ee 3f 07 d9 b8 24 da 13 e1 bf
       0.9395976840865892 -0.5336733548381581
000750 a6 5e 6b 92 39 42 f8 bf 4b fa 55 7a 77 05 fa 3f
       -1.5161681861408538 1.626334646105209
000760 47 35 a3 1b 41 5f e8 bf f3 e9 c2 7e 2b f6 04 c0
       -0.7616277255816976 -2.620200147937106
000770 05 7e d8 f3 ba 80 e3 3f ff 6d 25 9e 7c 91 f9 bf
       0.6094641459093856 -1.598019235380775
000780 25 84 75 07 72 00 09 40 fa b8 b9 e7 2d 3c 09 40
       3.125217493318376 3.1543844321778325
000790 db 84 89 ec 45 94 0c 40 d4 eb 40 6e 9e 86 86 3f
       3.5723989943950136 0.010998952617333226
0007a0 e9 5e 2d 22 59 5a 06 c0 3c 64 2a 70 f8 c3 f8 3f
       -2.794115321168523 1.5478443509548603
0007b0 16 34 84 6d ac b1 8d 3f 81 ee b7 56 0f 2a 09 40
       0.014499041645217797 3.1455370688325393
0007c0 d5 fe ce b7 d9 2a 09 40 d6 b2 a5 64 bd 1d 03 40
       3.1459230766339297 2.3895213950221246
0007d0 31 52 2d 42 c3 53 f5 bf f3 56 dd 45 5e 16 e0 bf
       -1.3329498848953671 -0.5027304997008443
0007e0 48 e3 13 1a 2b f5 01 40 58 d5 d3 b9 5b e5 ef bf
       2.244711116535118 -0.9967478398745397
0007f0 a5 dc 36 4b bf 5f f8 bf 81 2d 8b 92 e2 8e db bf
       -1.5233757913645516 -0.43059601126579855
