results/vqe_data/with_params/10q7l/sgd_10q_7l_42/parameters/params_ite1374.npy (npy, 2448 bytes, 1 tensors)

array f8 [290]
000000 b4 a2 dc 99 df 9b e5 bf 8b 55 83 d1 11 9e 08 40
       -0.6752775197138221 3.0771824234204295
000010 17 64 fa f0 5c 14 fb 3f 19 dc 9e 4f ce 4c c8 bf
       1.6924714482504493 -0.18984393012735337
000020 75 48 a2 92 64 5f 02 c0 7a 91 7e 5a 3b 68 02 c0
       -2.2965785461211063 -2.300894457805211
000030 a1 d1 7f 51 95 2f 07 c0 16 81 26 b9 b8 dd 06 40
       -2.898234020913336 2.858262487876469
000040 a7 71 b2 b2 df e8 93 3f 42 7e 57 fd 74 eb ef 3f
       0.01944303062610833 0.9974923084336711
000050 d9 6b da cf 43 8f 0a c0 2d c7 32 17 5a 89 09 40
       -3.319953559735478 3.192066365468142
000060 e7 e1 93 41 5e 6c 05 40 64 15 4f 44 2c 17 03 c0
       2.6779141543631684 -2.386314901030959
000070 9b 33 3a 72 53 af 01 c0 b6 e9 c4 13 c4 03 f5 bf
       -2.2106083797466005 -1.3134194156869916
000080 41 6b 46 1f a6 b0 c9 3f 04 c4 cf 80 85 eb a7 3f
       0.20070339705565668 0.0467187614193634
000090 7f 12 39 30 63 ea e4 bf ab b7 f3 f4 76 60 f0 bf
       -0.6536117498258845 -1.0235509460867245
0000a0 b7 b7 61 0a 4a 62 e7 3f ff 75 97 db 7d 44 fb bf
       0.7307481959121479 -1.7042215898321726
0000b0 eb 75 fe 0d b7 d2 e6 bf d2 d5 af 25 d3 53 dd bf
       -0.7132220528907828 -0.45824125938756055
0000c0 64 ad f1 9b ba 7e c9 3f d4 c5 24 35 ac 0c fd 3f
       0.19917996038871444 1.8155939174579219
0000d0 ad 4a 3d a5 99 1c 01 c0 55 f9 c7 5d ef 1d d1 bf
       -2.138964930470442 -0.2674520889121557
0000e0 8d 1e 29 5d cb bc d6 3f 83 97 2a 23 84 d8 02 c0
       0.35527309510914834 -2.355720782029438
0000f0 9c c6 07 be f1 e0 ec 3f ed 06 4e a2 a9 e7 fe bf
       0.9024590217142818 -1.931558259966944
000100 89 60 3c 50 3d bf 00 c0 36 6b 55 b6 d5 03 08 40
       -2.093378664820254 3.0018724675004718
000110 48 8d b0 7f 0c 4a 03 40 c2 4a 4a 7a eb d1 fc 3f
       2.4111566520456655 1.801249959655863
000120 c7 cd 15 91 05 e1 f9 bf 1a 69 b2 1f 59 6b 00 c0
       -1.6174369494809626 -2.0524160839387493
000130 96 5a 60 5c 51 e4 ed 3f e6 73 d5 0d 32 e1 e6 bf
       0.9341208271242347 -0.7149896879378701
000140 ce 50 91 cb 60 28 00 c0 54 cb 2d 80 71 06 de bf
       -2.019715872165853 -0.46914327161282654
000150 b5 5f ec b9 e2 bf 09 c0 c8 c3 ed e9 c4 a6 fb 3f
       -3.2186941647778107 1.728215135368588
000160 7e 2e 04 f3 d3 9c 01 c0 d9 74 16 de 0c f9 d0 3f
       -2.2015761361743094 0.2652008217645068
000170 59 a2 0c bd 49 de e5 bf 77 2a b5 8e 29 e3 73 3f
       -0.6833847706194077 0.004855310758396506
000180 64 da db 6d 2d c0 90 bf ba d9 66 05 aa 2c f8 bf
       -0.016358098821877567 -1.5109043322569122
000190 c4 6a 35 63 f0 d5 0d 40 43 f9 a9 5f 46 92 ff 3f
       3.729462409083995 1.9732116448281694
0001a0 f4 d9 18 6b 0c 7e 0b 40 95 8f 6a f6 e6 f2 09 40
       3.436547123618988 3.243604588629703
0001b0 bf ee 50 0d 2b 77 ba bf 28 29 54 2b aa 76 06 40
       -0.10338086199856898 2.8079417595919445
0001c0 a3 33 ff a8 d7 25 09 c0 21 1b 16 2d db 48 e2 bf
       -3.143477745330942 -0.5713935738175203
0001d0 ff 54 b4 44 a5 a1 08 c0 f8 b1 0b 32 ff a2 f1 bf
       -3.078928505662247 -1.102294154635386
0001e0 89 85 46 71 15 85 f8 bf fb 32 e9 3c 2d 06 f0 bf
       -1.532491152269673 -1.0015079860051503
0001f0 b5 07 f2 96 97 e0 07 40 fc 40 bb 6c ad 2e fd bf
       2.9846641342746474 -1.8238958594629926
000200 92 ef 52 19 09 26 f8 bf 49 78 83 9f 72 ef e0 bf
       -1.5092860211579802 -0.529229461240683
000210 2c 2b a4 e2 81 1c 01 c0 2b cf 9f 79 c3 5d fa 3f
       -2.138919611582784 1.647891497702356
000220 c6 1d 5c 71 ee fe 07 c0 d3 eb c9 4d b3 e6 08 40
       -2.999478231071154 3.1126466824766594
000230 39 94 ff c0 f9 55 f9 3f 1b 8c 3c b0 c0 1f f4 bf
       1.5834901370046863 -1.2577521213759215
000240 80 b4 bb cb 98 83 02 c0 78 2f 3b ac 18 3a f5 3f
       -2.3142562786729854 1.3266836860447864
000250 37 f1 d6 95 51 19 e4 3f 26 06 b2 96 c7 d3 f2 3f
       0.6280906607203524 1.1767040144481
000260 48 44 dd ed 0f c6 e3 3f 10 70 db bb a7 da 03 c0
       0.6179275174892007 -2.48176523936673
000270 be 22 25 19 80 d1 ea bf e9 e5 f2 97 1e 47 04 c0
       -0.8380737773050766 -2.5347263213159192
000280 54 02 ae a9 76 4e f8 3f 64 2c e3 22 bd 78 ea 3f
       1.519156134425562 0.8272386247057395
000290 0e c9 1b 59 d4 65 c3 bf 76 d8 60 e5 e6 78 07 c0
       -0.15154508925440563 -2.93403414918708
0002a0 ae 8e c3 28 fe 22 00 c0 a9 76 8a 62 2b 0d 02 c0
       -2.017086332767426 -2.256430406427928
0002b0 48 d6 0a 72 1a b0 e4 3f 05 00 70 8d 4b 0b ed 3f
       0.6464969851865101 0.9076287996722391
0002c0 f2 21 a3 7a 6d 8a 06 40 c8 81 ad b0 cf 93 8d 3f
       2.817591627219593 0.014442083911206618
0002d0 ee 3e 02 2e 73 b8 ff bf 14 f5 9d 53 43 70 fb 3f
       -1.9825317189424214 1.7149079576768758
0002e0 94 93 65 9d fc 18 ff 3f 5d c6 ce ec db 1a eb 3f
       1.9436002872764435 0.8470286965513868
0002f0 05 a6 1b 35 b3 43 fd 3f 1c b3 a9 c5 09 a3 b6 bf
       1.8290283274203614 -0.08842526508096821
000300 d7 ad c3 5b 5c 9f d3 3f 21 65 38 7c 35 6b f7 bf
       0.3066016098152579 -1.4636740543704223
000310 a5 d3 82 9e 2b f1 07 c0 8d 7b 86 84 82 a5 05 c0
       -2.9927589782405044 -2.705815348962864
000320 df df d8 4c 03 60 05 c0 9f 3f 31 e0 d8 55 be 3f
       -2.6718812946019024 0.11849742387243943
000330 e6 e2 10 82 16 ed ee bf 15 3c 4f cd 80 8a bc bf
       -0.966441396746714 -0.11148839008750173
000340 ab eb 7d 0f e9 9a 03 40 75 a0 a7 f6 86 26 f9 bf
       2.4506398401549254 -1.5719060549691026
000350 9d 63 b9 d6 c1 84 f6 bf af b2 53 05 99 70 f0 3f
       -1.407411421552957 1.0274896820148276
000360 b9 88 99 4d ed 29 ff bf 8b ce cd 8a 51 e8 08 c0
       -1.947736075519556 -3.1134367794091466
000370 92 c3 44 95 da 3a f6 bf ad 32 9c cb 39 85 fe bf
       -1.3893686133198782 -1.907525821067945
000380 0f 84 88 6e 18 05 fb 3f 0b ea 68 30 5f 18 03 40
       1.6887440030770937 2.386900308801392
000390 f8 98 ef f4 2e 97 f5 3f 0c ae 11 a1 a0 0b 08 40
       1.3494100158509905 3.005677469589278
0003a0 73 ad 00 e2 da 18 f5 3f 78 0f c1 83 d3 ea fc bf
       1.3185681179264435 -1.8073306223531898
0003b0 72 b8 c8 34 75 74 03 40 4e 30 ee 21 b2 7c d8 3f
       2.431864178061965 0.38261082948225045
0003c0 8f d6 61 dc 12 7b fd 3f fa d5 9b 00 29 ba 04 40
       1.842547284000293 2.5908985183293654
0003d0 de e9 75 c2 76 cf ff bf af 99 ad 73 78 e6 04 c0
       -1.9881503673665217 -2.6125344312051406
0003e0 c1 44 78 a5 ad 2f f2 bf 17 b2 a1 48 1e 18 c5 3f
       -1.1366402114547756 0.1647985319754219
0003f0 28 83 44 97 40 65 01 40 8d d1 8e f2 31 b1 06 40
       2.1744396035941413 2.8365210485300794
000400 51 bd 4b 9f 78 40 0b c0 19 81 e9 97 56 17 d9 bf
       -3.4064800686825625 -0.39204945407074515
000410 06 19 aa 18 14 94 bc bf a2 58 9c 14 fc a0 f7 bf
       -0.11163449861678396 -1.4768029027086773
000420 ee 10 e7 65 e1 19 f9 bf 06 f8 48 b2 aa c0 f0 bf
       -1.5688184719629663 -1.0470377887972986
000430 d3 e4 ea a2 68 a4 06 40 a4 6d 47 ba bc 1c cd bf
       2.83027770308818 -0.22743949027686228
000440 07 49 54 af bc 56 e4 bf fe 7d 0e f8 21 d6 d1 3f
       -0.6355880188368993 0.278694622271331
000450 19 60 f2 28 7b 6e ef bf 81 7f c7 d8 48 00 0e 40
       -0.982236461614778 3.750138944233129
000460 5f 61 27 1e 72 99 10 40 5f a8 55 38 93 79 00 c0
       4.1498493873153555 -2.059362831224504
000470 1a ae 2f 62 fe ea ef 3f 03 4c d6 af 20 6b c6 bf
       0.9974357526493265 -0.17514427743716973
000480 15 25 8e 30 e1 45 f8 bf 0d 8d bb 49 28 cc 06 c0
       -1.5170604607286056 -2.849686218296148
000490 e8 30 57 f6 71 3f a9 3f 17 db 24 79 de 8e e8 3f
       0.049312173195717623 0.7674400678723455
0004a0 40 b5 89 29 73 93 0a c0 d1 c4 27 b7 07 f0 f4 bf
       -3.3219969983244084 -1.3086011080270519
0004b0 21 d2 8b f9 ef 66 02 40 6b 39 2c 9e 99 e5 fb bf
       2.300262403087132 -1.7435547045348254
0004c0 b4 b3 a4 f5 16 46 f5 bf 63 84 7a 7f b2 03 dd bf
       -1.329611739677813 -0.4533506626995118
0004d0 c1 30 f8 43 e4 3f 0e 40 34 c0 24 79 05 da cd bf
       3.781197100650474 -0.23321598448956282
0004e0 fb ee f5 7c 2b 0a da 3f b8 7f 56 96 10 62 fb 3f
       0.40687071994010154 1.711441600091332
0004f0 45 13 7a a5 c7 fb 00 c0 24 b4 5c 1e d3 97 e1 3f
       -2.122939389026586 0.5497832863817433
000500 16 dd 80 55 a7 ec b7 bf e5 fc 11 bb da ec f3 3f
       -0.09345479810223298 1.2453257853920203
000510 e2 5b d4 6a be b9 f2 3f aa 85 77 d8 7d aa 94 bf
       1.1703476117161178 -0.020181623780336423
000520 89 f4 6a f5 33 96 03 c0 73 60 ee e1 f3 57 05 40
       -2.448341290785326 2.6679456377860844
000530 9b 3c 29 90 d8 73 f9 bf 1d 39 29 a2 dd 1e fe bf
       -1.5907827025692203 -1.8825355848708292
000540 1d 5d 76 14 ee df 09 c0 c1 92 8b c4 95 11 d2 3f
       -3.234340820181059 0.2823233050715253
000550 53 74 0c a9 9e 8e ea 3f 40 e7 28 82 c7 ec 05 c0
       0.8299096395236439 -2.7406149071438506
000560 ec c3 99 28 be 27 f5 bf eb a4 c0 e3 f0 ea fa bf
       -1.322202833744309 -1.6823586365301775
000570 25 fd d1 21 d6 8f ea 3f 23 30 50 43 f8 09 02 c0
       0.8300581608345153 -2.2548680552336164
000580 d1 cc c2 58 ce 01 f9 3f db 7a 84 bf 98 e0 e4 bf
       1.56294092819444 -0.6524165859771885
000590 fa 2a 70 f3 e6 91 fb 3f a7 7e b1 63 0a 1b 08 c0
       1.7231206425955734 -3.013203410009584
0005a0 05 ad b6 9f c8 26 d8 bf ff 62 03 1e 9b 46 08 c0
       -0.3773671683981806 -3.03447555015407
0005b0 dc 5f 84 3a 8a 69 06 40 44 4a ac d4 23 58 09 40
       2.8015331813476063 3.168037091739537
0005c0 55 6a bc 04 5c 85 f4 bf 28 92 e7 81 e0 e9 f6 3f
       -1.282558458805075 1.432098872604124
0005d0 0a 50 54 bf 45 cf fc 3f 15 05 73 00 0f 9c b2 bf
       1.8006036256601896 -0.07269376526803158
0005e0 15 fc 97 cd 62 00 e1 bf b1 66 d9 fc 9b 53 f8 bf
       -0.5312971129895937 -1.5204124333308011
0005f0 cb cd fd 9e 8e 7c 01 c0 75 de 35 77 a7 a6 00 40
       -2.1858189030842587 2.081374102908564
000600 48 86 b3 d7 14 f5 0a 40 73 c8 95 2d 6d d0 eb 3f
       3.3696686603223363 0.8691926851590906
000610 d1 2f 63 9c a8 81 f2 bf 54 19 fb d2 ee 1f fe bf
       -1.1566549404988005 -1.8827961198272378
000620 5e 4f 7e 3a 07 6b ff 3f f3 b2 c3 a0 5b 0e 00 40
       1.963629940500105 2.0070107040140726
000630 02 d1 be 14 8f 67 fc 3f 75 db ea ce 17 80 08 40
       1.7752829370847967 3.0625454106734034
000640 96 4c f0 91 ca 89 d5 3f f6 ba 3d 04 ba cb 0b c0
       0.3365351128752051 -3.474475892194614
000650 46 e2 bc 10 c9 82 fa bf a1 48 b1 54 b3 db 08 40
       -1.6569300321408647 3.1072756401636785
000660 aa 4e 8b 65 0a eb b1 3f c1 0a 29 3d 0a db 0a c0
       0.0699926851187295 -3.356953122916224
000670 64 aa 5d 5e d9 2b 09 c0 b3 f4 2e bc f7 e7 f9 3f
       -3.146410691483924 1.619132742969026
000680 36 8a 6d fa e2 b2 03 c0 db db 14 24 ef 54 00 c0
       -2.462346989124195 -2.041471750151215
000690 3e 33 31 84 8f 16 dc 3f 68 b6 dc da 2f b3 ff 3f
       0.43887699040788053 1.981246809892946
0006a0 20 ae 12 a6 90 c2 ef 3f 0d 20 51 25 dd 5e f9 bf
       0.9925006145107922 -1.5856601197901938
0006b0 e4 9d d2 c3 28 4c f3 3f a2 80 ad 1e b0 03 01 c0
       1.2060935639691417 -2.1268007656763794
0006c0 ef 44 fb e0 00 03 f6 bf 5d 3c b3 8f 6e 18 ff 3f
       -1.375733259996476 1.9434648144995414
0006d0 f3 eb 41 fe df 50 c5 3f a3 bc de 92 ac cd 08 40
       0.16653060831944763 3.1004268144821068
0006e0 79 e7 31 e7 2e f4 c4 3f eb dc 54 6a 87 db b5 3f
       0.1637018803483519 0.08538099618896282
0006f0 a3 f6 67 b8 76 84 04 c0 57 b4 b4 16 ea 88 a8 bf
       -2.5646795660712356 -0.04791957404300067
000700 1f 0e 8d dc e3 4a f2 bf e0 b5 47 47 7e 1c f8 bf
       -1.1432837119363126 -1.5069563660030028
000710 a0 46 35 ee 33 2c 09 40 53 89 cc 62 f1 4a d0 bf
       3.1465834245689877 -0.25457415245377496
000720 31 d1 e4 e3 35 32 08 40 9d 12 b1 4f 82 42 f6 3f
       3.02451684991879 1.3912375557858134
000730 f5 45 c0 32 1b a1 00 40 36 15 90 7a e1 9c d8 bf
       2.0786651577880044 -0.38457524270082233
000740 15 7b 4e 9b 8b dc ef 3f cf 83 49 9c 43 1e e1 bf
       0.9956720383960113 -0.534944348572134
000750 5d f5 55 16 3c 06 f9 bf a2 5b 77 82 55 02 fa 3f
       -1.564022147416231 1.62556982959152
000760 82 42 6a 19 12 fb e8 bf 95 9b 9d 6f 69 07 05 c0
       -0.7806482788456182 -2.6286190719578806
000770 da 00 98 80 11 06 e4 3f 11 15 2a 36 d1 e0 f9 bf
       0.6257407676312383 -1.617387019710183
000780 6f 88 23 56 a2 07 09 40 f9 50 08 79 97 3f 09 40
       3.1287276010125917 3.156050630155843
000790 75 4e 3c 63 eb 65 0c 40 59 72 9a 8e e3 a9 7b 3f
       3.5497653725413394 0.006753815550521646
0007a0 06 09 29 9b a3 42 06 c0 51 10 5b 1f 55 b4 f8 3f
       -2.782538616361424 1.5440264916260455
0007b0 c1 4c 55 5b 15 0d 8d 3f 63 46 10 6a 5f 2c 09 40
       0.014185110902565136 3.146666363355324
0007c0 0b 70 92 fd 4b 2b 09 40 23 60 87 a9 4e 1e 03 40
       3.146141034156249 2.389798473781427
0007d0 51 51 e7 d6 fa 5e f5 bf 85 cf bc b6 aa 1f e0 bf
       -1.3356884379073402 -0.5038655823795898
0007e0 48 07 3e 1d 23 fe 01 40 ff ae 9a b8 cb 04 f0 bf
       2.249090412574251 -1.0011708460905877
0007f0 74 56 c7 31 bd ff f8 bf c1 4d 68 97 74 89 da bf
       -1.5624362892607708 -0.4146396139705893
