results/vqe_data/with_params/10q7l/sgd_10q_7l_42/parameters/params_ite483.npy (npy, 2448 bytes, 1 tensors)

array f8 [290]
000000 cd b3 7e f7 32 3b e6 bf 64 28 73 94 af b1 08 40
       -0.6947264512906429 3.086760673298203
000010 8c be f0 41 ed 02 fe 3f 66 9c 0a fe 97 62 93 3f
       1.8757145477101487 0.01893079269453004
000020 08 ea 38 6a f1 0f 03 c0 26 78 4e d2 aa 0d 05 c0
       -2.382784681188472 -2.6316734724232616
000030 25 07 2b b7 b6 46 08 c0 2a 6a ac 45 58 e8 06 40
       -3.034528189659698 2.863449615787677
000040 75 ff 58 8c 0b 11 a9 3f ae db d1 c0 f0 9e f1 3f
       0.04895816887119412 1.1013038188955124
000050 77 67 b3 d7 4e 06 0a c0 ab 7b 5e d1 9b 87 0c 40
       -3.253080067789536 3.56621516770925
000060 76 d7 9e 26 7a 8c 06 40 6a 5c 0a 15 a7 82 f9 bf
       2.818592359278166 -1.5943976232427084
000070 72 89 ef f6 9f 27 03 c0 7b 1d a8 b1 90 96 f4 bf
       -2.3943480769968852 -1.2867590846743429
000080 49 a7 cc fa 37 92 e2 bf c6 a3 2a e5 19 1a b4 3f
       -0.5803489588190384 0.0785232719887424
000090 13 68 e3 e8 da 2f df bf 80 14 37 90 7d a7 ee bf
       -0.4872958444881316 -0.9579456154539372
0000a0 f3 54 54 84 a2 b0 e6 3f 76 b2 23 3b 57 8b 01 c0
       0.7090618691023834 -2.1930374737042326
0000b0 d9 61 c4 55 3a b8 e9 bf c2 bf 90 8e ce d5 d3 bf
       -0.8037387538088822 -0.3099247352829445
0000c0 97 e4 9a 80 e4 97 c1 3f ab 72 74 4f 8c 07 f6 3f
       0.13744789390128595 1.3768427947717707
0000d0 26 e7 b8 de 2f aa 01 c0 e9 56 83 b9 bf 8e cb bf
       -2.208099117296018 -0.2152938514542975
0000e0 c4 d3 b9 4c 47 6a d6 3f 72 e1 c0 0d af 5c 03 c0
       0.35023672573816733 -2.4202557634818556
0000f0 d7 e8 b4 dc d2 ce d6 3f be f4 0d 78 7f b4 02 c0
       0.3563735156382228 -2.3381337527522126
000100 6b 26 e1 9c b3 6e ff bf f1 a9 00 b0 3d 7f 05 40
       -1.964526760874288 2.6871293783381067
000110 bb 64 37 ad 08 b5 05 40 63 b7 ef a2 0f e1 fa 3f
       2.713395455601668 1.6799465527251065
000120 a0 ee a9 2e d0 22 f9 bf d8 17 00 7c 85 32 04 c0
       -1.5709993193440042 -2.524668663742869
000130 7e 4a 5d 32 fc df ed 3f 6c 9d f2 e2 75 24 e6 bf
       0.9335919364624059 -0.6919507439205694
000140 da be 15 e4 e6 a9 02 c0 f5 84 f2 fb a4 3b af bf
       -2.3329599208008007 -0.06100192618874615
000150 5b 35 3d 07 4c 6c 06 c0 e1 d4 ce b8 42 30 02 40
       -2.8028793874315574 2.273564761936186
000160 7d 3f 7d 41 18 fd 00 c0 60 68 7e 33 44 60 e5 3f
       -2.123581420550123 0.6680012708413976
000170 01 d0 77 c0 94 6c e5 bf 05 f5 c5 58 16 c5 99 bf
       -0.6695045241490335 -0.025165890854158785
000180 38 51 2a 55 31 09 a0 3f ed 0d 4f 6a 2c 8a f7 bf
       0.031320134779124265 -1.4712337639510864
000190 0c 16 46 34 d0 b1 0b 40 30 4e 80 29 6e e7 f8 3f
       3.4618228992355906 1.5565015431537965
0001a0 64 45 06 82 b2 cc 06 40 cf d0 5d 47 7c 4b 07 40
       2.84994985181463 2.911858136702086
0001b0 84 0e bf 6e a1 00 e9 3f 4c 5a 58 f8 11 17 07 40
       0.7813269770635576 2.8862647439921485
0001c0 05 1c 89 b4 5f 66 09 c0 34 37 5d 63 e9 8e f5 bf
       -3.174987230715035 -1.3473905450259283
0001d0 cb 17 09 c5 86 9b 08 c0 c1 48 a9 c4 5f 16 ee bf
       -3.075940646495814 -0.9402312127151832
0001e0 fb 66 63 27 f6 e1 f1 bf 31 52 e9 95 e0 32 e9 bf
       -1.117666391239651 -0.7874606063801989
0001f0 b8 f8 49 30 42 c9 05 40 b1 fb dd a0 34 c5 e9 bf
       2.72327077604049 -0.8053229467330906
000200 4b 8e 97 f5 4a 2c f4 bf a1 02 80 a2 62 4d ab 3f
       -1.2608136743009648 0.05332477792399471
000210 96 da 8b 44 4b 38 00 c0 c1 a1 a7 97 ba 0a 01 40
       -2.0274873118572243 2.1302387092621022
000220 11 00 59 30 f8 f5 07 c0 ee a2 82 db f9 dd 08 40
       -2.9951022889290546 3.108386721538742
000230 cd 17 c3 e3 6e 2f f3 3f 28 8f 6d 50 0d 5a f3 bf
       1.1990803620296788 -1.2094853536336334
000240 1a 5e bb 82 e6 c3 07 c0 2a 99 c8 ff c2 8e fc 3f
       -2.970654507964139 1.7848539344354983
000250 4e b5 6b 9b 1b 9e e2 3f 0d a3 e2 5e 14 52 f8 3f
       0.5818002734719501 1.5200389582116174
000260 44 1d 3f 04 97 b2 e8 3f 61 28 0c 8f 23 7e 07 c0
       0.7718005259456864 -2.9365912604890103
000270 34 99 bf e0 f3 32 e9 bf b1 20 a9 f9 f9 05 06 c0
       -0.787469805681019 -2.752918196176403
000280 6b 98 70 f2 64 3c fb 3f 0f 85 2c f0 ee 3b e8 3f
       1.7022447080903713 0.757316083039912
000290 1c 29 69 e2 0a 04 dc bf e8 2a 4f 10 5c 16 07 c0
       -0.43774673567226485 -2.885917785087589
0002a0 4a 31 e0 9b 0e 97 f8 bf d0 e2 71 fe f8 49 fe bf
       -1.5368791664978567 -1.8930597247364638
0002b0 25 7b 87 ac 5b 67 ef 3f 30 3d 2e 5e 30 95 ec 3f
       0.9813669557296164 0.8932115401711709
0002c0 1d 76 df ec ae 6d 05 40 26 a0 28 4f a0 71 b1 bf
       2.6785562997527124 -0.06814004833779616
0002d0 58 f3 e9 4b 19 ee fb bf 64 eb c2 93 cb 7c f9 3f
       -1.7456295934091113 1.5929675838403563
0002e0 42 a6 4f f5 31 cf f5 3f e8 29 92 e1 2f 40 d8 3f
       1.363084753271679 0.3789176657525375
0002f0 54 46 4e 54 a4 60 f8 3f 93 e5 0d e5 ed 39 d0 bf
       1.5235942166513228 -0.2535357224329228
000300 23 78 3e 1e bf 5f d9 3f be 4e 95 b8 a9 2d ef bf
       0.39646890595929757 -0.9743240933552995
000310 7e 60 8f 49 23 8c 08 c0 76 2c 6f 0e 82 3f 07 c0
       -3.0684266802673497 -2.906009781615974
000320 aa 66 05 7e 38 00 02 c0 51 a0 d8 78 23 4a 95 3f
       -2.2501077504537834 0.020790628672472448
000330 1c 4e 60 b9 e2 b2 f3 bf 92 81 58 9e b9 f0 bd 3f
       -1.231173252225637 0.116954423102021
000340 c6 21 56 df 90 ce 03 40 18 a8 f1 04 a4 e9 f4 bf
       2.475862259689367 -1.3070411866306184
000350 1f 04 e9 d2 f4 b2 f0 bf 8f f3 e6 4e fe a0 f6 3f
       -1.0436905134849963 1.4143050272097957
000360 6a 87 0c ff 53 83 f9 bf 78 46 2d 73 f8 74 09 c0
       -1.5945625269746082 -3.18211450559539
000370 7b 60 a9 3f 18 5c f7 bf 9a cf 5e 3d 3c 19 01 c0
       -1.4599840628416405 -2.137321929412747
000380 f6 83 8f d5 47 04 02 40 4d bb db 35 8c 2c ff 3f
       2.252090137903447 1.948375902542199
000390 f6 4c 39 bc 39 a0 ef 3f c8 a4 0d ab db 32 05 40
       0.9883087803122226 2.6498330462969513
0003a0 9d 1e 8e b5 d7 4f fa 3f 4f 46 2c e1 11 a1 fc bf
       1.6444928256986835 -1.789323691922977
0003b0 35 1e 6a 9e b0 3b 02 40 bf c0 cb d1 b8 60 e4 3f
       2.2791454673895495 0.6368068788124431
0003c0 29 1e a0 12 ae 9b f7 3f c4 a3 cb c7 70 53 07 40
       1.475507805591301 2.9157424553891094
0003d0 4c c1 f2 9f 57 e2 f3 bf a4 bc 75 72 e1 d3 04 c0
       -1.242759346769236 -2.603457349985165
0003e0 50 a9 8e 4c d4 6a f5 bf f0 bf 59 e2 bd b6 bf 3f
       -1.338581370403137 0.12388216758858994
0003f0 98 5b 8d 43 20 f5 03 40 25 1a 96 a9 0e a5 06 40
       2.494690444709203 2.830594372647527
000400 22 cb 70 6b 5b f0 0a c0 9b b9 01 fd 1c ba d2 bf
       -3.3673618692204323 -0.2926094504136018
000410 18 9f 52 74 70 6d c9 3f 41 ae d7 b5 c7 33 fd bf
       0.19865232162305158 -1.8251416304800758
000420 16 8e 3a b6 d9 39 fd bf ab 8d 3a 21 cf 4e ee bf
       -1.8266236418065822 -0.94712025156007
000430 aa c6 f8 c6 a4 a1 03 40 04 79 e3 4d c5 c5 f1 bf
       2.453927568881075 -1.1107838671228487
000440 66 fa 09 68 0a 88 e7 bf 20 8a b9 05 58 60 ec 3f
       -0.7353565246592779 0.8867607223331255
000450 e8 93 06 51 8a 63 e8 bf 47 ef 3c 6d d5 67 0c 40
       -0.7621509153874486 3.5507000478955066
000460 42 e9 81 a3 a2 b7 06 40 7e 01 85 da 4d 03 01 c0
       2.8396656774540654 -2.126613337692276
000470 90 9e 1b c1 1b 73 d7 3f 96 85 62 e4 f6 4b d6 bf
       0.3664006601161214 -0.3483865003891763
000480 ce 04 bb 9e 85 71 f7 bf c7 cf fe 9f 05 8c 05 c0
       -1.4652153206264305 -2.6933701038014735
000490 f2 79 b8 9c 0c cb c5 3f 4b 7b 7a 70 d4 71 df 3f
       0.17025907184957095 0.4913226221487334
0004a0 5c ea 95 e3 93 cf 09 c0 13 14 ec 24 2f 4f e2 bf
       -3.2263562946439333 -0.5721660348068575
0004b0 03 4c 21 0a 07 93 00 40 a3 31 b5 f9 97 c8 fc bf
       2.0717907706653036 -1.7989730600557798
0004c0 a2 be 2d 7c 6c 18 00 c0 6c ac b5 a3 00 bf e2 bf
       -2.0119256688556826 -0.5858157346205082
0004d0 dc 2c 6e b1 cb f6 0f 40 8a 2c 39 18 66 3c f3 bf
       3.995505701231748 -1.2022458025192315
0004e0 b1 de e1 54 54 10 e8 3f 22 d6 02 28 98 ed fc 3f
       0.7519933374269013 1.8080064356739816
0004f0 c4 d7 7e e0 44 46 fe bf 36 33 b5 57 da 0c ea 3f
       -1.8921555299143487 0.8140689576190201
000500 ab a9 04 0f 0c e9 d0 bf ad 19 e6 c7 40 88 f3 3f
       -0.2642240664160009 1.2207649048374194
000510 60 30 4d 49 b6 69 f4 3f b0 19 3c da cf e7 a6 bf
       1.275808607420025 -0.04473733462332363
000520 48 c3 4f c7 1f 14 fd bf 6c d7 b8 93 f0 12 06 40
       -1.8174131188972797 2.759247926786818
000530 64 4c c2 57 de 7e f2 bf 61 2c b4 2f b8 83 00 c0
       -1.155973761375912 -2.0643161513194603
000540 93 97 f5 1b 9a da 0a c0 e4 a2 95 68 24 be ca 3f
       -3.3567392525027997 0.20892768007913454
000550 f4 d6 45 ab bc 7a f4 3f 58 6b 9a 00 1b 9e 06 c0
       1.2799650850624262 -2.8271999404072794
000560 71 6a 23 f5 c7 a6 ec bf 27 b4 a4 9e af 5f ff bf
       -0.8953590190752277 -1.9608608433729928
000570 bb d1 23 b1 46 74 f3 3f 5b d0 87 55 90 23 01 c0
       1.21588772959977 -2.14236513920518
000580 ab c0 f8 e0 4a 43 f7 3f 66 c7 7f 75 d1 e0 e1 bf
       1.4539288318592678 -0.5586936278252608
000590 be 66 cb 59 e0 70 fe 3f e6 d2 12 0e 51 d9 05 c0
       1.9025577075575906 -2.7311116313452315
0005a0 1b d9 1a 0b 25 30 e0 bf 4b 4f d4 13 61 5f 05 c0
       -0.5058770386592956 -2.6715718793074408
0005b0 a7 92 5d c8 7f c0 02 40 3a 37 06 78 48 a6 08 40
       2.3439937261158152 3.0811929108521356
0005c0 61 6e c2 c3 b6 af f5 bf fb 75 57 1d b9 c8 f1 3f
       -1.35539890736154 1.1115046640546768
0005d0 7e 6f 86 85 88 d5 fe 3f 0e 66 a7 e6 9d 25 cc 3f
       1.9271321502519352 0.21989797365567693
0005e0 b4 eb 3a 01 03 0a c2 bf 77 c9 e7 50 69 c7 f9 bf
       -0.1409305339819561 -1.611184421574391
0005f0 00 a9 c3 9b da ac 03 c0 c8 48 07 22 8c 7d 02 40
       -2.4594013375364057 2.311302438590335
000600 69 1a 7a a3 a5 b1 0a 40 46 46 ae 58 58 39 d7 3f
       3.336741711772721 0.36287506733160446
000610 c4 9b 0c 4c 57 10 ed bf d6 3f f7 35 63 e8 f6 bf
       -0.9082447514855336 -1.4317352397956618
000620 ee 42 81 8d d3 83 fc 3f ff f4 bf 18 fd 2f 02 40
       1.7821841743026954 2.2734319623547203
000630 53 a6 d1 a3 98 58 ff 3f 30 95 80 63 8f 49 02 40
       1.9591299437692171 2.2859180234542222
000640 ff b8 28 89 4c fc d3 3f 22 90 bb 55 2f 3b 09 c0
       0.31227410692635255 -3.1538988778938952
000650 36 09 8d 67 5a 8b fe bf ca b6 be 4c af f7 08 40
       -1.909021763320721 3.120939826555376
000660 a6 25 91 88 06 98 d4 3f 0d f8 51 51 e1 80 0b c0
       0.3217789014493867 -3.4379297593250215
000670 67 42 4b bf 8c f5 08 c0 47 bd 88 60 f4 3d f8 3f
       -3.119897360309824 1.5151256342758914
000680 9c 5b 2c 15 b2 f9 05 c0 7c 0b 47 66 bf 8b 02 c0
       -2.7469216970598165 -2.3182361593657657
000690 00 51 51 6d 67 28 e2 3f 35 49 bf ba 2a c7 fd 3f
       0.5674321303472709 1.8611247343838617
0006a0 84 0f 1f f2 34 a7 e9 3f a4 df 24 9d b4 d1 fe bf
       0.8016609887058483 -1.9261976374091114
0006b0 db 30 37 1e 66 f1 ee 3f 48 b1 5e 2c 8f 17 f7 bf
       0.9669676389835574 -1.4432517750929765
0006c0 3c 77 c6 af 21 e5 f4 bf 7e d1 f9 b2 23 b3 fe 3f
       -1.3059403291913005 1.9187352172130825
0006d0 53 63 50 fa 16 d7 ed 3f 41 35 6e 1a 86 8d 03 40
       0.9325060738511673 2.444103437889368
0006e0 57 f3 16 e6 be 6d b9 3f 5f d2 9e 3a 69 66 be 3f
       0.09933083646224126 0.1187501686207013
0006f0 57 ac b8 a0 a5 51 01 c0 eb 3c 61 17 ef b0 a7 bf
       -2.164866691242007 -0.046271773914321766
000700 4b 3a 80 bf a4 79 f3 bf f0 2d d7 59 c4 72 f3 bf
       -1.2171981316092964 -1.2155192860981252
000710 dd a7 b0 cf fd 45 09 40 74 10 7a 23 dd 74 ce bf
       3.159175512865643 -0.2379414008356694
000720 52 1f 94 bc 58 64 08 40 7d 5e ff ad ec 18 e7 3f
       3.0489973766997673 0.7217925451650015
000730 7d f0 9e 13 a2 b4 00 40 a1 5a 11 85 8d e7 c6 bf
       2.0881997616652925 -0.17894143102121965
000740 ac eb 76 3d 19 9f e7 3f 19 0d a1 1c 21 c9 e2 bf
       0.7381712151030704 -0.5870519217645863
000750 64 fb 14 c0 04 22 fd bf ec de 54 91 94 65 f9 3f
       -1.8208053115083311 1.587299888325954
000760 ca 70 f6 67 15 44 f4 bf fd a7 64 ca 1b f1 05 c0
       -1.2666219769517277 -2.7427287876098476
000770 7e c3 ae e4 03 79 ee 3f 0b 99 b5 31 de 90 01 c0
       0.9522723642786415 -2.195736301760126
000780 39 4f cc a3 ed 88 09 40 69 a0 9c da f2 e7 09 40
       3.191859512016802 3.238256175904145
000790 99 e9 e2 40 55 d7 0a 40 22 fb 5b 37 24 be a0 bf
       3.35514307682497 -0.03270066428921427
0007a0 af 3e 03 e8 d2 0f 06 c0 59 f4 16 03 5a 7d fb 3f
       -2.757726490592027 1.7181034203233791
0007b0 2f 21 3e f5 80 30 a3 3f 55 b1 df c7 79 6c 08 40
       0.037479429184772754 3.0529666533604236
0007c0 66 6b af d1 66 15 09 40 95 a3 fa b4 cf 5b 06 40
       3.1354500180872718 2.7948297633160544
0007d0 e1 da 5c aa 6c 61 f6 bf ce eb 96 c9 5a 15 e8 bf
       -1.3987852721017406 -0.7526067673965089
0007e0 8d 7f 40 d3 c0 40 ff 3f 21 4c d4 d7 c3 1c f7 bf
       1.953308892443576 -1.4445227080184468
0007f0 ee c4 22 06 48 76 fc bf 39 d9 ad f6 1c 72 b0 3f
       -1.7788772811584823 0.06424122831763136
