results/vqe_data/with_params/10q7l/sgd_10q_7l_42/parameters/params_ite272.npy (npy, 2448 bytes, 1 tensors)

array f8 [290]
00000000: 8bb4 9082 22e4 e5bf 9b1e cbcb 0645 0840
00000010: 8452 a949 d866 fe3f 11ce 9dc3 6c51 a73f
00000020: 5bdb e0a5 7861 02c0 6393 fa96 bd12 05c0
00000030: c723 956b 892f 08c0 fde3 ba13 f8d9 0640
00000040: 6b4d f2ba a960 a03f 8f0d f4c6 2782 f03f
00000050: 4fa2 1037 db80 09c0 1bf5 8988 1d82 0c40
00000060: 1c93 aefb af63 0640 ecba 46d8 3500 fabf
00000070: 6b3f 2a09 d05e 03c0 f722 8b4e 3be8 f6bf
00000080: e58b 3685 5dde e6bf b9d9 d0ee 8927 99bf
00000090: ab8f 2ee6 c46a ddbf 02ec dd80 a824 efbf
000000a0: 9b1c c3d4 af0a e73f 09fa fe51 4f2d 03c0
000000b0: 1cb8 61d2 366a ecbf 3a99 e512 9615 d1bf
000000c0: 8511 52c2 4423 b53f fa9d 20d7 8d78 f63f
000000d0: c8a8 a496 0687 01c0 f6f8 9814 50a0 cabf
000000e0: 1814 3781 2b20 d03f 0a39 0c65 8403 04c0
000000f0: dba6 20be f52e d93f 1c35 d9e9 67f6 03c0
00000100: 518a a940 a553 00c0 f8ff 69aa 4998 0440
00000110: 93b4 2265 943c 0640 7cbf 62da 96b4 fa3f
00000120: 9770 444e c363 f9bf 88d3 74eb b619 05c0
00000130: 7dec d8a1 32a4 ee3f d860 7faa 6523 e6bf
00000140: eca8 6023 2deb 03c0 f8ce 074f e66b b3bf
00000150: 4893 4021 66c5 05c0 f34d f4c6 591a 0340
00000160: a9ff 79a0 e835 00c0 acfb 14bc 55d7 e63f
00000170: 7256 5c72 c7d0 e5bf d56a 2c06 e301 76bf
00000180: dbd0 3c9b f9bb 87bf e28f 61c8 fa24 f8bf
00000190: 7b94 c9ee 9ef2 0a40 933b 0bc4 b4b5 f63f
000001a0: b241 d610 170b 0640 7fa1 453f d9a5 0640
000001b0: cc85 0de2 ab39 e73f 39ca 6b47 90c7 0640
000001c0: f95c 513a d9a8 08c0 879d 6bd7 63f4 f7bf
000001d0: 374c 591b 876a 08c0 1a68 69cf aeac eebf
000001e0: 5020 aada 9e85 f0bf 76f9 d5d1 e953 ecbf
000001f0: 9580 1dfb ead9 0540 9fce 1582 6eb0 e2bf
00000200: 457e 2108 44d9 f1bf abe4 fb1d 6dfe cf3f
00000210: 5c1a 4a0b dd85 00c0 15fa 3180 20f4 0040
00000220: ff31 ce21 c59a 07c0 eeb6 dfba 7289 0840
00000230: 2edc 4e61 eb01 f63f 5006 96cd 6d70 f5bf
00000240: 3615 4dcc b01d 08c0 50fc 80c0 fa2b 0040
00000250: 2c4b a920 150e eb3f ddd6 b026 aad0 f73f
00000260: 7762 dc49 353b f23f f39d 8918 298c 07c0
00000270: dcb4 1c25 869e e9bf 6af7 de95 19e2 05c0
00000280: 332f 1c36 0a03 fd3f 8ea0 bf96 63bd e93f
00000290: 1b55 9300 cef9 dabf 9cd0 6383 b373 07c0
000002a0: 2eca 9366 73cd f7bf bcc7 32f0 e6ca fdbf
000002b0: 54d1 7c13 4b5c f13f f4ee cbb3 0e16 ed3f
000002c0: 7412 ee65 2862 0340 ab70 d8f5 6a96 9fbf
000002d0: 6c37 a619 7021 febf e22f c834 b493 f93f
000002e0: 4a26 1677 4f41 f43f f254 9162 9f08 e13f
000002f0: f4c5 e782 87d9 f93f d2e7 55b4 ee39 d8bf
00000300: f9fb 3185 f5da d23f 6c69 2db8 7ceb e9bf
00000310: 969b 0ab5 187f 08c0 2cd5 9457 19f9 06c0
00000320: c1ab 7902 78a8 02c0 c729 a1a2 dc22 c53f
00000330: 2a07 5317 60c7 f2bf 8ed4 887c 8138 c03f
00000340: 1c5c 74a0 293b 0440 6349 902a 6eb1 f0bf
00000350: c1f4 b311 f7fe efbf 8e08 0f04 4bc7 f63f
00000360: 7aea 0755 d283 f7bf 4381 1f1c 8774 09c0
00000370: c071 7bfe 490a f6bf ca39 60fe 1304 01c0
00000380: 79e1 fe3e 79cf 0140 bb2a f491 36ba 0040
00000390: 8748 c8cf b4fb f03f fb2e 079c 7bfc 0440
000003a0: 1f12 70f8 2d12 fe3f cc71 c0a4 335b fdbf
000003b0: 974b 0280 9895 0240 7d5b 0cfa 2ed3 e33f
000003c0: 4e83 1a50 74ee f63f d436 bcc1 c68c 0740
000003d0: 576c f3a5 680c eebf 2a79 bcfd 5b3b 05c0
000003e0: 6d17 36c0 ef72 f1bf 17c0 a4b4 f947 c2bf
000003f0: 3e7d 3435 721c 0440 0920 4fc8 d1c5 0640
00000400: e46e 997b 56e5 09c0 8f0f 7f1e 4d11 c4bf
00000410: 23f0 a686 7ecf c03f f3e5 5155 03ac fabf
00000420: cf57 daec d881 febf a73a 4232 ac78 eebf
00000430: 690d d8ff 128f 0440 e280 8fc7 da50 f2bf
00000440: ff04 deb8 7783 e5bf e8bc 36ce ec0d f03f
00000450: 31a4 1169 8a17 e9bf c6de d18a cfb4 0a40
00000460: 7235 375e 5bd7 0640 6154 14a7 6a10 01c0
00000470: a283 bf58 c9e2 d23f cd36 a7ea 547a d9bf
00000480: 32e7 467e 707a f7bf 50c3 0dab 5a18 04c0
00000490: c9f1 de4c 509c c43f a17c fecb 8173 db3f
000004a0: 9e38 2fc4 d220 09c0 edcc 7879 7dd7 e3bf
000004b0: a875 64fc f6e5 0040 da09 0a80 cbe4 fdbf
000004c0: b6a2 a37d 4a2f 00c0 e25e fc73 b1f4 e1bf
000004d0: 3ccd c73c e854 0e40 6aa3 50c9 f1f2 f1bf
000004e0: 6b0a ce3a f1a5 ed3f 45fb bfea 1a8c fa3f
000004f0: 9f9c a355 cf5b febf c519 e4fe a846 ed3f
00000500: 1776 e092 bb0c ddbf f89e 2024 c6a5 f13f
00000510: c72d 46b9 e36c f63f 921d 757b 2414 aebf
00000520: 66ae 691a 6e36 fcbf 663d 5191 4add 0340
00000530: 48a4 38aa 8b72 f2bf 2a7d b15a 0b85 00c0
00000540: 2f1a b71f fa0d 0bc0 4f9a edf7 88d8 c53f
00000550: ea42 5574 e897 f13f bdad 6ba1 6c8e 05c0
00000560: aecb 1e21 bc52 e9bf 0a54 f8ee 5c34 00c0
00000570: 9d7d fa41 d0bc ee3f 0894 202b 0784 ffbf
00000580: 19b6 6d44 0250 f63f e6b0 5181 a8ea d8bf
00000590: 6b31 d408 8e4e 0040 0f39 4c6e b0c6 04c0
000005a0: 571a f432 7652 e4bf 013e 37e3 1c30 05c0
000005b0: 9395 b8c2 1db3 0240 98e1 f7a6 c176 0840
000005c0: e4a2 ea93 93c0 f8bf 945c ca8e af8c f03f
000005d0: 9ba3 4987 aa0f ff3f 830d 285c 13c7 cd3f
000005e0: 6e5a 2015 c67a c43f 5251 1633 687a fabf
000005f0: c71a cc4e 1cab 04c0 9538 18c8 0e87 0240
00000600: 7496 a2f8 0790 0b40 b9d4 bc15 1d1a dc3f
00000610: 3d2d 2fd7 fc50 ebbf a800 36a7 b3ae f6bf
00000620: e76b e34d 898f f83f 7404 d91c 27af 0340
00000630: 483d 9009 19f3 ff3f 7013 5caa 122c 0040
00000640: 2108 d24a 710a df3f b997 b4ab 3722 09c0
00000650: 1669 9f46 09da fdbf 6fb4 e452 48c7 0840
00000660: d58d 6d6b 6bc5 e03f 1e81 2618 2a36 0cc0
00000670: 72e1 ac1d 69fe 08c0 5f4f 2cf1 f14e f83f
00000680: 0e44 6780 5590 07c0 9f86 ed60 b012 03c0
00000690: 3de9 7063 fddb e63f 8d79 9f50 e8c2 fd3f
000006a0: f59b 7c05 1e85 ee3f 7e15 e876 8abe ffbf
000006b0: 1dfa e4d3 5706 ec3f 561b eecc 802c edbf
000006c0: 1310 ea1e 0f3e f2bf ee52 ef4d 2677 ff3f
000006d0: d1bb 12dc 2e07 ef3f 41a4 5dc8 c5ff 0040
000006e0: 26db b2cb 3055 b53f 30bd c22f bcf6 d03f
000006f0: 7b23 0a73 3aae 01c0 af5c 8342 eb07 aabf
00000700: c822 fd99 63b9 f2bf d184 d04d ab1d f2bf
00000710: 709a bf4e 2139 0940 f1ee c638 6f46 d2bf
00000720: 95f7 d015 bb87 0840 4beb efb7 b1fe e33f
00000730: a032 3561 48f2 ff3f 7251 3452 04a9 c0bf
00000740: be1c b910 da50 e73f 565c 1f9f 75eb e0bf
00000750: 7dd6 a6fd ae16 febf 76d5 bff6 08a3 f83f
00000760: a8e1 5d39 bff9 f6bf 4a8b aa61 42e5 05c0
00000770: b305 9dcc 9c2f ee3f f5c0 3f93 50ba 02c0
00000780: b384 7484 5bbe 0840 663e c083 dcee 0940
00000790: 159f 1809 48d9 0a40 4f17 ab71 d007 8cbf
000007a0: eeae e646 74d1 06c0 b285 4b65 9729 fd3f
000007b0: 6b77 9f10 0027 7ebf b0d2 be83 5d00 0840
000007c0: 55eb 2c90 2a05 0940 cf3c 6db2 c059 0640
000007d0: 7ad7 2219 b91f f5bf 34d5 f6ca 6b9c eabf
000007e0: f516 d7fe 410d 0040 9c7e ce4b d127 f9bf
000007f0: e1f3 c015 a12d 01c0 a457 213c 6bda d13f
-0.6840984869101175 3.033704368721215 1.9001086118124997 0.04554309738059826 -2.297593398975932 -2.6341506762714046 -3.0232113270653573 2.8564302007112006
0.03198748023091976 1.031776215707257 -3.1879181196166324 3.563532892904403 2.798675504937263 -1.6250513504307333 -2.421295234300421 -1.431697184382015
-0.7146442033593955 -0.02456489105335333 -0.45964167097758474 -0.9732248799258516 0.7200545459280819 -2.397123947709819 -0.8879655941980249 -0.2669425186671962
0.0825694059768179 1.4044321444906687 -2.190930535221103 -0.20801735883464517 0.2519634973398879 -2.501717366633902 0.39349120680945554 -2.495315386716028
-2.0408425380458444 2.5743592561338993 2.7795799161163557 1.6690891771977183 -1.5868561799352727 -2.637555922987705 0.9575436745721074 -0.691820939066953
-2.4898321880219694 -0.07586516789870845 -2.7213862035590957 2.387866548853475 -2.0263226067763367 0.7137859986759074 -0.6817357286078745 -0.00537289315505048
-0.011589002656912253 -1.5090282275568758 3.3684672026889166 1.419361844822309 2.7554150882135326 2.830980772316422 0.7257899680227466 2.8474431590814473
-3.082445579154975 -1.4971655287607477 -3.0520155083300113 -0.9585794497500075 -1.0326221982559396 -0.8852433298450666 2.731405221784437 -0.5840370693899394
-1.1155433957682288 0.2499519726186795 -2.0653630144109183 2.119202615285085 -2.9505713120508967 3.0671133613130825 1.3754686165900796 -1.3399484663681456
-3.014497371771223 2.0214743651736526 0.8454690587917404 1.488443518768171 1.1394551167669797 -2.943437759113061 -0.8006010746809369 -2.7354003628415073
1.8132421601939768 0.8043687767322056 -0.42149686866953723 -2.931494738086327 -1.4876588828016213 -1.8620366461513944 1.0850325356705826 0.9089425574925074
2.4229286158827623 -0.030847235923020005 -1.8831635476994633 1.5985605298801535 1.2659449245278602 0.5323025632048071 1.6156077493181984 -0.37853591547866217
0.294614200662124 -0.809995994302239 -3.062058843981002 -2.871630367497934 -2.3322601502781883 0.16512639943023386 -1.173675623999268 0.12672442036424453
2.5288879905233568 -1.0433179533616446 -0.9998736711273964 1.4236555250686567 -1.4696830102463125 -3.1818983265986005 -1.377511972495185 -2.1269912598720326
2.2263054772885735 2.090924396766551 1.0614517323015507 2.623282641381477 1.8794383720970769 -1.834766048013182 2.323044776983305 0.6195292361979764
1.4332163933797406 2.9437384734691054 -0.9390147439220397 -2.653984052957772 -1.0905606754544934 -0.142821515278684 2.51388970915255 2.846591534533222
-3.236981359119328 -0.15677799214438123 0.1313322217446294 -1.6669953663644008 -1.906701016623163 -0.9522305471053486 2.5698604572113948 -1.144739894421996
-0.6722982989014382 1.0033996634700149 -0.7841236164214306 3.3382864804551415 2.8551547394369488 -2.133015923793707 0.29509195010001055 -0.3980915347609482
-1.467392438191791 -2.5118916858267895 0.16102031472645553 0.42892498894975445 -3.1410270049010043 -0.6200549480912777 2.1122874944837413 -1.8683581353694678
-2.023091298633825 -0.5611197724674322 3.791458582732643 -1.1218126167170461 0.926506628850189 1.6592053575438552 -1.8974145264890365 0.9148755052890968
-0.4539021429389733 1.1029721652247968 1.4015843617697656 -0.05874742514657351 -1.763288596320217 2.483052382747405 -1.1529652261035768 -2.064963062802822
-3.3818247297051793 0.1706706247889138 1.0995869201907973 -2.6945431338296815 -0.7913494727020998 -2.025567881539705 0.9605485237734005 -1.9697333988817736
1.394533412264883 -0.38932240132159135 2.0383568467861344 -2.5970162026416186 -0.6350661273180077 -2.648492598651274 2.337459107645097 3.057986549796805
-1.547015741156593 1.0343471124413428 1.941324737994569 0.23263780593707048 0.1599967578083183 -1.6548845286934761 -2.583550086597231 2.3159461624519033
3.445327703916343 0.439093848446031 -0.85363618877583 -1.4176517993619573 1.535043052913119 2.460523820278974 1.996850049359482 2.0215199765538543
0.48501236254390007 -3.141707745980025 -1.8657315024088965 3.0973059154553577 0.5240990732385692 -3.526447476077137 -3.1242239302047716 1.5192737027000118
-2.945475581313537 -2.3841254780280248 0.7143542234619314 1.860084834035294 0.9537496668971231 -1.9840187687671853 0.8757743013919171 -0.9116825106183153
-1.140151139029517 1.9665892643289982 0.9696268366150155 2.124888959272113 0.08333115552055101 0.2650595156109885 -2.2100724208325437 -0.05084166705062764
-1.1702610030353515 -1.1322434463148066 3.1528955604765585 -0.2855489782775598 3.066274805488272 0.6248406021617056 1.9966510579280694 -0.13015798581967492
0.7286196066496797 -0.5287426097737675 -1.8805379780073104 1.5398034704824943 -1.4359733811271358 -2.73694301892957 0.9433120724062775 -2.3409739974814507
3.092947993093355 3.2416315358203063 3.3560944281233653 -0.01368677946937749 -2.8522725619458162 1.8226541478000908 -0.007361412290235107 3.00017836500259
3.1275225890835068 2.793824571570077 -1.3202448827628062 -0.831594368376193 2.006473532618538 -1.5722210847087927 -2.1472799014577366 0.2789562308511171
