results/vqe_data/with_params/10q7l/sgd_10q_7l_42/parameters/params_ite1935.npy (npy, 2448 bytes, 1 tensors)

array f8 [290]
0	0xbfe2e4ced57bcc18	-0.5904306573487501
1	0x40084af71bb8c710	3.0366041341557164
2	0x3ffa098070960d55	1.6273197553535586
3	0xbfd3e5682fe6efc0	-0.31087689092577975
4	0xc0016b69c3e66ece	-2.1774478249261398
5	0xc0024ecf17122e7d	-2.2884809305595
6	0xc0077bab797c255f	-2.9353856554995867
7	0x400687a5313da8ef	2.8162330481474025
8	0x3f6e6de0dc583463	0.00371450346097517
9	0x3feef02deb2a88c4	0.9668187707032065
10	0xc009c4a900ee2f55	-3.221025473851038
11	0x400adc325e92bdd8	3.3575179470569587
12	0x4005856f9b696f2e	2.6901542798567766
13	0xc00168d49b4b6ba9	-2.1761867649451756
14	0xc00074996cbf65a4	-2.0569332595739116
15	0xbff442bdeccbaab0	-1.2662944078280525
16	0xbf81301c80f00021	-0.00839254635320691
17	0x3fbabe1c5e0f34bd	0.104463360751839
18	0xbfe67be8712cc2f7	-0.7026254854627884
19	0xbff1af44cd8fd410	-1.105290225006005
20	0x3fe842ebf2d33da9	0.7581691496542834
21	0xbffc68bc5c1fb84f	-1.775570258959778
22	0xbfde1369ff66e4c1	-0.4699349397811368
23	0xbfe66431cad424e6	-0.6997307740686238
24	0xbfb76b044f80dc72	-0.09147669735908595
25	0x3ffa8d5ce44a47e8	1.6595124166092265
26	0xc0009a15b0b912c4	-2.075236683509816
27	0xbfd010e34bc2c9bd	-0.2510307540752839
28	0x3fc3f9780828d2cf	0.15605068586741885
29	0xc0032fa8fc33947c	-2.398271532367799
30	0x3fe0881a5e5eef9a	0.5166141360455072
31	0xbffd536b15c9e4a7	-1.832865796195884
32	0xc00024b9b873e1f5	-2.017932358776529
33	0x40093ec05f1b12cb	3.1556403570305966
34	0x40051483f6f2db8a	2.635017327581811
35	0x3ff930efe400bb6a	1.5744475275384624
36	0xbff593b7a418fb6b	-1.3485638055860487
37	0xc00186d828f8bb7e	-2.1908419800669767
38	0x3fec7d1896223d6a	0.8902705128001973
39	0xbfe512641d83d51e	-0.6584950043167372
40	0xc0026af11af53b0d	-2.302217684372755
41	0xbfcad17e496bffcb	-0.20951822838833176
42	0xc009c9b6bc530ee5	-3.2234930718276353
43	0x3ff6a71e33319293	1.415800285315673
44	0xc001b6c53cc87578	-2.2142433880496206
45	0x3fc1f97b73d2c716	0.14042609363019015
46	0xbfe623f112e98bf1	-0.6918874139195151
47	0x3fb39679e4d9a1c1	0.07651483380471459
48	0xbfb114c6d8188c67	-0.06672327781466124
49	0xbff898e8592b7e56	-1.5373309596251565
50	0x400e79349a1f3fb1	3.809182361677778
51	0x400092f4af6ff8e5	2.071755762676832
52	0x400ae7ef99041be4	3.3632499651316596
53	0x400c5a6a1db32e51	3.5441477127367667
54	0x3fd9d6b796e4bd74	0.40373029456801324
55	0x4003ab38bcdaf6db	2.458604312355289
56	0xc0095c913e0da395	-3.1701989028847017
57	0xbfe9c412442a9efd	-0.8051844912888267
58	0xc008dceaa3bd58f8	-3.107869414535454
59	0xbfedb5ee7611deca	-0.9284584337283033
60	0xbff7c6e64890108b	-1.486059459160091
61	0xbfee8ac48f60439e	-0.9544394302666779
62	0x4006dc2e2b0fa124	2.857509933866952
63	0xc00179d1e6fa3a71	-2.1844823880303967
64	0xbff9addde6ded1d8	-1.6049479502081478
65	0xbfe56060ff0bce02	-0.6680150014275912
66	0xc0021d47d853b9ab	-2.2642971897650646
67	0x3ff7bd4a2396b549	1.4837132826026667
68	0xc008cc0239fe8ff7	-3.0996136217890995
69	0x4008e47cb407d883	3.1115659775633175
70	0x3ff89401eb526612	1.5361346428165956
71	0xbff5cd7b60fee70a	-1.3626664914031061
72	0xc002804caaf0006e	-2.3126462320797634
73	0x3ff4e75c1da5b88e	1.3064843328570848
74	0x3feb490285e4dfc6	0.8526623358838996
75	0x3fef201afe187f7e	0.9726691210562277
76	0x3fe43229a87ce7e1	0.6311233797816805
77	0xc003d0b40db5c30c	-2.4769059249014216
78	0xbfedbdb27fe279a0	-0.9294064042804173
79	0xc0057eb84aba97b1	-2.6868749464219595
80	0x3ff6f3052c9b6347	1.4343311064205453
81	0x3fe96a19bbc0a56c	0.7942017237702834
82	0xbfbe53211e5c5c4e	-0.11845595351438584
83	0xc0089e000cd162d3	-3.0771485330009027
84	0xc0028f91a9396771	-2.320102045120557
85	0xbffb99dffd1f8ed7	-1.725067127955233
86	0x3fe42d804932819c	0.6305543355593275
87	0x3fe5270c94c0c3bd	0.6610167413074276
88	0x4006f4db57d618e2	2.8695589887821464
89	0x3f7a865db35006da	0.006475797669738015
90	0xc00026957229aef8	-2.018839733025626
91	0x3ffba7038e4dae59	1.7282748755195796
92	0x4001a0c86b28815f	2.2035072681175474
93	0x3ff1d01389482b03	1.1132998812269654
94	0x3ffdc5e068b421b1	1.860809716223326
95	0xbfd17d48cdcf1a30	-0.27327175234350687
96	0x3fed6baa37c82e86	0.9193926896563915
97	0xbff451fa1294c2ed	-1.2700138784240906
98	0xc008aa3efbb3a8da	-3.083127943439746
99	0xc0075fb41c81dcd0	-2.9217302538996606
100	0xc00875b6a2de9984	-3.0574772571737316
101	0xbf960ac1e9cc67fd	-0.021525411505628245
102	0xbfe9a9c7145e2b37	-0.8019748113450537
103	0xbfb31aa7d6b94a97	-0.07462548248558175
104	0x40048883928f3bf4	2.5666572046243292
105	0xbffb7b2f7c2518e6	-1.7175745820437043
106	0xbff6246cd93f17e1	-1.3838928686322947
107	0x3fe9cc67766a7c13	0.8062016785442004
108	0xbffd6675b6a5b7de	-1.8375146040593715
109	0xc008bb08ab4090d9	-3.091325128467457
110	0xbff4f59e863f32dc	-1.3099656337755539
111	0xbffefb5d898fc1aa	-1.936368501043129
112	0x3ff95cfc4448a5c0	1.5852015178046344
113	0x40049a66f736397e	2.5753917039320973
114	0x3ffe3731b6f65edd	1.8884751460045017
115	0x40096b752fa910ae	3.1774696086377707
116	0x3ff5b94be8d7de25	1.357738408607369
117	0xbffc3d19bef30737	-1.7649171313245924
118	0x40029243e1b746b0	2.32141853657307
119	0x3fca51e715446cdb	0.205624471077363
120	0x3ffa875719b211a4	1.6580420497640285
121	0x4002d08d694e389f	2.351832220744725
122	0xc000ba3c11f3e618	-2.0909348871762283
123	0xc005e60a03ffc033	-2.737323790781397
124	0xbffba36366008053	-1.727389715619229
125	0x3fa9cc91d397c5cd	0.050388867453772336
126	0x3fffcf0a2f5dfaad	1.9880468225743855
127	0x4008195f15e1fbcf	3.012388392409299
128	0xc009e090151c2f7a	-3.2346498154856222
129	0xbfdec9397f7b89ec	-0.48103177499265715
130	0xbfb4a2a309b4a73a	-0.08060664164500234
131	0xbff9e5074698b9a9	-1.6184151418379804
132	0xbff798943a91756e	-1.4747507369823682
133	0xbff2aca12d56bc81	-1.1671458979651848
134	0x40074f6f0329964f	2.913785958010329
135	0xbfa35e272dc7e649	-0.037827705706103894
136	0xbfddc2caea426627	-0.46501419903651925
137	0xbf9bc2d442a4d0c4	-0.02711040169488467
138	0xbfefffbb67029c2b	-0.9999672901075248
139	0x4009f440af82a698	3.244264002966542
140	0x4010ff6235ad81da	4.249398077693025
141	0xc00078eb2dedea1b	-2.0590423191290603
142	0x3ff2114350eb1800	1.1292145882484874
143	0xbfd2574d7d04fef6	-0.2865785332578378
144	0xbffae34aadfc5e05	-1.6804911419220627
145	0xc0072babfb89181b	-2.896324124451906
146	0x3fa0f9870e5e4ed5	0.03315374422450438
147	0x3ff103ecb35e8bb1	1.0634581572164559
148	0xc00a6255915e50e3	-3.2980147702129314
149	0xbff983223fd41c3c	-1.5945150845816576
150	0x400319320ff6ee6b	2.387302517626997
151	0xbffcac51c373418d	-1.7920701632284335
152	0xbfef36ea4f70d86e	-0.9754535247400449
153	0xbfbd13408c0b4619	-0.11357501429599672
154	0x401019b89ce97017	4.0251183049658925
155	0x3fc722c01325d2df	0.18074799475620915
156	0x3fd708a5e0bb797e	0.359902829613837
157	0x3ffb799221c30823	1.7171803778478612
158	0xc001d97be4c629bf	-2.2311933396315164
159	0x3fd33dbe367c310a	0.3006434948045046
160	0xbfba775dd183280e	-0.10338388791129224
161	0x3ff299cb8ec839f1	1.1625476434161295
162	0x3ff0459fd936246b	1.016998146517177
163	0xbfa48a2116205c2f	-0.04011634249780404
164	0xc0050049b79c6b58	-2.6251406044588457
165	0x40029aa8825a211d	2.3255167182688994
166	0xbffc2205da9b8029	-1.758306363997699
167	0xbffbb324cbdfe096	-1.7312362636421645
168	0xc0091055b4efa068	-3.132975972712348
169	0x3fcf7d205cefc652	0.24600605523987668
170	0x3fe205fa3313607b	0.5632296559879387
171	0xc0054f6e2012c04a	-2.663784266063918
172	0xbff728523d0573eb	-1.4473440536160023
173	0xbffcdb8d707b5904	-1.8036016839810722
174	0x3fe9e2d88226029a	0.8089411298716016
175	0xc001fea690a1998e	-2.2493411349598267
176	0x3ff9190168ad1587	1.5686048592482125
177	0xbfe13be73ebb219b	-0.5385624146666034
178	0x3ffc5ffe074fd25b	1.773435619889958
179	0xc00373f94a18f309	-2.4316278256286563
180	0xbfd8c7df08fb316b	-0.3871991718013052
181	0xc0085cee4c787361	-3.0453763937243115
182	0x40083c14f230dfc5	3.029336826435584
183	0x400966db61999c77	3.175223124027578
184	0xbff1e0c0b6d545d0	-1.1173712865751106
185	0x3ff8b9396b355ccb	1.5452207744436233
186	0x3ffc8bf4bfca6307	1.784168957883766
187	0xbf811fe290656f51	-0.008361597091315483
188	0xbfe65954897d9d01	-0.6984045682301315
189	0xbff8a4e73a32d6cb	-1.5402595780737325
190	0xc00367078d2d2c1b	-2.4253073720369804
191	0x3ffd5a7d33c8161b	1.8345920584409956
192	0x400c6adc7dc95f47	3.552178366382495
193	0x3fed91a114d1715b	0.9240270048717706
194	0xbff1d3540fbe4920	-1.1140938391659532
195	0xc002c1cee0391789	-2.344632865660007
196	0x3fff7b49aa272c9d	1.967599548969509
197	0x40007c6ec87afb9b	2.0607581770450003
198	0x3ff9aa6828c18b55	1.604103240206958
199	0x40096c769e1fa179	3.1779606202509822
200	0x3fd3547becec3219	0.30203149926163203
201	0xc00ae8ce9be46ff6	-3.3636753253067537
202	0xbff7e8a5331b001d	-1.4942981716449204
203	0x4008de6af82dd31c	3.108602465532739
204	0x3fbf4dbfb458971a	0.12228010323505281
205	0xc00a6782c9a368ef	-3.3005424263948195
206	0xc0095b10b8533890	-3.169465484657003
207	0x3ff97dd031ba5285	1.593216127633384
208	0xc00075368e4e4b1a	-2.0572329633372535
209	0xc0004681c68d7ea9	-2.0344272148066307
210	0x3fe2d4235a4a011e	0.5883957637270532
211	0x3ffefdb65913a2fa	1.936941478687173
212	0x3fec5b38d57cb465	0.886135498969122
213	0xbff223f0ac0d171c	-1.1337744446513573
214	0x3ff35bced4cdf07e	1.209914046542536
215	0xc00391d6c6f14011	-2.4462104360936867
216	0xbff8de65f8dc711b	-1.5542964669358017
217	0x3ffef9f132a3dd63	1.9360210397843154
218	0x3fd0620a581c60c8	0.25598391155791633
219	0x400963ebde7e83c3	3.1737897283896657
220	0x3fc3d902bd36390b	0.15506014098031815
221	0x3fb4347a396dcb20	0.07892574216911585
222	0xc006d93022649a31	-2.856048840232028
223	0xbfa96bbcd7430c07	-0.04965009811123627
224	0xbff063eaace3aa21	-1.0243937257279259
225	0xbff856c857582a51	-1.5211871539965112
226	0x40091b165bfabe68	3.1382262407203605
227	0xbfcd5506c10adae5	-0.229157299288736
228	0x40081bfd3768c08a	3.013666565784722
229	0x3ffa7e6b5d794869	1.655864110118751
230	0x400032234f83bf30	2.024481412132353
231	0xbfd81be4339127cc	-0.37670235668030894
232	0x3feb5a9c24a94524	0.854810783008507
233	0xbfe61034ee0c9623	-0.6894783639333507
234	0xbff2f8f073e861eb	-1.1857761886259321
235	0x3ff9b52d07a4ba8b	1.6067323969433882
236	0xbfe39ae5cdc68374	-0.6126584071208598
237	0xc0048410eead852f	-2.564485420866411
238	0x3fe472c0327ded25	0.6390076624078672
239	0xbff850bd50891c98	-1.5197117944642624
240	0x400904cfecb9702f	3.1273497099009755
241	0x400921bb339382db	3.141470339717086
242	0x400d9abab6a6f300	3.7005514402102335
243	0x3f831a5c4dc7466e	0.009327622531517945
244	0xc0070277dbc06507	-2.8762051742638763
245	0x3ff92413b72e4a0f	1.5713078647137342
246	0x3f97315f36f9335a	0.022649276476204384
247	0x400919333ce8ad5a	3.1373047598369057
248	0x4009286f196aa16e	3.1447431550661156
249	0x4002256e798e5b8d	2.2682771202630136
250	0xbff52e0dd2c640ad	-1.3237436517120316
251	0xbfdf551914bbb638	-0.48956896805507055
252	0x40034622b8a15894	2.4092459129561323
253	0xbff04c04ea2f81c3	-1.0185593746065116
254	0xbff40b32c22399ec	-1.2527339538152047
255	0xbfe0707eb1df1a68	-0.5137322877934141
